Model/20251129_192136_session.pth (torch, 562911 bytes, 12 tensors)

model.0.weight f4 [256, 8]
0	0x3e8c8ab9	0.27449587
1	0xbe28a065	-0.16467436
2	0xbd8d6fb0	-0.06906068
3	0xbd52dd68	-0.05148068
4	0xbd0ce018	-0.0343934
5	0x3d7727e8	0.060340792
6	0xbea6a623	-0.32548627
7	0x3db2e7b4	0.087356
8	0x3cb1ad70	0.021689147
9	0xbc643ec0	-0.013930976
10	0xbe6a41ce	-0.22876665
11	0xbdce07f4	-0.10060111
12	0xbeaa91c8	-0.33314347
13	0xbe7c273f	-0.24624346
14	0x3c6719e0	0.01410529
15	0xbd909290	-0.070592046
16	0x3ea53b67	0.32271883
17	0x3e7a6b7a	0.24455062
18	0x3d68d8f8	0.056847543
19	0x3e335bfe	0.17515561
20	0x3d4220c0	0.047394514
21	0xbe6779fa	-0.22605124
22	0xbe77cb72	-0.24198702
23	0xbe97ecba	-0.29672796
24	0x3ea63ccf	0.32468268
25	0xbde45a4e	-0.11150037
26	0xbd681550	-0.05666095
27	0xbe06350c	-0.13106173
28	0xbe0e5e98	-0.13903272
29	0xbe382905	-0.17984398
30	0x3de84604	0.113414794
31	0xbe226a7a	-0.1586093
32	0x3db8a764	0.09016302
33	0x3daeebe8	0.08541089
34	0x3dd7adc0	0.10531187
35	0x3cd5b480	0.026087046
36	0xbe8a6be8	-0.2703545
37	0x3cc3af70	0.023887366
38	0x3e9436ff	0.2894821
39	0x3e724dc6	0.2366248
40	0xbd6d30e8	-0.05790797
41	0x3e95f9bd	0.29292098
42	0x3e980667	0.29692385
43	0x3da35918	0.07975978
44	0xbeb0b322	-0.34511667
45	0xbe8a5c14	-0.27023375
46	0x3eacc8b3	0.3374687
47	0x3e0d0b58	0.13773859
48	0x3e13ea02	0.14444736
49	0x3e40422e	0.18775246
50	0x3d77a778	0.060462445
51	0x3e50d4c6	0.20393667
52	0xbb0e3600	-0.0021699667
53	0x3cd3afa0	0.02584058
54	0x3e617da2	0.22020581
55	0xbda02f64	-0.07821539
56	0x3e070446	0.13185224
57	0x3e9644a9	0.2934926
58	0x3d407b38	0.04699251
59	0xbe1ad421	-0.15119983
60	0xbe9e4f82	-0.30920035
61	0xbe6348f4	-0.22195798
62	0x3e9e153b	0.30875573
63	0x3e9f0d91	0.31065038
64	0x3e921899	0.28534392
65	0x3d826734	0.06367341
66	0x3e57b66e	0.21065685
67	0xbdd87fce	-0.10571252
68	0xbdac3e6c	-0.084103435
69	0xbd8d60c0	-0.06903219
70	0xbe3c12f5	-0.18366607
71	0xbdbde97c	-0.09273049
72	0xbeaafcd9	-0.33396032
73	0xbe5a27f2	-0.213043
74	0x3e8691e1	0.26283172
75	0x3e3b5876	0.18295464
76	0xbda3e12c	-0.080019325
77	0x3da3dc90	0.08001053
78	0x3cad5220	0.021157324
79	0xbe53ef33	-0.20696716
80	0x3da32834	0.079666525
81	0xbe9b6953	-0.30353794
82	0xbe38b26e	-0.18036816
83	0x3c1ab180	0.009441733
84	0x3ea83bc1	0.3285809
85	0xbe87d996	-0.26533192
86	0xbe8287b9	-0.25494173
87	0x3e83aa53	0.25715885
88	0xbd8597e8	-0.065231144
89	0xbdbac778	-0.09120077
90	0xbe465a30	-0.19370341
91	0xbe829308	-0.255028
92	0x3c937750	0.018001229
93	0x3e46058a	0.1933805
94	0x3d336480	0.043797016
95	0xbe3f82f6	-0.18702301
96	0xbe7c9b09	-0.24668516
97	0x3dc25768	0.09489328
98	0x3e86216b	0.2619737
99	0xbe8ae820	-0.27130222
100	0x3e0a559c	0.1350922
101	0x3e26085a	0.16214123
102	0xbe7b20d8	-0.24524248
103	0xbe1c6156	-0.15271506
104	0xbcc7cb40	-0.02438891
105	0xbd815570	-0.06315124
106	0x3eb400c1	0.35156825
107	0x3e772432	0.24134901
108	0x3e09cfa0	0.13458109
109	0xbe903586	-0.28165835
110	0xbe0a7365	-0.13520582
111	0xbe362595	-0.17787774
112	0x3da77310	0.08176243
113	0xbe74abb8	-0.2389363
114	0xbd198e50	-0.037489235
115	0xbdb792d8	-0.08963555
116	0xbdf02580	-0.117259026
117	0xbe8c5695	-0.27409807
118	0xbe008e7f	-0.12554358
119	0xbe966800	-0.2937622
120	0xbbdd6300	-0.0067561865
121	0x3e9c2413	0.30496272
122	0x3c57c680	0.013169885
123	0xbd8da244	-0.06915715
124	0x3eb0c851	0.3452783
125	0x3e0048c8	0.12527764
126	0x3e898797	0.2686126
127	0x3ea7037b	0.32619843
128	0x3dcc7f70	0.09985244
129	0xbd650458	-0.055912346
130	0xbd4a3138	-0.049363345
131	0x3e095c08	0.13414013
132	0x3e17f772	0.14840487
133	0xbe80195a	-0.25019342
134	0x3c7e8340	0.015534222
135	0xbea4b2ce	-0.32167667
136	0x3d4bf6b8	0.049795836
137	0x3d7be388	0.061496288
138	0x3ea841b3	0.32862625
139	0x3cb4dfa0	0.022079289
140	0xbe2e6171	-0.17029358
141	0x3e0c0554	0.13673908
142	0x3d473b00	0.04864025
143	0xbd91369c	-0.07090494
144	0x3e9b3d39	0.30320147
145	0xbd28b940	-0.041192293
146	0x3d72dcc0	0.059292555
147	0xbe8b6a80	-0.2722969
148	0x3e5467d2	0.2074273
149	0xbcf54040	-0.029937863
150	0xbdbd2d10	-0.092371106
151	0xbe67bc3f	-0.22630404
152	0xbe5884af	-0.21144365
153	0x3e43562e	0.19075844
154	0x3e83817b	0.25684723
155	0xbe3610c1	-0.17779829
156	0x3eaf7ef7	0.34276554
157	0x3bd5ff00	0.0065306425
158	0xbe8adf21	-0.2712336
159	0xbc7cacc0	-0.015422046
160	0xbd9cd2cc	-0.07657394
161	0x3e1c0ae2	0.15238526
162	0x3e9e73e9	0.30947807
163	0xbe840d5a	-0.25791436
164	0x3e941da9	0.2892888
165	0xbe62976a	-0.22128072
166	0x3d3c6840	0.045997858
167	0x3ca14e20	0.019690573
168	0xbe2a03f5	-0.16603072
169	0xbe890bbe	-0.2676677
170	0x3e84894b	0.25885996
171	0x3e9ccd8f	0.3062558
172	0x3e94eb09	0.29085568
173	0x3c5013a0	0.012699991
174	0xbe204491	-0.15651156
175	0xbe7546ea	-0.23952833
176	0xbe52c308	-0.20582211
177	0xbe2811d8	-0.16413057
178	0x3e8ec39f	0.27883622
179	0x3dc06d9c	0.09395906
180	0x3e9cd33d	0.30629912
181	0xbea5b28c	-0.32362783
182	0x3e7a01de	0.24414775
183	0x3ea3a643	0.31962785
184	0x3d2c41b0	0.042054832
185	0xbd999eec	-0.07501015
186	0xbdc5c0c8	-0.09655911
187	0x3db52190	0.08844292
188	0xbc18be20	-0.009322673
189	0x3e0140e0	0.12622404
190	0xbe483fd6	-0.19555601
191	0xbd243170	-0.04008621
192	0xbd2556a0	-0.040365815
193	0x3e324c7e	0.17411992
194	0x3e3e9c9e	0.18614432
195	0xbe8268b4	-0.25470507
196	0x3d827e0c	0.06371698
197	0x3e38037e	0.17970082
198	0xbe24173f	-0.16024493
199	0x3cdde420	0.027086318
200	0xbd8784c8	-0.06617123
201	0x3e9dda0f	0.30830428
202	0xbe6d0b76	-0.23148903
203	0x3e8effdd	0.27929583
204	0xbd7fc268	-0.06244126
205	0x3ba44280	0.00501281
206	0x3df91e08	0.12163931
207	0xbe80c4a3	-0.25150022
208	0xbeb121ef	-0.34596202
209	0x3e12cc3a	0.14335719
210	0xbea38c03	-0.31942758
211	0x3d5d6780	0.054053783
212	0x3ea7a429	0.32742432
213	0xbdec0996	-0.11525266
214	0x3e7f2726	0.24917278
215	0x3ded2600	0.115795135
216	0xbd7ecc08	-0.062206298
217	0xbdc4d314	-0.096105725
218	0xbe3cc5eb	-0.18434875
219	0xbddd9580	-0.108195305
220	0xbe89f44f	-0.26944205
221	0x3dc34be0	0.095359564
222	0x3e0bcd94	0.1365264
223	0xbe8c9f78	-0.27465415
224	0xbe67ecb5	-0.2264889
225	0xbd1ab190	-0.037766993
226	0x3e79f9b6	0.24411663
227	0xbc7a0d20	-0.015261918
228	0xbeaf663f	-0.34257695
229	0x3e9ab2c5	0.30214515
230	0x3d750f08	0.059828788
231	0xbe10b104	-0.14130026
232	0x3eab46b3	0.33452377
233	0xbe2e5982	-0.17026332
234	0xbe812a9f	-0.2522783
235	0xbea7954a	-0.32731086
236	0xbd1629f0	-0.03666109
237	0xbe28c6c4	-0.16482073
238	0xbea3862f	-0.3193831
239	0x3e54a8a6	0.2076746
240	0x3d3497f8	0.04409024
241	0xbd35d340	-0.044390917
242	0x3de8edf0	0.11373508
243	0xbe020f4b	-0.12701146
244	0xbd761158	-0.060075134
245	0xbe2a7cdf	-0.16649197
246	0x3da1eff8	0.079070985
247	0x3de7283c	0.11286971
248	0xbdc64dcc	-0.09682807
249	0x3eaae27d	0.33375922
250	0x3d843fac	0.06457457
251	0xbe91a08e	-0.28442806
252	0x3e3653ae	0.17805359
253	0x3e6637ea	0.22482267
254	0xbe0cfe03	-0.13768773
255	0x3e96bf89	0.29443005

model.0.bias f4 [256]
0	0x3e155810	0.14584374
1	0xbe8f72ba	-0.28017217
2	0x3d5c15f8	0.05373189
3	0x3e81e743	0.2537175
4	0x39559800	0.00020369887
5	0x3e8453dd	0.25845233
6	0xbe46665d	-0.19374986
7	0xbe41a9ee	-0.1891248
8	0x3e5a2716	0.21303973
9	0x3ea04fe3	0.3131095
10	0xbeaf3bd2	-0.34225327
11	0x3ead4ebd	0.33849135
12	0xbbbe1a80	-0.005801499
13	0x3ea3227b	0.31862244
14	0x3eaaa69b	0.33330235
15	0x3eb30063	0.34961233
16	0xbe829d0a	-0.25510436
17	0xbdea4576	-0.1143903
18	0xbe32d5fe	-0.17464444
19	0xbeb1786d	-0.3466219
20	0xbe7d1207	-0.24713908
21	0xbe1dd5fe	-0.15413663
22	0x3d1bb668	0.038015753
23	0x3dea7e14	0.11449829
24	0xbda155c8	-0.078776896
25	0xbde8bba6	-0.11363916
26	0x3dff5968	0.12468225
27	0xbc245a20	-0.010031253
28	0x3d451d18	0.04812345
29	0x3d318328	0.04333797
30	0xbea6e4a1	-0.32596305
31	0x3e99f807	0.30072042
32	0xbcc9df70	-0.024642676
33	0xbd1742a0	-0.036928773
34	0x3dff2c4c	0.12459621
35	0x3e337716	0.17525896
36	0xbe6a0813	-0.22854643
37	0xbd97c580	-0.07410717
38	0xbe9281d4	-0.28614676
39	0x3dadfea4	0.084958345
40	0x3e4f4b9a	0.20243683
41	0x3e0b9782	0.13632014
42	0x3e46f4b2	0.19429281
43	0xbdabe440	-0.083931446
44	0x3e94482f	0.28961322
45	0xbe7ddaac	-0.24790448
46	0x3e3382da	0.17530385
47	0x3e736d3a	0.23772135
48	0xbe9fd6f4	-0.31218684
49	0x3e19a74e	0.15005228
50	0x3ea1df47	0.3161566
51	0x3e0e8e5a	0.1392149
52	0xbddbb37e	-0.10727595
53	0x3b614280	0.0034371912
54	0x3d5cba60	0.05388868
55	0xbdeb0998	-0.11476439
56	0x3e9ea3cd	0.30984345
57	0xbe3996cd	-0.18123932
58	0x3db68208	0.0891152
59	0x3bce9200	0.0063040257
60	0x3e52257e	0.20522115
61	0x3e87e665	0.26542965
62	0xbe8bed5f	-0.27329537
63	0xbe39f7aa	-0.18160883
64	0xbea7a814	-0.3274542
65	0x3e256c4a	0.1615459
66	0xbe4167e7	-0.18887292
67	0xbdbd63e8	-0.09247571
68	0xbe403242	-0.18769172
69	0xbde2feac	-0.11083731
70	0xbea9148d	-0.33023492
71	0x3d822650	0.06354964
72	0xbe6a6b48	-0.22892487
73	0x3e7fe99a	0.24991456
74	0xbd9e8b94	-0.07741466
75	0x3e70fd86	0.23534212
76	0xbd8e9d78	-0.069636285
77	0x3e825733	0.25457153
78	0x3e911ec5	0.28343788
79	0x3e0bdb1e	0.13657805
80	0x3d9d56e0	0.07682586
81	0xbe8ae027	-0.2712414
82	0xbea3f75c	-0.32024658
83	0x3e048586	0.1294156
84	0x3e56d0f2	0.20978144
85	0xbe3bc762	-0.18337777
86	0xbd8d9de4	-0.06914881
87	0x3d9b838c	0.0759345
88	0xbe078517	-0.13234363
89	0x3d205c30	0.039150417
90	0x3e58203a	0.21106043
91	0xbe2154f8	-0.1575507
92	0xbeb4932c	-0.35268533
93	0xbeb33754	-0.3500315
94	0xbe12e47e	-0.14344975
95	0xbe3a3c96	-0.18187174
96	0x3ea6ad99	0.3255432
97	0x3eae57b1	0.34051278
98	0xbe8349b6	-0.25642174
99	0x3de557b8	0.11198372
100	0xbe8ddf65	-0.277095
101	0x3eaad2ab	0.33363852
102	0x3e5c055e	0.21486422
103	0xbe75141d	-0.23933454
104	0x3e6c6faa	0.23089471
105	0x3e7e0002	0.2480469
106	0x3e92f2d7	0.28700897
107	0xbe61c0c4	-0.2204619
108	0x3d3891d0	0.045060933
109	0xbc84b9d0	-0.016201884
110	0xbe0cc2c8	-0.13746178
111	0x3e0a22b0	0.13489795
112	0x3dad5abc	0.08464572
113	0x3e9f427f	0.3110542
114	0x3e8f1a2f	0.27949664
115	0xbe1c840a	-0.15284744
116	0x3e70e2ee	0.23524067
117	0xbdc240c4	-0.09485009
118	0x3c785040	0.015155852
119	0xbeb4e324	-0.35329545
120	0x3c8507c0	0.016239047
121	0xbe8bedee	-0.27329963
122	0x3d122fa8	0.03568998
123	0xbe9b0283	-0.30275354
124	0x3e8acd25	0.27109638
125	0x3eb0edf5	0.34556547
126	0x3e9abf95	0.3022429
127	0x3e5fd972	0.21860293
128	0x3e70e406	0.23524484
129	0xbc108ec0	-0.008823097
130	0x3e008362	0.12550119
131	0x3d6d7c68	0.05797997
132	0x3d104800	0.035224915
133	0x3eaa92a3	0.33315
134	0xbdfdbc28	-0.123894036
135	0xbea6d3f8	-0.32583594
136	0x3e69610e	0.2279093
137	0x3e94e8f1	0.2908397
138	0x3e067520	0.13130617
139	0xbea8c566	-0.32963103
140	0xbe96920c	-0.294083
141	0xbeaa0372	-0.33205754
142	0xbe2151cc	-0.1575386
143	0xbe18aed7	-0.14910446
144	0xbe465376	-0.19367775
145	0xbe4111e1	-0.18854477
146	0x3ddaf2a8	0.10690814
147	0x3e15d112	0.14630535
148	0xbe2507b2	-0.16116217
149	0x3ea4ae39	0.3216417
150	0xbe776e0d	-0.24163075
151	0x3dd510e0	0.10403609
152	0x3ea5b16f	0.32361934
153	0x3e959ca1	0.2922106
154	0xbd579f28	-0.052642018
155	0xbd0bb6e0	-0.03410995
156	0xbe9d7391	-0.30752233
157	0x3dfa5a74	0.12224284
158	0x3e9fa8bf	0.3118343
159	0xbea37e92	-0.31932503
160	0x3d8163d0	0.06317866
161	0xbd498478	-0.049198598
162	0x3e0a5dd4	0.13512355
163	0xbe91fe6a	-0.28514415
164	0x3eaf14cb	0.3419555
165	0x3e375932	0.17905119
166	0xbd572278	-0.052523106
167	0x3ea2bd8d	0.3178524
168	0xbe8cf71e	-0.27532285
169	0x3ea05997	0.31318352
170	0xbe8870b2	-0.2664848
171	0x3e66b1c6	0.22528753
172	0xbe28403d	-0.16430755
173	0x3dfaf7c8	0.12254292
174	0xbea331b2	-0.31873852
175	0x3ea910e3	0.33020696
176	0x3ea29bbf	0.3175945
177	0x3e69f706	0.22848138
178	0x3c0d47c0	0.008623064
179	0xbe9c9932	-0.3058563
180	0xbdd5b064	-0.104340345
181	0x3e1569a0	0.14591074
182	0xbe202774	-0.1564005
183	0xbd37bda8	-0.044858605
184	0x3e6b666e	0.22988293
185	0xbeb25426	-0.34829825
186	0xbe98e46c	-0.29861772
187	0xbe756a76	-0.23966393
188	0x3e1fdf52	0.15612534
189	0x3ea6fa77	0.32612965
190	0x3e68d94e	0.22739145
191	0x3ea65b8d	0.32491723
192	0x3e424c72	0.18974474
193	0xbe5a8abb	-0.21341984
194	0xbc921410	-0.017831832
195	0x3d97eb44	0.0741792
196	0xbc751ca0	-0.014960438
197	0xbc8902e0	-0.016725004
198	0x3ea3e3ff	0.32009885
199	0x3c8cdb40	0.01719439
200	0xbe71dbe8	-0.23619044
201	0x3c31f100	0.0108606815
202	0x3e59aa92	0.21256474
203	0xbe029501	-0.12752153
204	0xbeae930c	-0.34096563
205	0x3e62bde2	0.22142747
206	0xbe3f8e73	-0.18706684
207	0x3e705c8e	0.23472807
208	0x3e8beacd	0.27327576
209	0xbe2b820d	-0.16748829
210	0xbe573919	-0.21017875
211	0xbe8af4b9	-0.27139834
212	0x3ddb5cb8	0.10711044
213	0x3e661072	0.22467211
214	0x3dcc4774	0.09974566
215	0xbe7b3190	-0.24530625
216	0x3e95ac1b	0.2923287
217	0x3ea4bb4d	0.3217415
218	0x3e8459a3	0.25849637
219	0x3e7aa5c2	0.24477294
220	0x3db43834	0.087997824
221	0x3e2a6676	0.16640648
222	0x3d63fd98	0.055661768
223	0x3dcd2070	0.100159526
224	0xbeb2b0bf	-0.34900472
225	0x3ea35317	0.3189933
226	0xbeb06d51	-0.34458402
227	0x3e42c906	0.19021997
228	0x3d1274f8	0.03575608
229	0x3e13ef18	0.14446676
230	0xbd7c2bc0	-0.06156516
231	0xbe84fafb	-0.25972733
232	0x3dd85704	0.10563472
233	0xbd8e17ac	-0.06938109
234	0xbdc5f848	-0.096664965
235	0x3d2da7f8	0.042396516
236	0x3db31c78	0.08745664
237	0x3e95f54d	0.29288712
238	0xbe9e2607	-0.30888388
239	0xbe9c5f20	-0.30541325
240	0x3e596afe	0.2123222
241	0xbea52d13	-0.3226095
242	0x3ea016a3	0.3126727
243	0xbe3c7f3e	-0.18407914
244	0xbe4b26cf	-0.19839023
245	0x3d9cd904	0.0765858
246	0x3e632a8e	0.22184202
247	0xbe048f94	-0.12945396
248	0x3dfedd5c	0.12444565
249	0xbeb2b56c	-0.3490404
250	0x3c8ee140	0.017441392
251	0xbe53046a	-0.20607153
252	0x3d8215ec	0.063518375
253	0xbeaa499e	-0.3325929
254	0x3e5b276e	0.2140176
255	0xbde7fad4	-0.113271385

model.2.weight f4 [256, 256]
0	0x3d3c0cd2	0.045910664
1	0x3d5216b2	0.051291175
2	0xbd4d8290	-0.050173342
3	0x3c5c8308	0.013458975
4	0x3d470d26	0.048596524
5	0xbd2a7f72	-0.041625448
6	0xbd437b42	-0.04772497
7	0xbcee3bb0	-0.029081196
8	0xbccb3734	-0.024806596
9	0x3c56c258	0.013107859
10	0x3d77e3f2	0.06052012
11	0xb98bfc00	-0.000266999
12	0x3d6b982a	0.05751816
13	0xbcd99f78	-0.026565298
14	0x3c9986f4	0.018741108
15	0xbcbb337c	-0.022851698
16	0x3d19c62e	0.037542515
17	0xbd22166c	-0.039572164
18	0xbd3d64ca	-0.046238698
19	0xbd3e806c	-0.04650919
20	0xbb8332c0	-0.0040038526
21	0x3c8222dc	0.015885763
22	0x3c87f278	0.01659511
23	0x3c2ef998	0.010679625
24	0xbd1f513e	-0.038895838
25	0x3d02c470	0.03192562
26	0x3d6cc5ae	0.05780571
27	0x3cbfd22c	0.023415647
28	0x3cde92fc	0.027169697
29	0x3c17ba88	0.009260781
30	0xb82ee800	-4.17009e-05
31	0x3d1c1c1c	0.038112745
32	0x3d29ed8e	0.041486315
33	0x3d00f2b8	0.031481475
34	0xbd052b44	-0.032511964
35	0x3d530892	0.051521845
36	0x3d6f1c54	0.058376625
37	0xbc8ad778	-0.016948447
38	0x3d2a0204	0.04150583
39	0x3cb2182c	0.021740042
40	0xbce5f82c	-0.02807244
41	0xb9165400	-0.00014336407
42	0xbc58dee0	-0.013236731
43	0x3d6cecf6	0.05784317
44	0xbd10aebc	-0.03532289
45	0xbd4514c0	-0.048115492
46	0xbbb56810	-0.005536087
47	0xbd2296e0	-0.039694667
48	0x3c123428	0.008923568
49	0xbd23ae1a	-0.039960958
50	0xbd3e9f0a	-0.04653839
51	0xbd0aae96	-0.033857904
52	0x3d2c0d5c	0.042004928
53	0xbcbdf8e4	-0.02318997
54	0xbd1ca8ca	-0.038246907
55	0xbcb05fe0	-0.021530092
56	0x3cc4484c	0.023960255
57	0x3d157a68	0.03649369
58	0x3ca7107c	0.020393603
59	0x3ccfc814	0.02536396
60	0xbbf1e2b0	-0.0073817596
61	0xbd16803c	-0.036743388
62	0xba525b80	-0.0008024499
63	0xbcf6b258	-0.030114338
64	0x3d3b8388	0.045779735
65	0x3c49b5e8	0.012311436
66	0xbd752a90	-0.059855044
67	0x3ca1ede0	0.019766748
68	0xbcbeed58	-0.023306534
69	0x3bf5d3d0	0.0075020567
70	0x3cbae608	0.022814766
71	0xbbe5be90	-0.007011242
72	0x3d5bc386	0.053653263
73	0xbcc5a2ec	-0.024125539
74	0xbc9224a8	-0.017839745
75	0xbc06a038	-0.00821691
76	0xbd6f5a94	-0.05843599
77	0xbc9ba658	-0.019000217
78	0x3cfe7410	0.031061202
79	0x3c349908	0.011022814
80	0xbcb904a8	-0.022585228
81	0xbc303700	-0.0107553005
82	0xbd75c0ec	-0.059998438
83	0x3d46bf00	0.048521996
84	0x3d002ac4	0.031290784
85	0x3cb12460	0.02162379
86	0xbc633498	-0.01386752
87	0x3d2ef8d4	0.04271777
88	0x3bab5960	0.00522916
89	0xbcceedd0	-0.025259882
90	0xbccfd478	-0.025369868
91	0xbbd265d0	-0.0064208284
92	0x3ce74484	0.028230913
93	0x3c72b9d0	0.014814809
94	0xbd7285ce	-0.059209637
95	0xbd209f74	-0.039214566
96	0x3d41efa4	0.04734768
97	0xbc22c6f8	-0.009935133
98	0xbbd05900	-0.006358266
99	0xbb569c20	-0.0032746866
100	0x3ccf9ae4	0.025342412
101	0x3c36e200	0.011162281
102	0x3d1f41fc	0.038881287
103	0x3d5a4d94	0.05329664
104	0xbd48fe6a	-0.049070753
105	0x3d588a28	0.05286613
106	0x3d0729d4	0.032998875
107	0x3d684cb8	0.05671379
108	0xbd7f8cee	-0.06239026
109	0x3d1866f0	0.037207544
110	0x3d1fadfa	0.038984276
111	0x3ad8d700	0.0016543567
112	0x3d1e61e4	0.038667575
113	0xbae59500	-0.0017515719
114	0xbd56900c	-0.052383468
115	0x3d5594ee	0.052143984
116	0xbd108654	-0.035284355
117	0xbbc8ef70	-0.006132059
118	0x3cb0600c	0.021530174
119	0xbb625f40	-0.0034541637
120	0x3d7ae078	0.061249226
121	0xbd4f224c	-0.050569817
122	0x3d3d31b8	0.046189994
123	0xbd435216	-0.047685705
124	0xbd01e440	-0.031711817
125	0xbcf60684	-0.030032404
126	0xbd34de14	-0.044157103
127	0x3c2cfe78	0.010558717
128	0x3cf9a57c	0.030474417
129	0xbd66f810	-0.056388915
130	0x3d19b77c	0.0375285
131	0xbafcf780	-0.0019299835
132	0xbccfb974	-0.025356986
133	0x3d20527e	0.03914117
134	0x3d7518f6	0.059838258
135	0x3cec4894	0.028843202
136	0x3b6a28e0	0.003572993
137	0xbb6b6ba0	-0.0035922304
138	0x3adcbfc0	0.0016841814
139	0xbc0e7228	-0.008694209
140	0xbd285220	-0.041093946
141	0xbce2e068	-0.027694896
142	0x3d101164	0.035172835
143	0xbcc7da38	-0.024396047
144	0x3d75a810	0.05997473
145	0x3bdd43b0	0.0067524537
146	0xbd0618fc	-0.03273867
147	0x3cce1340	0.025155663
148	0xbd615a6a	-0.055017866
149	0xbd77f3d2	-0.06053526
150	0x3d1dbe5c	0.03851162
151	0xbd115a12	-0.03548629
152	0x3cb8d7a0	0.022563756
153	0x3d7c4dcc	0.06159763
154	0xbd4c5270	-0.049883306
155	0xbd674ef6	-0.056471787
156	0xbd357c64	-0.04430808
157	0x3c10ee38	0.008845858
158	0x3cdf5250	0.02726093
159	0x3d70fa86	0.058832668
160	0xbc20b390	-0.009808436
161	0x3c81cb74	0.015844084
162	0xbd5d3208	-0.05400279
163	0x3d56cb72	0.052440114
164	0xbd043246	-0.032274507
165	0x3bf66670	0.0075195357
166	0xbd1ffa66	-0.039057158
167	0xbd463f22	-0.048400052
168	0xbd1bbecc	-0.038023755
169	0xbd4cc544	-0.049992815
170	0xbd425428	-0.04744354
171	0x3d115542	0.0354817
172	0x3b4f5c00	0.003164053
173	0xbd16aaca	-0.03678397
174	0xbd6790de	-0.05653464
175	0xbc8dbab8	-0.017300949
176	0x3d0172ee	0.031603746
177	0xbccc64e8	-0.02495046
178	0xbd6030b4	-0.054733947
179	0xbc9a618c	-0.018845342
180	0x3d7bd66c	0.061483786
181	0xbb928730	-0.004471682
182	0xbccf9e24	-0.025343962
183	0x3d1f4d34	0.038891986
184	0x3cf20c80	0.029546976
185	0x3d31bd48	0.043393403
186	0x3d37b170	0.044846952
187	0xbd5254b6	-0.051350318
188	0x3cf4369c	0.029811196
189	0xbd3436b2	-0.043997474
190	0xbcdd1260	-0.026986301
191	0x3ce54ff4	0.027992226
192	0x3d641336	0.055682383
193	0xbc7131f8	-0.014721386
194	0x3a27ea80	0.00064054877
195	0xbd37fa70	-0.04491657
196	0xbd591016	-0.052993856
197	0xbb407a40	-0.0029369742
198	0xbce8bca4	-0.028410263
199	0xbd3a5b3e	-0.04549717
200	0xbcb2fe40	-0.021849751
201	0xbc325d88	-0.010886557
202	0xbca4f7c0	-0.020137668
203	0xbc0b20d8	-0.008491717
204	0x3c8caecc	0.017173193
205	0x3d47c2de	0.048769824
206	0x3d117526	0.035512112
207	0xbc1717c8	-0.0092219785
208	0xbc3b6508	-0.011437662
209	0x3ca5cb14	0.020238437
210	0x3c3608f0	0.011110529
211	0x3c9218c4	0.017834075
212	0x3d2083c0	0.039188147
213	0xbd608a06	-0.05481913
214	0x3d28eea4	0.04124321
215	0xbad448c0	-0.0016195998
216	0x3cab3eb8	0.02090393
217	0x3ca8768c	0.02056434
218	0x3d03796c	0.03209822
219	0x3d7e3f60	0.062072158
220	0xbd29369a	-0.041311838
221	0x3d7c0bfa	0.06153486
222	0xbc15d658	-0.009145342
223	0xbca50d2c	-0.020147882
224	0x3c2a7310	0.01040341
225	0x3b556880	0.0032563508
226	0xbc2d3e58	-0.010573946
227	0x3c0eea80	0.008722901
228	0xbd216f96	-0.039413057
229	0xbd241dc2	-0.04006744
230	0x3d0ba338	0.034091204
231	0x3cfae640	0.03062737
232	0x3bc482d0	0.0059970394
233	0xbc5f8660	-0.013642877
234	0x3d77e7e4	0.060523883
235	0xbd39aa84	-0.045328632
236	0xbd46a596	-0.04849776
237	0x3d00362c	0.031301662
238	0x3c6e7780	0.014554858
239	0x3b9eced0	0.0048464313
240	0x3d657ea8	0.056028992
241	0x3d40ef0a	0.047102965
242	0xbc89cfb8	-0.01682268
243	0xbcfa6c74	-0.030569293
244	0x3d360974	0.04444261
245	0x3ae23900	0.0017259419
246	0x3c286868	0.010278799
247	0xbcd6fa30	-0.026242346
248	0x3cba6668	0.02275391
249	0x3d18fcc0	0.037350416
250	0xbd5ed9a4	-0.054406777
251	0xbc8cba2c	-0.017178617
252	0xbd07604e	-0.033050828
253	0x3d6450ca	0.05574111
254	0xbc18e148	-0.009331055
255	0x3ca34bc8	0.019933596

model.2.bias f4 [256]
0	0xbc9fdf2c	-0.019515596
1	0xbd279b26	-0.040919445
2	0xbb037d20	-0.0020063594
3	0x3d090db4	0.033460334
4	0xbc9ca78c	-0.019122861
5	0xbbc7c890	-0.006096907
6	0x3c0dff90	0.008666888
7	0xbd5cc30e	-0.053896956
8	0xbbbc7a30	-0.0057518706
9	0x3c185828	0.009298362
10	0x3ccf4d94	0.025305547
11	0x3d5bbe3c	0.05364822
12	0xbcc22644	-0.023699887
13	0xbd7fff6a	-0.06249944
14	0xbca1e2c8	-0.019761458
15	0x3c153a68	0.009108163
16	0xbd6a06b4	-0.0571353
17	0x3d3065dc	0.04306589
18	0xbcd135bc	-0.025538318
19	0x3d02e192	0.031953402
20	0x3d5b58ac	0.05355136
21	0xbc80c1a8	-0.015717342
22	0xbc213fc0	-0.009841859
23	0xbd646cf6	-0.055767976
24	0x3d14d4fe	0.036335938
25	0xbd31817e	-0.043336384
26	0xbd7b7e24	-0.061399594
27	0x3c7d5660	0.015462488
28	0x3d6eccfa	0.05830095
29	0x3c0512a8	0.008122124
30	0xbc3c7240	-0.011501849
31	0xbd124012	-0.035705633
32	0xbccf4a5c	-0.025304012
33	0xbd4d4424	-0.050113812
34	0x3b3dd860	0.002896808
35	0xbd3da7d8	-0.046302646
36	0x3d2a2914	0.04154308
37	0xbc9b297c	-0.01894068
38	0xbb4c0720	-0.0031132177
39	0xbd4cc5da	-0.049993373
40	0xbd0ce38e	-0.0343967
41	0x3d5d3ae8	0.054011256
42	0xbd573b9c	-0.052547082
43	0xbd38e4c4	-0.045140043
44	0x3d6d65aa	0.057958283
45	0x3d229154	0.039689377
46	0xba95b180	-0.0011420697
47	0xbd304be8	-0.04304114
48	0x3c008018	0.00784304
49	0x3d75a8f8	0.059975594
50	0xbba1db30	-0.0049394593
51	0xbcd04ba4	-0.025426693
52	0xbca903c0	-0.020631671
53	0xbd010fde	-0.031509273
54	0x3d6fe3c6	0.05856683
55	0xbcbdb91c	-0.023159556
56	0xba824040	-0.0009937361
57	0xbccce04c	-0.025009297
58	0xbd080a42	-0.033212908
59	0xbc614640	-0.013749659
60	0x3caada80	0.020856142
61	0x3d3d5ba4	0.046229973
62	0x3c622758	0.013803326
63	0xbc253818	-0.010084175
64	0xbcc53788	-0.02407433
65	0xbcbb4780	-0.022861242
66	0xbc260ad0	-0.010134414
67	0xbc111240	-0.008854449
68	0xbd2352d4	-0.039873913
69	0xbca76f4c	-0.020438813
70	0x3c26a838	0.010171942
71	0xbc82978c	-0.015941404
72	0xbd655dd4	-0.055997685
73	0xbc653420	-0.013989478
74	0xbcc28b14	-0.023747958
75	0x3d226ab8	0.039652556
76	0xbd11306c	-0.03544657
77	0xbd7d95d6	-0.061910473
78	0xbd3ccd0a	-0.046093978
79	0x3d3f9274	0.046770528
80	0xbcbd0694	-0.023074426
81	0xbd1a9e92	-0.03774888
82	0xbd627246	-0.05528476
83	0x3a1b9b80	0.0005935952
84	0x3d443a58	0.047907203
85	0x3c9d0afc	0.019170277
86	0xbd4326de	-0.04764449
87	0x3b4e8a60	0.0031515583
88	0xbd0fa91e	-0.035073392
89	0x3d068f16	0.0328513
90	0xbc5194e8	-0.01279185
91	0x3cb35e14	0.021895446
92	0x3cd78a84	0.026311167
93	0xbd76c5f0	-0.06024736
94	0x3d0f4f0c	0.034987494
95	0x3c358e28	0.011081256
96	0x3ceadea4	0.028670616
97	0xbcd4ca60	-0.025975406
98	0x3cb37b80	0.021909475
99	0xbcaae4b4	-0.020861007
100	0xbd37addc	-0.04484354
101	0x3d01d206	0.031694435
102	0xbd6542b8	-0.05597183
103	0x3a757000	0.00093626976
104	0xbcf56e90	-0.029959947
105	0x3d254fbe	0.04035925
106	0x3d0330f0	0.032029092
107	0x3c459100	0.0120584965
108	0xbcaa2614	-0.02077011
109	0x3d627a60	0.055292487
110	0x3d063fe2	0.032775767
111	0xbce73730	-0.028224558
112	0x3c1becc0	0.009516895
113	0xbc8193c4	-0.01581753
114	0xbc0466e0	-0.008081168
115	0x3d00a50e	0.03140741
116	0xbc5461a8	-0.012962736
117	0x3be80fc0	0.0070819557
118	0x3c80bf2c	0.015716158
119	0x3d445bd6	0.047939144
120	0xbce5a2e0	-0.028031766
121	0xbd243e26	-0.040098332
122	0xbce9212c	-0.0284582
123	0xbd6fac38	-0.05851385
124	0x3cc69670	0.024241656
125	0x3cde4298	0.027131364
126	0xbd2c0cd4	-0.04200442
127	0xbd3f1736	-0.046652995
128	0xbd2107bc	-0.039314017
129	0xbd732f78	-0.05937144
130	0xbd481538	-0.04884836
131	0xbd77bd66	-0.06048336
132	0xbb525b00	-0.0032097697
133	0x3bef7440	0.0073075593
134	0xbd26a80e	-0.040687613
135	0xbccc3958	-0.024929687
136	0x3d7df2bc	0.061999068
137	0x3d276c2c	0.040874645
138	0x3d5c8614	0.053838804
139	0xbd6f0294	-0.058352068
140	0xbc24f640	-0.010068476
141	0xbcccc874	-0.024997927
142	0x3b1205e0	0.0022281334
143	0x3d7ab9c8	0.06121233
144	0x3d0184fe	0.03162097
145	0xbca1db64	-0.019757934
146	0xbd424920	-0.04743302
147	0xbd01d188	-0.031693965
148	0x3c9357cc	0.0179862
149	0x3d2bf7f2	0.041984506
150	0x3c3a3018	0.0113640055
151	0xbb924ec0	-0.004464954
152	0xbd76c3d0	-0.060245335
153	0x3d61a7c0	0.05509162
154	0xbcb7a0f4	-0.022415616
155	0xbc28f7b8	-0.010312967
156	0xbd62ab70	-0.055339277
157	0xbd02a0e0	-0.031891704
158	0x3cfc9b5c	0.0308358
159	0xbd169d34	-0.036771014
160	0xbc2f8258	-0.010712229
161	0xbd5feb3a	-0.05466769
162	0x3bd1f440	0.0064072907
163	0xbd501dac	-0.050809547
164	0x3d4be410	0.049778044
165	0x3d630d50	0.055432618
166	0x3cd242dc	0.025666647
167	0x3cc23aec	0.023709737
168	0xbd2fe7b2	-0.04294557
169	0x3c9e9ba8	0.019361332
170	0x3d4408b2	0.047859855
171	0x3d1d9a70	0.03847736
172	0xbcf37358	-0.029718086
173	0x3cae8c68	0.021307185
174	0xbd53ea92	-0.051737376
175	0xbd09f546	-0.033681177
176	0x3c2f4748	0.010698147
177	0xbcd0274c	-0.025409363
178	0xbb8b0a70	-0.0042431876
179	0xbcadc5b0	-0.021212429
180	0xbd521e3c	-0.051298365
181	0x3d48009e	0.048828714
182	0x3d601790	0.05470997
183	0xbd2e722c	-0.04258935
184	0x3cba1994	0.022717275
185	0x3ce7a6e0	0.028277814
186	0xbd70646a	-0.058689512
187	0xbb3fdce0	-0.002927594
188	0x3d391bba	0.045192458
189	0x3cd36a00	0.02580738
190	0x3d48f7e0	0.049064517
191	0x3ccc228c	0.024918817
192	0xbbc31f00	-0.005954623
193	0xbc7a4818	-0.015275978
194	0xbc8af230	-0.016961187
195	0xbd7202b0	-0.059084594
196	0x3d459a7c	0.04824303
197	0xbd4fd290	-0.050737917
198	0xbd6e3b98	-0.0581623
199	0xbcccf3a4	-0.02501852
200	0xbb395320	-0.0028278306
201	0x3d4985c0	0.04919982
202	0x3cebaf28	0.028770044
203	0x3d00bfae	0.0314328
204	0x3d239a7a	0.039942242
205	0x3b0a70c0	0.0021124333
206	0x3d70f5d6	0.058828197
207	0xbcaab3e8	-0.02083774
208	0xbd675128	-0.05647388
209	0xbd1666e6	-0.036719225
210	0xbd441778	-0.047873944
211	0xbcd61760	-0.026134193
212	0x3c8ef168	0.017449096
213	0xbd4f593c	-0.05062221
214	0x3be7b900	0.0070716143
215	0x3d62d87e	0.055382244
216	0xbceaa594	-0.028643407
217	0x3c797960	0.015226692
218	0x3ce43184	0.027855642
219	0x3d3a027a	0.045412518
220	0x3d0272fa	0.03184793
221	0xbd65b162	-0.05607737
222	0xbceb6a74	-0.028737284
223	0xbc87ca28	-0.016575888
224	0x3d76f286	0.060289882
225	0x3d7426ba	0.059607245
226	0xbd35ab54	-0.044352844
227	0x3d46f41a	0.048572637
228	0x3cd3700c	0.025810264
229	0xbd70578e	-0.05867725
230	0xbcbc7f98	-0.02301006
231	0x3a94c400	0.0011349916
232	0x3c448788	0.011995204
233	0x3d21ee2c	0.03953378
234	0xbcc9bf08	-0.024627224
235	0xbd665776	-0.056235753
236	0x3d319752	0.0433572
237	0xbd160d68	-0.03663388
238	0x3d62bafa	0.055354096
239	0x3c19b830	0.009382293
240	0xba612d00	-0.00085897744
241	0xbc4dfe28	-0.012572803
242	0x3cd964e0	0.026537359
243	0x3d70bc14	0.058773115
244	0xbc494fc8	-0.012287088
245	0x3d36166e	0.044454984
246	0x3afc8480	0.0019265562
247	0x3d4b4ae2	0.04963196
248	0xbd0ec1dc	-0.034852847
249	0xbd577cfc	-0.05260943
250	0x3d596566	0.053075217
251	0x3d601c14	0.054714277
252	0x3b8432a0	0.0040343553
253	0xbb59e200	-0.0033246279
254	0x3d793a34	0.060846522
255	0x3c19cb88	0.009386905

model.4.weight f4 [6, 256]
0	0xbb69bb20	-0.0035664514
1	0x3c13d1c8	0.009022184
2	0xbc616ab8	-0.013758354
3	0xbc9d1fc0	-0.019180179
4	0x3d05fad8	0.032709926
5	0xbd53d164	-0.051713362
6	0xba963300	-0.0011459291
7	0xbca8c958	-0.02060382
8	0xbd24f7d4	-0.04027541
9	0xbc2c5a78	-0.010519616
10	0xbd36421a	-0.044496633
11	0x3d5933f2	0.053028055
12	0xbd25e298	-0.0404993
13	0xbc7f9470	-0.015599355
14	0x3d7adb1e	0.061244123
15	0x3c2b35f0	0.010449871
16	0xbd1aa774	-0.037757352
17	0xbbc8efd0	-0.0061321035
18	0xbb565a60	-0.0032707676
19	0x3c85586c	0.016277514
20	0xbcf20dcc	-0.029547594
21	0xbd42a684	-0.047522083
22	0xbc1d1748	-0.00958807
23	0x3d397938	0.04528162
24	0x3d47433c	0.048648104
25	0xbc56b580	-0.013104796
26	0xbd626c9c	-0.05527936
27	0x3c894cd8	0.016760275
28	0xbd01681e	-0.031593435
29	0x3d590892	0.05298669
30	0x3d11fe2a	0.03564278
31	0xbc13fae0	-0.009031981
32	0x3d5b4f30	0.053542316
33	0xbd545852	-0.05184204
34	0x3a6d9600	0.0009063184
35	0xbcd0c0d0	-0.025482565
36	0xbc914980	-0.017735243
37	0xbbea9160	-0.0071584433
38	0xbd1173ce	-0.03551083
39	0xbcec1e74	-0.028823115
40	0xbd5ff4a8	-0.05467668
41	0xbd1ad320	-0.037799
42	0xbd6fb78c	-0.058524653
43	0xbd5d7cc2	-0.054074056
44	0xbc88afdc	-0.016685419
45	0xbd5da766	-0.05411472
46	0x3cf830b8	0.030296668
47	0xbc80ddd0	-0.015730768
48	0x3d5dd2b6	0.054156028
49	0xbd68be5a	-0.05682216
50	0x3d6db25c	0.058031425
51	0x3b1c7bc0	0.0023877472
52	0x3d0a8552	0.03381855
53	0xbc0e8f60	-0.008701175
54	0xbcd8cbe0	-0.026464403
55	0x3d529c70	0.05141872
56	0x3c30b058	0.010784231
57	0x3d1742c4	0.036928907
58	0xbd075124	-0.033036366
59	0x3d31f65a	0.04344783
60	0xbcf9f344	-0.030511506
61	0xbbaf6210	-0.005352266
62	0x3cfc7780	0.0308187
63	0x3c648168	0.0139468685
64	0x3b848d20	0.0040451437
65	0xbc744580	-0.014909148
66	0xbca5528c	-0.020180963
67	0x3cf0e964	0.029408164
68	0x3d41e1f2	0.04733462
69	0xbc6608d0	-0.014040187
70	0xbd73a92e	-0.059487514
71	0x3cd46bec	0.025930367
72	0xbd2aaa9a	-0.041666605
73	0x3d7f4338	0.062319964
74	0xbcb0c6f0	-0.021579236
75	0xbd032562	-0.032018073
76	0x3bfd0100	0.0077210665
77	0xbd4c1e3e	-0.04983353
78	0x3d335d48	0.04379013
79	0xbd77d172	-0.060502477
80	0xbc838010	-0.016052276
81	0x3ceeaec4	0.02913607
82	0xbcc16744	-0.023608811
83	0xb8749000	-5.8308244e-05
84	0xbbf43c30	-0.007453464
85	0x3d4a6dcc	0.049421117
86	0xbd0a25de	-0.03372752
87	0x3c5d7740	0.013517201
88	0x3d3e4ada	0.046458103
89	0x3cef0954	0.029179253
90	0xbc986854	-0.018604435
91	0x3b3e4c40	0.0029037148
92	0xbd35757a	-0.044301488
93	0x3bb50ea0	0.005525425
94	0x3bb7dda0	0.0056111366
95	0x3d518da4	0.05116047
96	0x3d21b7fc	0.0394821
97	0xbc8dd478	-0.017313227
98	0x3d731636	0.059347354
99	0xbc87d008	-0.01657869
100	0xbd4ced84	-0.0500312
101	0xbd042262	-0.032259353
102	0xbcca8148	-0.02471985
103	0x3cb6671c	0.022265963
104	0xbba0ac80	-0.004903376
105	0x3b0f1480	0.0021832287
106	0xbd5c97f0	-0.053855836
107	0xbba4be80	-0.005027592
108	0xbc90b444	-0.017664082
109	0x3ce5a3f4	0.02803228
110	0xbcd31850	-0.025768429
111	0xbc07eeb0	-0.008296654
112	0x3c8da8bc	0.017292373
113	0x3d549770	0.051902235
114	0x3cbe2838	0.023212537
115	0x3d1993e8	0.03749457
116	0xbd1b8be4	-0.037975207
117	0x3ca668cc	0.020313643
118	0xbd53ba84	-0.051691547
119	0xbd6448b0	-0.055733383
120	0xbc22d7e8	-0.009939171
121	0xbc1fbc60	-0.009749502
122	0x3d784f9c	0.060622796
123	0xbd71060a	-0.05884365
124	0x3cfc38ac	0.030788742
125	0x3d5da704	0.054114357
126	0xbc3da658	-0.011575304
127	0x3d42ed10	0.04758936
128	0xbd30f1fc	-0.043199524
129	0xbd2590f8	-0.040421456
130	0x3c95223c	0.0182048
131	0x3d167ba8	0.03673902
132	0x3c8b3544	0.016993172
133	0x3ce290b4	0.02765689
134	0x3d674ddc	0.056470737
135	0xbcda9454	-0.026682056
136	0xbd3367b8	-0.043800086
137	0xbd485de4	-0.048917666
138	0xbc05d580	-0.008168578
139	0x3b7bfa20	0.0038448647
140	0xbd065f4c	-0.032805726
141	0xbbf06ad0	-0.007336952
142	0x3d1825ec	0.03714554
143	0xbd642362	-0.055697806
144	0xbbe90340	-0.007110983
145	0xbb287820	-0.0025706366
146	0x3c08e858	0.008356176
147	0xbba1a310	-0.0049327686
148	0x3c45b950	0.012068108
149	0xbc56eb28	-0.013117589
150	0x3cb3cd10	0.021948367
151	0x3b827a80	0.0039818883
152	0xbcedde78	-0.029036745
153	0xbd5918ce	-0.05300217
154	0xbcc0625c	-0.023484401
155	0x3d7e9472	0.062153287
156	0xbc3a66f0	-0.011377081
157	0x3c803ff4	0.015655495
158	0xbc289848	-0.010290213
159	0xbc64ed70	-0.013972625
160	0x3d051e9a	0.032499887
161	0x3d19eade	0.037577502
162	0x3c85580c	0.016277336
163	0x3ccaa580	0.02473712
164	0xbc3c3958	-0.011488281
165	0x3d7d931a	0.061907865
166	0xbd6083de	-0.05481326
167	0xbced9210	-0.029000312
168	0x3cd83e7c	0.026396982
169	0xbd5ad598	-0.053426355
170	0x3bfc55a0	0.007700637
171	0x3cecf230	0.028924078
172	0xbd2079f0	-0.03917879
173	0xbcc8b80c	-0.024501823
174	0x393c1e00	0.00017940253
175	0xbc87d5dc	-0.016581468
176	0xbd575e1e	-0.05257999
177	0xba6daf80	-0.0009066984
178	0x3c46fba0	0.012144953
179	0xbd291694	-0.041281298
180	0x3d71396a	0.058892645
181	0xbc9aa8fc	-0.018879406
182	0x3cfdc878	0.03097938
183	0x3ca52da8	0.020163372
184	0xbd1314be	-0.035908453
185	0x3d53e010	0.051727355
186	0x3d2897c6	0.041160367
187	0xbc5b12e0	-0.013371199
188	0x3d3b3b74	0.045710996
189	0xbcf28acc	-0.0296072
190	0x3cd4e8b8	0.025989875
191	0x3ba982b0	0.00517305
192	0xbd5c3942	-0.053765543
193	0xbd4ca3ae	-0.049960785
194	0x3d1f00e4	0.03881921
195	0xbd124322	-0.035708554
196	0x3d501868	0.050804526
197	0x3cddd190	0.027077466
198	0x3b42d440	0.0029728562
199	0x3cd347a0	0.02579099
200	0x3ccdcee4	0.025123067
201	0xbcf748b4	-0.030186035
202	0x3c099fc8	0.008399911
203	0x3d7886f2	0.06067557
204	0xbcdaaaf8	-0.026692852
205	0x3d4d98c2	0.05019451
206	0xbd58c654	-0.052923515
207	0x3d56df86	0.052459262
208	0x3d21ccbc	0.03950189
209	0x3cda3ddc	0.026640825
210	0xbca46f54	-0.020072617
211	0x3c3f9420	0.011693031
212	0xbd629c28	-0.055324703
213	0xbc429228	-0.011875667
214	0x3a88e140	0.0010443106
215	0x3c2a0c08	0.010378845
216	0xbc9dd2e0	-0.019265592
217	0xbd379d7c	-0.044827923
218	0xbd3c50f8	-0.045975655
219	0x393e8c00	0.00018171966
220	0xbc5c95b0	-0.013463423
221	0x3bdeb450	0.0067963973
222	0xbd350480	-0.044193745
223	0xb9b7fe00	-0.00035093725
224	0xbb4a3a40	-0.0030857474
225	0x3d2c813e	0.042115442
226	0xbc9ae2b4	-0.018906929
227	0x3d28b64c	0.041189477
228	0x3a902d80	0.0010999888
229	0x3c1b05e8	0.009461857
230	0x3d4c3a80	0.049860477
231	0x3c37b190	0.011211768
232	0x3b808e00	0.0039231777
233	0xbd32e0f2	-0.043671556
234	0x3d441bf0	0.047878206
235	0xbc7e2908	-0.015512712
236	0xbce02bc8	-0.027364627
237	0x3c29eb48	0.010371037
238	0x3caa5ec0	0.020797133
239	0x3d52ccc4	0.05146481
240	0x3b92f930	0.004485272
241	0x3cef19f4	0.02918718
242	0xbd0198de	-0.031639926
243	0xbd5cf0f0	-0.053940713
244	0x3c7bd230	0.015369937
245	0x3d77801e	0.060424916
246	0x3d3409a4	0.043954507
247	0xbd6b5b94	-0.057460383
248	0xbd1d47e0	-0.038398623
249	0xbaa2fdc0	-0.0012435243
250	0x3c9b0440	0.018922925
251	0xbc8ced84	-0.0172031
252	0xbb88f560	-0.0041796416
253	0x3d62da8a	0.055384196
254	0x3caafd78	0.020872816
255	0x3cc04848	0.023471966

model.4.bias f4 [6]
0	0xbd034536	-0.032048427
1	0x3cd71960	0.026257217
2	0x3d2f99b2	0.042871185
3	0xbd7fe0be	-0.06247019
4	0xbcbebef4	-0.023284413
5	0xbd2c094a	-0.042001046

model.0.weight f4 [256, 8]
0	0x3e8c8ab9	0.27449587
1	0xbe28a065	-0.16467436
2	0xbd8d6fb0	-0.06906068
3	0xbd52dd68	-0.05148068
4	0xbd0ce018	-0.0343934
5	0x3d7727e8	0.060340792
6	0xbea6a623	-0.32548627
7	0x3db2e7b4	0.087356
8	0x3cb1ad70	0.021689147
9	0xbc643ec0	-0.013930976
10	0xbe6a41ce	-0.22876665
11	0xbdce07f4	-0.10060111
12	0xbeaa91c8	-0.33314347
13	0xbe7c273f	-0.24624346
14	0x3c6719e0	0.01410529
15	0xbd909290	-0.070592046
16	0x3ea53b67	0.32271883
17	0x3e7a6b7a	0.24455062
18	0x3d68d8f8	0.056847543
19	0x3e335bfe	0.17515561
20	0x3d4220c0	0.047394514
21	0xbe6779fa	-0.22605124
22	0xbe77cb72	-0.24198702
23	0xbe97ecba	-0.29672796
24	0x3ea63ccf	0.32468268
25	0xbde45a4e	-0.11150037
26	0xbd681550	-0.05666095
27	0xbe06350c	-0.13106173
28	0xbe0e5e98	-0.13903272
29	0xbe382905	-0.17984398
30	0x3de84604	0.113414794
31	0xbe226a7a	-0.1586093
32	0x3db8a764	0.09016302
33	0x3daeebe8	0.08541089
34	0x3dd7adc0	0.10531187
35	0x3cd5b480	0.026087046
36	0xbe8a6be8	-0.2703545
37	0x3cc3af70	0.023887366
38	0x3e9436ff	0.2894821
39	0x3e724dc6	0.2366248
40	0xbd6d30e8	-0.05790797
41	0x3e95f9bd	0.29292098
42	0x3e980667	0.29692385
43	0x3da35918	0.07975978
44	0xbeb0b322	-0.34511667
45	0xbe8a5c14	-0.27023375
46	0x3eacc8b3	0.3374687
47	0x3e0d0b58	0.13773859
48	0x3e13ea02	0.14444736
49	0x3e40422e	0.18775246
50	0x3d77a778	0.060462445
51	0x3e50d4c6	0.20393667
52	0xbb0e3600	-0.0021699667
53	0x3cd3afa0	0.02584058
54	0x3e617da2	0.22020581
55	0xbda02f64	-0.07821539
56	0x3e070446	0.13185224
57	0x3e9644a9	0.2934926
58	0x3d407b38	0.04699251
59	0xbe1ad421	-0.15119983
60	0xbe9e4f82	-0.30920035
61	0xbe6348f4	-0.22195798
62	0x3e9e153b	0.30875573
63	0x3e9f0d91	0.31065038
64	0x3e921899	0.28534392
65	0x3d826734	0.06367341
66	0x3e57b66e	0.21065685
67	0xbdd87fce	-0.10571252
68	0xbdac3e6c	-0.084103435
69	0xbd8d60c0	-0.06903219
70	0xbe3c12f5	-0.18366607
71	0xbdbde97c	-0.09273049
72	0xbeaafcd9	-0.33396032
73	0xbe5a27f2	-0.213043
74	0x3e8691e1	0.26283172
75	0x3e3b5876	0.18295464
76	0xbda3e12c	-0.080019325
77	0x3da3dc90	0.08001053
78	0x3cad5220	0.021157324
79	0xbe53ef33	-0.20696716
80	0x3da32834	0.079666525
81	0xbe9b6953	-0.30353794
82	0xbe38b26e	-0.18036816
83	0x3c1ab180	0.009441733
84	0x3ea83bc1	0.3285809
85	0xbe87d996	-0.26533192
86	0xbe8287b9	-0.25494173
87	0x3e83aa53	0.25715885
88	0xbd8597e8	-0.065231144
89	0xbdbac778	-0.09120077
90	0xbe465a30	-0.19370341
91	0xbe829308	-0.255028
92	0x3c937750	0.018001229
93	0x3e46058a	0.1933805
94	0x3d336480	0.043797016
95	0xbe3f82f6	-0.18702301
96	0xbe7c9b09	-0.24668516
97	0x3dc25768	0.09489328
98	0x3e86216b	0.2619737
99	0xbe8ae820	-0.27130222
100	0x3e0a559c	0.1350922
101	0x3e26085a	0.16214123
102	0xbe7b20d8	-0.24524248
103	0xbe1c6156	-0.15271506
104	0xbcc7cb40	-0.02438891
105	0xbd815570	-0.06315124
106	0x3eb400c1	0.35156825
107	0x3e772432	0.24134901
108	0x3e09cfa0	0.13458109
109	0xbe903586	-0.28165835
110	0xbe0a7365	-0.13520582
111	0xbe362595	-0.17787774
112	0x3da77310	0.08176243
113	0xbe74abb8	-0.2389363
114	0xbd198e50	-0.037489235
115	0xbdb792d8	-0.08963555
116	0xbdf02580	-0.117259026
117	0xbe8c5695	-0.27409807
118	0xbe008e7f	-0.12554358
119	0xbe966800	-0.2937622
120	0xbbdd6300	-0.0067561865
121	0x3e9c2413	0.30496272
122	0x3c57c680	0.013169885
123	0xbd8da244	-0.06915715
124	0x3eb0c851	0.3452783
125	0x3e0048c8	0.12527764
126	0x3e898797	0.2686126
127	0x3ea7037b	0.32619843
128	0x3dcc7f70	0.09985244
129	0xbd650458	-0.055912346
130	0xbd4a3138	-0.049363345
131	0x3e095c08	0.13414013
132	0x3e17f772	0.14840487
133	0xbe80195a	-0.25019342
134	0x3c7e8340	0.015534222
135	0xbea4b2ce	-0.32167667
136	0x3d4bf6b8	0.049795836
137	0x3d7be388	0.061496288
138	0x3ea841b3	0.32862625
139	0x3cb4dfa0	0.022079289
140	0xbe2e6171	-0.17029358
141	0x3e0c0554	0.13673908
142	0x3d473b00	0.04864025
143	0xbd91369c	-0.07090494
144	0x3e9b3d39	0.30320147
145	0xbd28b940	-0.041192293
146	0x3d72dcc0	0.059292555
147	0xbe8b6a80	-0.2722969
148	0x3e5467d2	0.2074273
149	0xbcf54040	-0.029937863
150	0xbdbd2d10	-0.092371106
151	0xbe67bc3f	-0.22630404
152	0xbe5884af	-0.21144365
153	0x3e43562e	0.19075844
154	0x3e83817b	0.25684723
155	0xbe3610c1	-0.17779829
156	0x3eaf7ef7	0.34276554
157	0x3bd5ff00	0.0065306425
158	0xbe8adf21	-0.2712336
159	0xbc7cacc0	-0.015422046
160	0xbd9cd2cc	-0.07657394
161	0x3e1c0ae2	0.15238526
162	0x3e9e73e9	0.30947807
163	0xbe840d5a	-0.25791436
164	0x3e941da9	0.2892888
165	0xbe62976a	-0.22128072
166	0x3d3c6840	0.045997858
167	0x3ca14e20	0.019690573
168	0xbe2a03f5	-0.16603072
169	0xbe890bbe	-0.2676677
170	0x3e84894b	0.25885996
171	0x3e9ccd8f	0.3062558
172	0x3e94eb09	0.29085568
173	0x3c5013a0	0.012699991
174	0xbe204491	-0.15651156
175	0xbe7546ea	-0.23952833
176	0xbe52c308	-0.20582211
177	0xbe2811d8	-0.16413057
178	0x3e8ec39f	0.27883622
179	0x3dc06d9c	0.09395906
180	0x3e9cd33d	0.30629912
181	0xbea5b28c	-0.32362783
182	0x3e7a01de	0.24414775
183	0x3ea3a643	0.31962785
184	0x3d2c41b0	0.042054832
185	0xbd999eec	-0.07501015
186	0xbdc5c0c8	-0.09655911
187	0x3db52190	0.08844292
188	0xbc18be20	-0.009322673
189	0x3e0140e0	0.12622404
190	0xbe483fd6	-0.19555601
191	0xbd243170	-0.04008621
192	0xbd2556a0	-0.040365815
193	0x3e324c7e	0.17411992
194	0x3e3e9c9e	0.18614432
195	0xbe8268b4	-0.25470507
196	0x3d827e0c	0.06371698
197	0x3e38037e	0.17970082
198	0xbe24173f	-0.16024493
199	0x3cdde420	0.027086318
200	0xbd8784c8	-0.06617123
201	0x3e9dda0f	0.30830428
202	0xbe6d0b76	-0.23148903
203	0x3e8effdd	0.27929583
204	0xbd7fc268	-0.06244126
205	0x3ba44280	0.00501281
206	0x3df91e08	0.12163931
207	0xbe80c4a3	-0.25150022
208	0xbeb121ef	-0.34596202
209	0x3e12cc3a	0.14335719
210	0xbea38c03	-0.31942758
211	0x3d5d6780	0.054053783
212	0x3ea7a429	0.32742432
213	0xbdec0996	-0.11525266
214	0x3e7f2726	0.24917278
215	0x3ded2600	0.115795135
216	0xbd7ecc08	-0.062206298
217	0xbdc4d314	-0.096105725
218	0xbe3cc5eb	-0.18434875
219	0xbddd9580	-0.108195305
220	0xbe89f44f	-0.26944205
221	0x3dc34be0	0.095359564
222	0x3e0bcd94	0.1365264
223	0xbe8c9f78	-0.27465415
224	0xbe67ecb5	-0.2264889
225	0xbd1ab190	-0.037766993
226	0x3e79f9b6	0.24411663
227	0xbc7a0d20	-0.015261918
228	0xbeaf663f	-0.34257695
229	0x3e9ab2c5	0.30214515
230	0x3d750f08	0.059828788
231	0xbe10b104	-0.14130026
232	0x3eab46b3	0.33452377
233	0xbe2e5982	-0.17026332
234	0xbe812a9f	-0.2522783
235	0xbea7954a	-0.32731086
236	0xbd1629f0	-0.03666109
237	0xbe28c6c4	-0.16482073
238	0xbea3862f	-0.3193831
239	0x3e54a8a6	0.2076746
240	0x3d3497f8	0.04409024
241	0xbd35d340	-0.044390917
242	0x3de8edf0	0.11373508
243	0xbe020f4b	-0.12701146
244	0xbd761158	-0.060075134
245	0xbe2a7cdf	-0.16649197
246	0x3da1eff8	0.079070985
247	0x3de7283c	0.11286971
248	0xbdc64dcc	-0.09682807
249	0x3eaae27d	0.33375922
250	0x3d843fac	0.06457457
251	0xbe91a08e	-0.28442806
252	0x3e3653ae	0.17805359
253	0x3e6637ea	0.22482267
254	0xbe0cfe03	-0.13768773
255	0x3e96bf89	0.29443005

model.0.bias f4 [256]
0	0x3e155810	0.14584374
1	0xbe8f72ba	-0.28017217
2	0x3d5c15f8	0.05373189
3	0x3e81e743	0.2537175
4	0x39559800	0.00020369887
5	0x3e8453dd	0.25845233
6	0xbe46665d	-0.19374986
7	0xbe41a9ee	-0.1891248
8	0x3e5a2716	0.21303973
9	0x3ea04fe3	0.3131095
10	0xbeaf3bd2	-0.34225327
11	0x3ead4ebd	0.33849135
12	0xbbbe1a80	-0.005801499
13	0x3ea3227b	0.31862244
14	0x3eaaa69b	0.33330235
15	0x3eb30063	0.34961233
16	0xbe829d0a	-0.25510436
17	0xbdea4576	-0.1143903
18	0xbe32d5fe	-0.17464444
19	0xbeb1786d	-0.3466219
20	0xbe7d1207	-0.24713908
21	0xbe1dd5fe	-0.15413663
22	0x3d1bb668	0.038015753
23	0x3dea7e14	0.11449829
24	0xbda155c8	-0.078776896
25	0xbde8bba6	-0.11363916
26	0x3dff5968	0.12468225
27	0xbc245a20	-0.010031253
28	0x3d451d18	0.04812345
29	0x3d318328	0.04333797
30	0xbea6e4a1	-0.32596305
31	0x3e99f807	0.30072042
32	0xbcc9df70	-0.024642676
33	0xbd1742a0	-0.036928773
34	0x3dff2c4c	0.12459621
35	0x3e337716	0.17525896
36	0xbe6a0813	-0.22854643
37	0xbd97c580	-0.07410717
38	0xbe9281d4	-0.28614676
39	0x3dadfea4	0.084958345
40	0x3e4f4b9a	0.20243683
41	0x3e0b9782	0.13632014
42	0x3e46f4b2	0.19429281
43	0xbdabe440	-0.083931446
44	0x3e94482f	0.28961322
45	0xbe7ddaac	-0.24790448
46	0x3e3382da	0.17530385
47	0x3e736d3a	0.23772135
48	0xbe9fd6f4	-0.31218684
49	0x3e19a74e	0.15005228
50	0x3ea1df47	0.3161566
51	0x3e0e8e5a	0.1392149
52	0xbddbb37e	-0.10727595
53	0x3b614280	0.0034371912
54	0x3d5cba60	0.05388868
55	0xbdeb0998	-0.11476439
56	0x3e9ea3cd	0.30984345
57	0xbe3996cd	-0.18123932
58	0x3db68208	0.0891152
59	0x3bce9200	0.0063040257
60	0x3e52257e	0.20522115
61	0x3e87e665	0.26542965
62	0xbe8bed5f	-0.27329537
63	0xbe39f7aa	-0.18160883
64	0xbea7a814	-0.3274542
65	0x3e256c4a	0.1615459
66	0xbe4167e7	-0.18887292
67	0xbdbd63e8	-0.09247571
68	0xbe403242	-0.18769172
69	0xbde2feac	-0.11083731
70	0xbea9148d	-0.33023492
71	0x3d822650	0.06354964
72	0xbe6a6b48	-0.22892487
73	0x3e7fe99a	0.24991456
74	0xbd9e8b94	-0.07741466
75	0x3e70fd86	0.23534212
76	0xbd8e9d78	-0.069636285
77	0x3e825733	0.25457153
78	0x3e911ec5	0.28343788
79	0x3e0bdb1e	0.13657805
80	0x3d9d56e0	0.07682586
81	0xbe8ae027	-0.2712414
82	0xbea3f75c	-0.32024658
83	0x3e048586	0.1294156
84	0x3e56d0f2	0.20978144
85	0xbe3bc762	-0.18337777
86	0xbd8d9de4	-0.06914881
87	0x3d9b838c	0.0759345
88	0xbe078517	-0.13234363
89	0x3d205c30	0.039150417
90	0x3e58203a	0.21106043
91	0xbe2154f8	-0.1575507
92	0xbeb4932c	-0.35268533
93	0xbeb33754	-0.3500315
94	0xbe12e47e	-0.14344975
95	0xbe3a3c96	-0.18187174
96	0x3ea6ad99	0.3255432
97	0x3eae57b1	0.34051278
98	0xbe8349b6	-0.25642174
99	0x3de557b8	0.11198372
100	0xbe8ddf65	-0.277095
101	0x3eaad2ab	0.33363852
102	0x3e5c055e	0.21486422
103	0xbe75141d	-0.23933454
104	0x3e6c6faa	0.23089471
105	0x3e7e0002	0.2480469
106	0x3e92f2d7	0.28700897
107	0xbe61c0c4	-0.2204619
108	0x3d3891d0	0.045060933
109	0xbc84b9d0	-0.016201884
110	0xbe0cc2c8	-0.13746178
111	0x3e0a22b0	0.13489795
112	0x3dad5abc	0.08464572
113	0x3e9f427f	0.3110542
114	0x3e8f1a2f	0.27949664
115	0xbe1c840a	-0.15284744
116	0x3e70e2ee	0.23524067
117	0xbdc240c4	-0.09485009
118	0x3c785040	0.015155852
119	0xbeb4e324	-0.35329545
120	0x3c8507c0	0.016239047
121	0xbe8bedee	-0.27329963
122	0x3d122fa8	0.03568998
123	0xbe9b0283	-0.30275354
124	0x3e8acd25	0.27109638
125	0x3eb0edf5	0.34556547
126	0x3e9abf95	0.3022429
127	0x3e5fd972	0.21860293
128	0x3e70e406	0.23524484
129	0xbc108ec0	-0.008823097
130	0x3e008362	0.12550119
131	0x3d6d7c68	0.05797997
132	0x3d104800	0.035224915
133	0x3eaa92a3	0.33315
134	0xbdfdbc28	-0.123894036
135	0xbea6d3f8	-0.32583594
136	0x3e69610e	0.2279093
137	0x3e94e8f1	0.2908397
138	0x3e067520	0.13130617
139	0xbea8c566	-0.32963103
140	0xbe96920c	-0.294083
141	0xbeaa0372	-0.33205754
142	0xbe2151cc	-0.1575386
143	0xbe18aed7	-0.14910446
144	0xbe465376	-0.19367775
145	0xbe4111e1	-0.18854477
146	0x3ddaf2a8	0.10690814
147	0x3e15d112	0.14630535
148	0xbe2507b2	-0.16116217
149	0x3ea4ae39	0.3216417
150	0xbe776e0d	-0.24163075
151	0x3dd510e0	0.10403609
152	0x3ea5b16f	0.32361934
153	0x3e959ca1	0.2922106
154	0xbd579f28	-0.052642018
155	0xbd0bb6e0	-0.03410995
156	0xbe9d7391	-0.30752233
157	0x3dfa5a74	0.12224284
158	0x3e9fa8bf	0.3118343
159	0xbea37e92	-0.31932503
160	0x3d8163d0	0.06317866
161	0xbd498478	-0.049198598
162	0x3e0a5dd4	0.13512355
163	0xbe91fe6a	-0.28514415
164	0x3eaf14cb	0.3419555
165	0x3e375932	0.17905119
166	0xbd572278	-0.052523106
167	0x3ea2bd8d	0.3178524
168	0xbe8cf71e	-0.27532285
169	0x3ea05997	0.31318352
170	0xbe8870b2	-0.2664848
171	0x3e66b1c6	0.22528753
172	0xbe28403d	-0.16430755
173	0x3dfaf7c8	0.12254292
174	0xbea331b2	-0.31873852
175	0x3ea910e3	0.33020696
176	0x3ea29bbf	0.3175945
177	0x3e69f706	0.22848138
178	0x3c0d47c0	0.008623064
179	0xbe9c9932	-0.3058563
180	0xbdd5b064	-0.104340345
181	0x3e1569a0	0.14591074
182	0xbe202774	-0.1564005
183	0xbd37bda8	-0.044858605
184	0x3e6b666e	0.22988293
185	0xbeb25426	-0.34829825
186	0xbe98e46c	-0.29861772
187	0xbe756a76	-0.23966393
188	0x3e1fdf52	0.15612534
189	0x3ea6fa77	0.32612965
190	0x3e68d94e	0.22739145
191	0x3ea65b8d	0.32491723
192	0x3e424c72	0.18974474
193	0xbe5a8abb	-0.21341984
194	0xbc921410	-0.017831832
195	0x3d97eb44	0.0741792
196	0xbc751ca0	-0.014960438
197	0xbc8902e0	-0.016725004
198	0x3ea3e3ff	0.32009885
199	0x3c8cdb40	0.01719439
200	0xbe71dbe8	-0.23619044
201	0x3c31f100	0.0108606815
202	0x3e59aa92	0.21256474
203	0xbe029501	-0.12752153
204	0xbeae930c	-0.34096563
205	0x3e62bde2	0.22142747
206	0xbe3f8e73	-0.18706684
207	0x3e705c8e	0.23472807
208	0x3e8beacd	0.27327576
209	0xbe2b820d	-0.16748829
210	0xbe573919	-0.21017875
211	0xbe8af4b9	-0.27139834
212	0x3ddb5cb8	0.10711044
213	0x3e661072	0.22467211
214	0x3dcc4774	0.09974566
215	0xbe7b3190	-0.24530625
216	0x3e95ac1b	0.2923287
217	0x3ea4bb4d	0.3217415
218	0x3e8459a3	0.25849637
219	0x3e7aa5c2	0.24477294
220	0x3db43834	0.087997824
221	0x3e2a6676	0.16640648
222	0x3d63fd98	0.055661768
223	0x3dcd2070	0.100159526
224	0xbeb2b0bf	-0.34900472
225	0x3ea35317	0.3189933
226	0xbeb06d51	-0.34458402
227	0x3e42c906	0.19021997
228	0x3d1274f8	0.03575608
229	0x3e13ef18	0.14446676
230	0xbd7c2bc0	-0.06156516
231	0xbe84fafb	-0.25972733
232	0x3dd85704	0.10563472
233	0xbd8e17ac	-0.06938109
234	0xbdc5f848	-0.096664965
235	0x3d2da7f8	0.042396516
236	0x3db31c78	0.08745664
237	0x3e95f54d	0.29288712
238	0xbe9e2607	-0.30888388
239	0xbe9c5f20	-0.30541325
240	0x3e596afe	0.2123222
241	0xbea52d13	-0.3226095
242	0x3ea016a3	0.3126727
243	0xbe3c7f3e	-0.18407914
244	0xbe4b26cf	-0.19839023
245	0x3d9cd904	0.0765858
246	0x3e632a8e	0.22184202
247	0xbe048f94	-0.12945396
248	0x3dfedd5c	0.12444565
249	0xbeb2b56c	-0.3490404
250	0x3c8ee140	0.017441392
251	0xbe53046a	-0.20607153
252	0x3d8215ec	0.063518375
253	0xbeaa499e	-0.3325929
254	0x3e5b276e	0.2140176
255	0xbde7fad4	-0.113271385
