Model/20251129_184435_session.pth (torch, 562911 bytes, 12 tensors)

model.0.weight f4 [256, 8]
000000 2e 8f 18 3e c2 9e 11 be 50 06 0f bd 90 d5 27 be
       0.14898369 -0.14220718 -0.03491813 -0.16390061
000010 ee 8c 3e be 90 9b b9 bd 5e cd 5f 3e 4c 67 c3 bd
       -0.18608448 -0.09062874 0.21855685 -0.09541187
000020 31 e4 29 be 3a c8 9d be 61 e1 a7 3e 94 c9 1a be
       -0.16590954 -0.30816823 0.32789138 -0.15115958
000030 95 7d 5c be 80 2c 6f bd e2 3b 3e 3e 7a 5e 40 3e
       -0.2153228 -0.058392048 0.18577531 0.1878604
000040 13 a0 84 3e 39 49 85 be d5 f0 9d 3e ee 6c 6e 3e
       0.25903377 -0.26032427 0.30847803 0.23283741
000050 c9 51 8f 3e 00 ac ef bc 10 19 da 3d 07 cc 21 be
       0.27992085 -0.02925682 0.106493115 -0.15800487
000060 a0 0e 71 3d 02 1b 2c 3e a8 8b 43 3d 8c dc 94 bd
       0.058851838 0.16807178 0.04774061 -0.072686285
000070 18 92 a1 be 4f 58 93 3e 6b 8e 9b 3e 8f 27 9a 3e
       -0.31556773 0.28778312 0.30382094 0.30108306
000080 3e ec b0 be e4 80 b1 be a3 9b 62 be 5c b0 80 be
       -0.34555238 -0.34668648 -0.22129683 -0.25134552
000090 60 2c 5c be 10 0f db 3c 64 11 ec 3d 60 1c 6d bd
       -0.21501303 0.02674058 0.115267545 -0.05788839
0000a0 96 3e 81 be 76 90 32 3e d8 81 8c 3d 40 26 a3 bc
       -0.25243062 0.1743792 0.06860703 -0.0199157
0000b0 a0 5b a5 3d 30 8f df bc e6 cb 6d 3e 5a 6e 4b 3e
       0.08074117 -0.027289957 0.23222312 0.19866315
0000c0 00 4f 9f bd c7 6c a4 be 90 4d 79 3d 00 39 74 bc
       -0.0777874 -0.3211424 0.060864985 -0.014906168
0000d0 09 30 8f be a0 d8 c9 3c bf 75 7c be e3 52 00 be
       -0.27966335 0.024639428 -0.24654292 -0.12531619
0000e0 5c b5 14 be 8f f7 81 3e 99 67 9c 3e 20 c7 c1 bd
       -0.14522308 0.25384185 0.3054779 -0.09461808
0000f0 7f 33 59 be de 0a 7d 3e 9b 08 0f be 3b 77 83 3e
       -0.2121105 0.24711177 -0.13968126 0.25676903
000100 16 3d 2e 3e 24 bc b8 bd cb dc af be 67 1b b0 3e
       0.1701549 -0.0902026 -0.3434814 0.34395906
000110 c3 f9 ac 3e 6e 42 ef bd d2 ce 59 3e f2 13 97 be
       0.33784303 -0.11682592 0.21270302 -0.29507405
000120 ce f5 99 be 27 14 70 be f4 66 c5 bd 46 08 29 3e
       -0.30070347 -0.23445188 -0.096387774 0.16507062
000130 ad 7e 84 3e 00 8e e3 3c 2a d1 79 be a6 50 1f be
       0.25877896 0.027777672 -0.24396196 -0.15558109
000140 6d ae b3 3e 6b 60 a7 3e 08 ec 25 bd 6c d8 db 3d
       0.35094014 0.3269075 -0.0405083 0.107346386
000150 77 da 65 be 0a ca 50 3e c0 e0 df 3b a4 59 9c 3d
       -0.22446619 0.20389572 0.006832212 0.07634285
000160 7a b2 6d 3e 4c e4 ea bd ec 73 b5 bd f8 79 96 3d
       0.23212615 -0.114693254 -0.08860001 0.073474824
000170 12 30 74 be 0d 42 a2 3e 50 17 0a 3d 3f b9 8a 3e
       -0.23846462 0.31691018 0.03371364 0.27094457
000180 08 c3 0b 3e c0 ab 11 3d e3 11 aa 3e c2 0e 26 3e
       0.13648617 0.035564184 0.3321677 0.16216567
000190 50 03 65 3d 52 85 7a 3e a4 b1 ba 3d f8 cc 3e be
       0.055911362 0.2446492 0.091159135 -0.18632877
0001a0 a3 cf 8b 3e 3a 22 1a be 01 e2 75 be d2 71 37 3e
       0.27306852 -0.15052119 -0.24011995 0.17914513
0001b0 18 2e ac 3d a0 7b 6e 3c 25 46 9b be 68 d4 44 be
       0.08407229 0.014555842 -0.30326954 -0.19221652
0001c0 54 38 7e be 92 55 f6 bd 40 17 ea 3b ce 11 71 be
       -0.24826175 -0.1202804 0.007143885 -0.23541948
0001d0 1b 28 83 3e 89 e5 8d 3e bc 43 ab 3d 20 54 78 be
       0.25616536 0.27714184 0.08362529 -0.24250841
0001e0 22 2e 51 3e 52 a4 ff bd 89 af b4 3e 51 be 87 3e
       0.20427755 -0.124825135 0.35290173 0.26512387
0001f0 d1 1f a1 3e f2 6a 66 3e eb 9c 29 be 50 bf 94 be
       0.31469586 0.22501734 -0.16563766 -0.2905221
000200 f0 bf a9 bd b7 c3 ad 3e 9a 85 f0 bd 46 cf 9f be
       -0.08288562 0.3393838 -0.117442325 -0.31212825
000210 2c eb 8f 3d bb 03 86 3e 3f 4e 86 3e 8d 96 69 be
       0.07027277 0.2617472 0.26231572 -0.22811337
000220 9f 36 8e 3e 94 0a 87 3d 68 5f dc 3d 0d 7e 4a be
       0.27776048 0.065938145 0.10760385 -0.19774647
000230 ca f9 7f 3e da b3 06 3e 88 2a 4d bd 60 02 91 3c
       0.2499763 0.13154545 -0.05008939 0.017701328
000240 b4 7e 55 be 9d a2 17 be 8e c0 33 3e 18 9b 07 3d
       -0.20849115 -0.14808126 0.17553923 0.033106893
000250 b0 c1 59 bd e8 14 e6 3d 69 83 8d be 5e 87 38 3e
       -0.05316323 0.11234456 -0.2763932 0.18020388
000260 62 f4 82 be 90 8c 94 bd 69 05 57 be 90 31 29 bd
       -0.25577074 -0.07253373 -0.20998158 -0.041307032
000270 c0 a7 89 bd a0 2d 26 bd 30 ea 04 bd f0 1d a4 bd
       -0.06721449 -0.040570855 -0.0324499 -0.080135226
000280 44 f1 ee bd 08 cf aa be aa 85 45 3e 0d 01 a0 3e
       -0.116671115 -0.33361077 0.1928927 0.31250802
000290 23 56 ab 3e 1a 30 87 be ae 14 dc bd a3 ee 5f be
       0.33464155 -0.26403886 -0.10746132 -0.21868376
0002a0 ac 83 e4 3d 2d 71 a7 be 15 f1 a6 3e 50 de 3c bd
       0.11157927 -0.32703534 0.32605806 -0.04611045
0002b0 b8 b4 25 bd 4e 0f 6b be 80 fd 21 3d d7 13 84 be
       -0.04045555 -0.22955057 0.039548397 -0.25796387
0002c0 42 43 66 3e ad 18 a3 3e 74 b8 e1 3d ec d1 13 3e
       0.22486594 0.31854764 0.1102151 0.14435548
0002d0 25 c7 a7 be 15 eb a7 3e eb 99 9f be a8 d5 39 be
       -0.32769123 0.3279654 -0.31172118 -0.1814791
0002e0 80 8d 36 3b 6c 9d 8f bd 74 45 84 be c5 6c 99 3e
       0.0027855337 -0.07012448 -0.2583424 0.29965797
0002f0 70 a4 86 bc 00 84 15 bc 08 ed 01 3e 86 6d 35 be
       -0.016435832 -0.0091257095 0.12688076 -0.17717561
000300 18 65 1c 3d ae b1 79 3e 1d 5b 14 be 38 22 c2 bd
       0.038182348 0.24384186 -0.14487882 -0.09479183
000310 37 51 b3 be 29 1d 98 3e 9c 50 f4 bd d8 c9 68 be
       -0.350229 0.29709747 -0.119294375 -0.22733247
000320 c0 5d dd 3b ca 05 50 be 87 64 9c 3e 5c aa d9 3d
       0.0067555606 -0.20314708 0.30545446 0.106281966
000330 63 9d aa be 8f 50 43 be 38 8c fa bd b2 d0 23 3e
       -0.33323202 -0.190737 -0.12233776 0.1599758
000340 bf 18 93 3e 24 64 db 3d e2 7f 25 be 5f 11 aa be
       0.28729817 0.1071246 -0.16162065 -0.33216378
000350 30 dd e5 bc 7a 07 66 be a0 1a 03 be 40 07 ab 3d
       -0.028059572 -0.2246379 -0.12803125 0.08350992
000360 ac 74 98 bd be 75 58 3e 40 7d 67 be db 23 ae be
       -0.074441284 0.21138665 -0.22606373 -0.3401173
000370 88 20 52 3d b4 a5 dc 3d 50 aa ae 3c 90 e4 08 3d
       0.051300555 0.10773793 0.021321446 0.0334211
000380 58 e9 12 3d 4d f3 67 be 20 8f df 3d 04 86 88 3d
       0.035867065 -0.22651406 0.10915971 0.066661865
000390 20 aa a7 be f2 40 a3 be ce 86 65 3e da f3 5c 3e
       -0.32746983 -0.31885487 0.22414705 0.21577397
0003a0 6b 18 94 3e e2 bd 2c be 92 40 4c 3e 1e 54 46 3e
       0.2892488 -0.1686931 0.19946507 0.19368026
0003b0 a3 f8 91 3e 11 5a 86 3e a5 5f aa 3e 10 63 da bd
       0.28510007 0.2624059 0.33276096 -0.10663426
0003c0 ae c2 37 3e 9d b7 16 be d0 a7 90 3c 52 a4 4a 3e
       0.17945358 -0.1471848 0.017658144 0.19789246
0003d0 41 f1 a9 3e 20 38 48 be 8a 96 60 3e c8 36 ad 3d
       0.33191875 -0.1955266 0.21932426 0.08457714
0003e0 a2 57 3b 3e 4b 19 b0 be 8a 3b 8c be 9c 36 d6 3d
       0.18295148 -0.34394297 -0.27389175 0.10459635
0003f0 ff 8f 96 3e 5a 82 4b 3e 00 7f f4 bb 40 97 07 3d
       0.29406735 0.19873944 -0.0074614286 0.033103228

model.0.bias f4 [256]
000000 69 cf 03 be e0 87 f5 3c b8 c5 61 bd 50 2c f2 3c
       -0.1287209 0.029972017 -0.0551202 0.029562145
000010 84 b7 93 be e4 7e 80 3d c1 3c 14 be 9c b0 e5 3d
       -0.2885095 0.062742025 -0.14476301 0.11215326
000020 98 de 88 bd b3 04 91 3e f0 7e 87 bc 3c 31 a8 3d
       -0.066830814 0.28323898 -0.01654002 0.08212516
000030 68 ec 53 3d 22 9c a2 be d5 08 41 be d1 eb 87 3e
       0.051739126 -0.31759745 -0.18851025 0.265471
000040 40 62 fe bc 34 fd 8c 3d 18 16 12 be 48 de 6b bd
       -0.031052709 0.06884232 -0.1426624 -0.05758503
000050 94 db 5b be 84 5e a3 be ba dc 1d 3e 30 46 1d bd
       -0.21470481 -0.31908047 0.15416232 -0.038397014
000060 20 71 31 bc 41 0d ac 3e c0 8a 04 3c b5 01 96 3e
       -0.010830194 0.33603862 0.008089721 0.29298177
000070 78 90 f8 3d 1f a5 89 3e 98 f3 3d 3d 51 9b 80 3e
       0.1213693 0.2688379 0.046374887 0.25118497
000080 44 39 ee 3d 79 4f 35 be 98 07 a0 be 67 0f a1 be
       0.11632016 -0.17706098 -0.31255794 -0.31457064
000090 4f 25 59 be 71 7d 92 3e 86 b1 73 3e cf ed 83 3e
       -0.21205638 0.2861133 0.23798189 0.2576737
0000a0 bb a9 1b be 54 b8 93 3d 52 7a 2f 3e d8 d4 1d bd
       -0.15201466 0.07212892 0.17136505 -0.03853306
0000b0 8e 57 a3 be 44 b9 96 bd 9b 79 b1 be 36 ea 02 be
       -0.31902736 -0.07359555 -0.3466309 -0.12784657
0000c0 e4 5d 9f bd 46 3b 2c 3e 58 7c b4 be 52 3e da bd
       -0.0778158 0.16819486 -0.35251117 -0.10656418
0000d0 9a ec 28 3e a7 5b 9e 3e 00 4e 5c 3b 99 e0 85 be
       0.16496506 0.309293 0.0033615828 -0.26147917
0000e0 90 f0 98 be 07 a7 9f 3e 2d a5 28 be 24 b8 d9 3d
       -0.29871035 0.3118212 -0.1646926 0.10630825
0000f0 f4 08 15 3e e0 aa c2 bd c4 60 b8 3d 89 05 9c 3e
       0.14554197 -0.09505248 0.090028316 0.30472973
000100 7d ac 9b 3e a0 e2 08 bd 4a 9f 58 3e 70 71 81 bd
       0.30405036 -0.03341925 0.21154514 -0.063204646
000110 a7 f3 8e 3e a9 d5 54 be 40 4a e7 bb 48 4d fb 3d
       0.27920267 -0.2078463 -0.007058412 0.122705996
000120 92 5e a0 be cb 8c 94 be 08 95 cd bd 0b d8 84 3e
       -0.3132215 -0.29013667 -0.10038191 0.25946078
000130 50 5d 86 bd 8d f9 aa 3e 36 29 67 3e 59 ca 83 3e
       -0.06560767 0.33393517 0.22574314 0.25740317
000140 18 82 9f be fa fc 07 be d4 54 e3 bd 3c 29 99 be
       -0.3115394 -0.13280097 -0.11100164 -0.29914272
000150 70 8c 74 be 31 9a 86 3e 6a 42 5f 3e e5 a6 9c 3e
       -0.23881698 0.26289514 0.21802679 0.3059608
000160 94 8e c4 3d 9b 4e 16 be 19 17 97 3e f8 e6 8a bd
       0.09597507 -0.14678423 0.2950981 -0.06782335
000170 88 5e cf 3d 51 91 ae 3e d4 1a b0 bd c8 a1 5d be
       0.10125452 0.34095243 -0.08598867 -0.21643746
000180 11 3e 93 3e 3e 1d 57 be cb e2 2f be fa da 05 3e
       0.2875829 -0.21007249 -0.17176358 0.13071814
000190 68 d6 d7 bd d1 74 93 be a1 00 a1 be 3f 7c 47 be
       -0.105389416 -0.2880006 -0.31445792 -0.1948099
0001a0 f8 4f 7f bd 80 8c a4 bd 90 d1 c4 bd 79 c3 82 be
       -0.062332124 -0.08034611 -0.096102834 -0.2553976
0001b0 60 3c 4d bc e9 24 a8 3e c8 32 5f bd 50 83 9a bd
       -0.012526602 0.3284066 -0.05449179 -0.07544577
0001c0 73 35 99 be 4f b8 ab 3e 00 09 f4 bc 54 18 94 bd
       -0.2992359 0.33539054 -0.029789448 -0.07231203
0001d0 a4 ee be 3d 29 ba 8a 3e 48 2a 07 3d 08 44 d3 bd
       0.09322861 0.27095154 0.032999307 -0.1031571
0001e0 d0 6f 8b be 15 74 a9 3e 2e 87 32 3e dc 41 4e be
       -0.27233744 0.33096376 0.1743438 -0.20142311
0001f0 4c 6e 0d be 1d 5d b2 3e 0e c3 63 3e 70 67 49 3d
       -0.13811606 0.34836665 0.22242376 0.04917091
000200 bf 6e 38 be b0 94 3c bd f0 73 52 bd 4a af 51 3e
       -0.18010996 -0.046040237 -0.051380098 0.20477024
000210 c4 a2 ec 3d 92 9d 99 be 18 17 19 3d b8 33 a7 bd
       0.115544826 -0.3000303 0.03737554 -0.081641614
000220 4f 89 ac be 50 21 bf 3d a8 d8 e1 3d 94 8d 45 be
       -0.33698508 0.09332526 0.11027652 -0.19292289
000230 80 0d 25 3c 9d 81 47 be f2 8f 12 3e 78 66 27 3d
       0.010074019 -0.19483037 0.14312723 0.040869206
000240 a4 5d a4 be 60 33 12 bd 34 43 bf 3d 68 d7 ab be
       -0.32102692 -0.035693526 0.0933899 -0.3356278
000250 6c 65 b7 bd f8 8c 94 bd 53 14 a2 3e 5f 32 8b 3e
       -0.089548916 -0.0725345 0.3165613 0.27186868
000260 ea 43 77 3e ed b7 b2 3e 20 69 bf bd 95 d4 84 3e
       0.24147001 0.3490595 -0.09346223 0.25943437
000270 ab bf 9c be 77 cc b4 be 72 76 42 3e 21 27 73 be
       -0.3061498 -0.35312244 0.18990496 -0.23745395
000280 41 53 9a be 71 43 89 3e 6c 58 a9 bd d5 8f 94 be
       -0.30141643 0.26809266 -0.08268818 -0.29015985
000290 78 f4 2d 3d e5 fc a0 be f4 7c f4 3d 65 fd 7d be
       0.04246947 -0.31442943 0.119378954 -0.24803694
0002a0 e2 7d 96 be 7a 37 46 3e ac 67 ab 3d 50 e9 f6 3c
       -0.29392916 0.193571 0.08369383 0.030140549
0002b0 c1 f4 b4 3e c0 75 59 bc 98 08 8b 3d 7c e7 a8 be
       0.35342982 -0.013272703 0.067887485 -0.3298911
0002c0 61 fb a0 3e 5a 6f 52 3e 28 d4 3b 3d 64 49 80 be
       0.31441787 0.2055029 0.045856625 -0.25055993
0002d0 a5 49 92 3e ab 8a 3e be 60 f3 d7 3c c4 f6 b7 bd
       0.2857181 -0.18607585 0.026361167 -0.08982614
0002e0 36 0e 90 be dd 04 95 3e 41 bd 5e be 75 03 9f be
       -0.28135842 0.29105273 -0.21751882 -0.31057325
0002f0 3d f0 05 be dc 8c 7e be 5e 64 61 be 17 d1 92 be
       -0.13079925 -0.24858421 -0.22010943 -0.28675148
000300 46 a7 64 3e fa ec ee bd 80 23 4c be 3c b9 e8 3d
       0.22329435 -0.116662934 -0.19935417 0.11363456
000310 75 f5 87 3e 1d 07 44 be c8 7d 85 3d f6 1a 1e 3e
       0.26554456 -0.19143339 0.065181315 0.15439972
000320 4e 09 3c 3e 44 92 14 3e c9 64 b0 3e 10 a8 84 3c
       0.18362924 0.14508921 0.34451893 0.01619342
000330 2a bd 77 3e f2 76 4d 3e 80 b5 79 bd 0d df ad be
       0.24193254 0.20064905 -0.060964108 -0.33959237
000340 ab f6 a2 3e 67 0f 93 3e 00 b4 40 bd 9e 54 3f 3e
       0.31828818 0.2872269 -0.04704666 0.18684623
000350 62 b0 2f 3e ca 64 11 3e f2 0c f0 bd d9 f5 9f 3e
       0.17157128 0.14198604 -0.11721219 0.31242254
000360 63 d9 a3 be 85 13 82 be 58 e9 6e bd 60 28 50 3d
       -0.3200179 -0.25405517 -0.058328003 0.050819755
000370 59 77 95 3e ab 62 43 be 8a 30 61 3e f0 a3 87 bd
       0.29192618 -0.19080608 0.21991172 -0.066230655
000380 f3 2d 68 be 5f 52 8c be f6 f6 74 3e dd 19 a4 3e
       -0.22673778 -0.27406594 0.23922333 0.32050982
000390 a1 7d 2b be f4 3c b4 bd 63 12 9c 3e 0e 17 14 be
       -0.16747142 -0.088006884 0.30482778 -0.1446192
0003a0 2a 44 50 3e 3e 8a 32 be 31 af 45 be 9a 1f 93 be
       0.20338503 -0.17435548 -0.19305111 -0.28735048
0003b0 04 c9 9b be 6a 51 97 be 7e 97 71 be b0 41 02 bd
       -0.304268 -0.29554302 -0.23592946 -0.031800926
0003c0 ed 24 af 3e 1a 2d 38 3e 39 69 97 3e f4 09 83 be
       0.3420786 0.17985955 0.29572466 -0.2559353
0003d0 e3 34 8e 3e c9 68 b0 3e 90 49 e7 3c 3e 72 4b 3e
       0.27774724 0.34454945 0.02823332 0.19867799
0003e0 bc a7 10 3e 82 48 85 be a9 fa 8c 3e 98 4d 9b 3d
       0.14126486 -0.26031882 0.2753499 0.07583159
0003f0 fc 46 c0 bd 54 8f ae bd 98 c4 90 3d b2 a9 52 3e
       -0.09388539 -0.085234314 0.07068747 0.20572546

model.2.weight f4 [256, 256]
000000 2c d9 9a bc 9a 85 65 bd da 79 7d bd 40 77 c5 3c
       -0.018902384 -0.056035616 -0.061883785 0.024104714
000010 fc 3a 64 bd a4 c3 68 bd a0 65 78 3c 08 ff ec bc
       -0.055720314 -0.056827202 0.015160948 -0.028930202
000020 c0 d3 ef ba 3a 3a 73 bd 28 8a b8 bc 30 fa 48 bd
       -0.0018297359 -0.0593817 -0.022526816 -0.049066722
000030 10 f7 a3 bc 7e 63 6e 3d 20 e1 83 bb a8 23 87 bc
       -0.02001527 0.058200352 -0.0040246397 -0.016496494
000040 90 9b 11 bc 24 da e3 3c e8 f5 a4 3c 30 9d e9 3b
       -0.008887187 0.027813978 0.020136788 0.007129334
000050 66 57 63 3d 76 99 5d bd 94 9b ea 3c 78 4e 25 3c
       0.05550327 -0.05410143 0.028638639 0.010089509
000060 12 f0 15 bd 16 f8 10 3d 48 ab ce bc 20 15 e1 bc
       -0.036605902 0.035392843 -0.025228158 -0.027475893
000070 4c 8d 7c 3d aa 54 46 3d 70 fb 69 bd 7c b4 d8 3c
       0.06165819 0.048420586 -0.057124555 0.02645325
000080 58 db 6e 3d 6c 67 a2 bc d8 2f 9d bc 4c ef b7 bc
       0.05831465 -0.019824706 -0.019187853 -0.022452973
000090 6e 00 18 bd 6a f3 6a bd 9c ed 75 bd 58 9c 58 bd
       -0.037109785 -0.057361044 -0.060041055 -0.052883476
0000a0 78 15 53 bc 74 d6 84 bc 36 15 38 bd a4 13 89 bc
       -0.0128835365 -0.01621554 -0.044942103 -0.016732998
0000b0 4c d9 ec 3c d6 6f 53 bd c0 bf 15 3d 96 0c 31 bd
       0.028912209 -0.051620327 0.03655982 -0.043224894
0000c0 b2 5d 61 3d 30 31 a7 3c c0 aa e2 3b 2a a3 41 3d
       0.055020995 0.020409197 0.0069173276 0.047274746
0000d0 c0 ee 6a 3c 00 46 0a bb 90 01 0f bc e0 dd de 3c
       0.014339149 -0.0021098852 -0.0087284 0.027205408
0000e0 f8 2e db 3c 0c 86 17 3d 3e fa 70 3d 94 25 e8 bc
       0.026755795 0.03699307 0.0588324 -0.028338231
0000f0 14 7a 16 3d 14 db 28 bd d8 c0 2e 3c e0 4c 56 3c
       0.036737517 -0.041224554 0.010666095 0.013079852
000100 a0 fe f4 3c 14 e8 39 bd a4 7a 24 3d 14 0b bd 3c
       0.02990657 -0.045387343 0.04015602 0.023076572
000110 c0 0b 16 bb 08 46 a9 3c 68 84 7f 3d ac 47 47 bd
       -0.0022895187 0.020663276 0.06238213 -0.048652336
000120 c2 20 29 3d 8c d3 51 bd 80 eb 70 bd 20 80 7f 3b
       0.041291006 -0.051227137 -0.05881834 0.003898628
000130 f6 9e 44 bd 44 81 5e 3d 7a 73 15 bd dc 15 97 bc
       -0.04800316 0.054322496 -0.03648708 -0.01844304
000140 74 d8 17 bd 9a a3 55 3d 00 c8 1e 39 3a ec 7d 3d
       -0.03707166 0.052157976 0.0001514256 0.06199286
000150 00 7e 90 bb fc 55 a0 3c 5a f3 4f bd 00 18 ba b9
       -0.0044095516 0.01957225 -0.050769188 -0.00035494566
000160 cc ad ef bc 90 b3 29 3d 86 10 15 3d e2 33 4d 3d
       -0.029257677 0.04143101 0.03639271 0.050098307
000170 26 63 04 bd 6e 4e 0f bd 6c bc 4e bd ec ed 49 3d
       -0.032321118 -0.034986906 -0.05047266 0.049299166
000180 d0 6c 58 3c 5c 6f 1b bd a8 53 a1 bc d0 f1 84 3b
       0.013209537 -0.037947997 -0.01969321 0.0040571466
000190 5a ae 7a bd 24 79 4e bd 42 92 02 3d 90 01 81 3c
       -0.06120143 -0.050408497 0.031877764 0.015747815
0001a0 f2 a1 52 3d 7a fb 31 bd 80 10 10 3c 72 71 2c bd
       0.051423974 -0.043452717 0.008792996 -0.042100377
0001b0 24 8e 21 3d ec cd 10 bd e4 c5 8b 3c 1e 7e 26 bd
       0.039442196 -0.035352632 0.017062135 -0.04064762
0001c0 42 5a 0c 3d 54 d2 83 3c 68 56 98 3c 30 03 50 3d
       0.034265764 0.016091503 0.01859589 0.05078429
0001d0 e0 20 19 3d 00 8b 0c bb 40 e1 a3 3a 80 d8 76 ba
       0.037384868 -0.0021445155 0.0012503043 -0.0009416416
0001e0 c0 6a c8 3a 2e 35 60 bd 18 e0 11 3c a0 8d 21 bb
       0.0015290603 -0.054738216 0.008903526 -0.0024651065
0001f0 b0 52 b0 3c e2 6e 5d 3d 50 a4 78 bd 82 fc 5c 3d
       0.021523803 0.054060824 -0.060703576 0.053951748
000200 5c e7 a6 bc 16 df 5e 3d b0 43 49 bc ce a6 01 3d
       -0.020373993 0.05441197 -0.012284204 0.031653218
000210 2c bb 1a 3d 30 79 76 3c 74 f3 5d bd 72 56 61 bd
       0.037776157 0.015043542 -0.054187253 -0.05501408
000220 3e 7a 30 3d 04 e2 04 3d e0 d6 d2 3b 00 c8 51 ba
       0.04308533 0.032442108 0.0064343065 -0.00080025196
000230 56 cf 0c 3d b0 d9 27 bd c8 78 04 3d 44 de 9f bc
       0.03437742 -0.040979087 0.03234175 -0.019515164
000240 20 44 fb bb e6 70 64 bd 84 d1 7c bd 62 8f 64 3d
       -0.0076680332 -0.05577173 -0.061723247 0.055800803
000250 34 0b 65 3d ae bd 53 3d e0 96 f2 3c 00 d7 59 3d
       0.055918887 0.051694565 0.029612958 0.053183556
000260 62 27 5a bd f0 94 9c bc 2e ba 04 bd f8 0b 6f 3c
       -0.053260215 -0.019113988 -0.032404117 0.014590256
000270 b0 64 a2 bc dc 10 23 bd a4 73 a4 3c 92 d6 7c bd
       -0.019823402 -0.039811 0.020074673 -0.061728068
000280 30 4d 8a bb 1c 05 5a 3d 0a 5e 25 bd 74 37 8c 3c
       -0.0042206272 0.05322753 -0.040372886 0.017116286
000290 fc 24 89 bc 50 4a db bc 7a f7 28 3d 00 e6 1a 3c
       -0.016741268 -0.026768833 0.041251637 0.00945425
0002a0 c0 b6 2f 3d 1a 4b 5c 3d 22 3f 38 bd 9c 64 e6 bc
       0.042898893 0.05378256 -0.044982083 -0.028124146
0002b0 f0 7a 19 bd 80 18 1a bc 34 a7 7b bd d8 0f ae 3c
       -0.037470758 -0.009405255 -0.061438754 0.02124779
0002c0 74 11 fd bc 50 1e 82 bc 5c 48 6c bd 84 b3 1a 3d
       -0.030892111 -0.015883595 -0.057686195 0.037768856
0002d0 0c 31 07 bd b8 81 b7 3c 50 aa 56 bd 2a 3a 14 3d
       -0.03300576 0.022400722 -0.052408516 0.036188282
0002e0 b6 96 10 3d 24 6c bd 3c 48 7f 4c bd 40 78 9d bc
       0.03529998 0.023122855 -0.049926072 -0.019222379
0002f0 fc e4 60 bd 00 b4 83 b9 62 0d 68 bd 94 2f 1c bd
       -0.054905877 -0.00025120378 -0.056653388 -0.03813131
000300 68 e2 37 3c 48 b3 22 3c 60 e4 12 3c 64 66 dd 3c
       0.011223413 0.009930439 0.008965582 0.027026363
000310 38 e3 91 3c f8 27 68 3c 5a de 2b 3d 68 fd 50 3d
       0.017808542 0.014169686 0.041960098 0.051022917
000320 96 31 1d 3d c4 21 ae bc 32 0f 7a bd 20 ed 27 3c
       0.038377367 -0.021256335 -0.061049648 0.010249406
000330 e0 77 6d bd f4 47 f0 bc f8 3d 9b 3c 00 00 80 bd
       -0.05797565 -0.029331185 0.018950447 -0.0625
000340 00 5f d4 ba 10 41 05 3c 30 2a a7 3b a0 c3 33 3b
       -0.0016202629 0.008133188 0.0051014647 0.0027429834
000350 70 c7 3f bd 68 00 4a bd 5c 72 e9 3c 28 cc 6f bc
       -0.046821058 -0.049316794 0.028496914 -0.014636077
000360 90 f1 46 3c 4e cc 19 bd 3c 29 cf bc d8 09 22 3d
       0.012142554 -0.037548356 -0.025288217 0.03956017
000370 78 03 00 3c 1c 27 07 3d e8 d1 c2 bc e4 84 bf bc
       0.007813327 0.032996282 -0.023781732 -0.023378797
000380 02 c7 36 bd d0 b0 3f 3d 24 9a 0f 3d a0 9b 84 3b
       -0.044623382 0.04679948 0.03505911 0.0040468723
000390 0a 79 71 bd e4 4f df bc c0 eb 96 3b fa 46 35 3d
       -0.058953322 -0.027259775 0.0046057403 0.04425714
0003a0 50 17 17 bc 98 d6 27 bc 18 a2 66 bc 28 47 53 3d
       -0.009221867 -0.010244034 -0.014076732 0.05158153
0003b0 86 21 45 3d c4 92 33 bd 00 fc d5 ba 9e 99 3a 3d
       0.048127674 -0.04384114 -0.0016325712 0.045556657
0003c0 1c 37 fc 3c 8a c1 61 3d 70 22 8b 3c 88 ab 01 3d
       0.030787997 0.055116214 0.016984195 0.031657726
0003d0 9a fe 15 bd 6c 89 07 3d 7a d7 6b 3d f8 3e 13 bc
       -0.03661976 0.03309004 0.05757854 -0.008987181
0003e0 a0 37 47 3c 58 74 e3 bc 70 b5 f0 bc 4c 4e 5d bd
       0.012159258 -0.027765438 -0.029383391 -0.054029748
0003f0 d2 d6 15 3d 74 42 87 3c 30 53 f1 bc 80 6d 3f bc
       0.03658182 0.01651118 -0.029458612 -0.011683822

model.2.bias f4 [256]
000000 14 22 88 3c 30 56 b3 bb 1a 79 7e bd 2e 22 46 bd
       0.016617812 -0.005472921 -0.06212721 -0.04837244
000010 90 87 4b bc 48 6b 17 bd 0c 8b 23 3d 1a e2 08 3d
       -0.012422457 -0.036967546 0.039927527 0.033418752
000020 30 9b 6b 3d bc 15 13 bd d0 29 66 3c 5c 5a 41 bd
       0.057521045 -0.0359094 0.014048055 -0.047205314
000030 c0 37 78 bc bc 5e fc bc c0 76 34 3c 54 68 ce bc
       -0.015150011 -0.030806892 0.01101464 -0.025196232
000040 00 f1 32 ba 28 4d 7a bd 50 c0 6a bd 80 03 57 3d
       -0.0006826073 -0.06110874 -0.05731231 0.052493572
000050 44 62 81 bc f8 68 fd bc e0 5c 85 bc 98 b9 42 3c
       -0.015793927 -0.030933842 -0.016279638 0.011885069
000060 d0 ba 1c 3c 58 5c 5f 3c c0 a0 d5 ba 30 b2 a4 3b
       0.009566024 0.013632856 -0.0016298518 0.0050261244
000070 70 51 a3 bb f0 08 5f 3d 2c 93 b1 3c 56 9b 60 bd
       -0.0049840733 0.054451883 0.021676622 -0.05483564
000080 3c ff 1b bd 96 48 24 bd 38 75 4c bd f8 31 1b 3c
       -0.038085207 -0.040108286 -0.049916476 0.009472363
000090 b2 8e 6e 3d c6 1c 45 3d da d6 7e bd ac 88 45 bd
       0.058241554 0.048123144 -0.062216617 -0.048226044
0000a0 70 d2 13 bc 70 72 56 3c b8 a1 72 3c e4 15 0c bd
       -0.00902234 0.013088807 0.014809065 -0.034200564
0000b0 32 78 7f 3d 00 60 85 b9 c0 98 b4 3c bc 04 84 bc
       0.062370487 -0.00025439262 0.022045493 -0.016115539
0000c0 68 0b 62 3c 44 7d a1 3c 00 76 de 3c 2e 4d 00 3d
       0.013796665 0.019713052 0.027155876 0.031323604
0000d0 90 53 ec 3c 42 b8 7f bd 38 29 ea bc a0 d6 4d 3d
       0.02884844 -0.06243158 -0.028584108 0.05025351
0000e0 d6 ca 2d 3d dc 19 e7 3c 6c f0 7c bd 36 ec 43 bd
       0.042429768 0.028210573 -0.06175272 -0.04783269
0000f0 20 60 5d 3c 00 df 94 bc 38 12 4f 3d a0 a9 53 bd
       0.0135116875 -0.018172741 0.050554484 -0.05167544
000100 00 07 20 bc 36 2e 09 bd 90 75 c6 3b 30 63 65 3c
       -0.009767294 -0.033491336 0.006056495 0.014000699
000110 70 49 91 bb 58 e7 f4 3c 24 1d af bc fc f5 c1 bc
       -0.0044338033 0.02989547 -0.0213762 -0.023676865
000120 40 f2 d5 3a f0 ed bb bc 20 d3 20 bc 5c 51 19 3d
       0.0016322806 -0.022940606 -0.009815961 0.037431106
000130 24 a6 db 3c 44 79 37 bd 18 08 bd 3c a8 1b 52 bd
       0.02681262 -0.044793382 0.023075148 -0.051295906
000140 88 63 4b bc d2 e3 3e bd b0 69 a3 3b e8 b3 41 3d
       -0.012413867 -0.046603985 0.004986964 0.047290713
000150 7c 45 57 3d 08 a0 1c 3d 52 15 1a bd cc 42 5d 3d
       0.0525565 0.038238555 -0.03761799 0.05401878
000160 e0 5c 4a 3c a0 cf d3 bc 18 36 e1 3c b4 4e ca 3c
       0.012351245 -0.02585584 0.027491614 0.024695732
000170 50 7d 45 bc 00 72 4e bc 10 76 9b bb 58 c2 2d 3d
       -0.012053803 -0.012600422 -0.0047442988 0.04242167
000180 88 06 6e 3d 4c e8 7b bd de 1e 08 3d 24 64 0d 3d
       0.058111697 -0.061500832 0.033232562 0.03451933
000190 a4 75 9b bc 12 7a 78 3d bc 2c a5 3c 10 f2 bf bc
       -0.018976994 0.06066329 0.020162933 -0.023430854
0001a0 c0 87 e1 bc b8 e7 2c bc 60 08 42 3b fa 9e 1e bd
       -0.027530551 -0.010553293 0.0029607043 -0.03872583
0001b0 7c 0a 14 3d 66 2b 51 3d 3e ab 6f 3d e4 3f c3 3c
       0.03614281 0.05106678 0.05851292 0.023834176
0001c0 f6 eb 7a 3d 44 7f f7 3c a0 9f 38 bb 60 5d 83 bc
       0.061260186 0.030212052 -0.0028171316 -0.016035736
0001d0 34 26 cf 3c 94 35 0a bd ae ce 38 3d f4 e4 1b bd
       0.025286771 -0.033742502 0.04511898 -0.038060144
0001e0 2c 18 6a 3d 5a 5a 71 bd 12 69 16 3d d0 e8 0e bc
       0.05715196 -0.058924057 0.036721297 -0.008722499
0001f0 0a 04 63 3d 42 25 03 3d 7c d6 35 3d 28 41 66 bd
       0.055423774 0.032017954 0.044394 -0.05621448
000200 b0 0e 1d bd 80 54 f4 3a 9a ce 61 3d 40 60 7a 3b
       -0.038344085 0.0018640906 0.05512867 0.0038204342
000210 90 68 1e bd 5e 9a 00 bd aa c7 63 bd 30 bc 83 3c
       -0.038673937 -0.031397216 -0.055610336 0.016080946
000220 00 4a 08 ba a8 7e 26 bd 84 1b 8f bc 74 23 5c 3d
       -0.0005199015 -0.040648133 -0.017469175 0.05374475
000230 e8 e4 28 3c 30 88 ea 3c 28 8f 3e 3c d8 96 42 3c
       0.010308482 0.028629392 0.011630811 0.011876784
000240 18 46 66 3c c4 87 b4 3c 40 28 42 3c 5e bb 16 bd
       0.014054798 0.022037394 0.011850417 -0.03679978
000250 80 1d 61 3a 5c 7e e8 3c b2 ca 5d 3d f8 c5 62 bc
       0.00085874647 0.028380565 0.054148383 -0.013841145
000260 ca 4a 60 3d 3c a2 01 bd 3c 71 31 bd e0 e3 01 bc
       0.054758824 -0.03164886 -0.04332088 -0.007927865
000270 0a e6 06 bd 32 be 54 3d 36 f2 33 bd cc 11 1e bd
       -0.032934226 0.051939197 -0.043932162 -0.03859119
000280 be d5 0c bd 78 12 43 3c b8 d0 68 3d 30 be b6 3c
       -0.034383528 0.011906259 0.056839675 0.022307485
000290 fc fc ae 3c 24 01 a7 3c 50 f0 64 bc e0 13 4e bc
       0.021360867 0.020386286 -0.013973311 -0.012577981
0002a0 f0 3a d4 3c 3e 28 2f 3d a8 54 52 bd c6 fe 47 3d
       0.02590701 0.042762987 -0.051350266 0.048826955
0002b0 12 6b 15 bd 40 7c e4 bc c2 e7 58 3d 8a c4 3d bd
       -0.036479063 -0.027891278 0.052955396 -0.046330012
0002c0 8c 86 22 bd 00 b8 b9 39 10 a2 a3 bc 76 6c 68 3d
       -0.039679095 0.0003542304 -0.019974738 0.05674406
0002d0 10 16 1b bd 40 01 ad ba 30 3d f4 bb 70 de 2c bd
       -0.037862837 -0.0013199225 -0.007453583 -0.04220432
0002e0 80 6a 5c 3c 78 4c 58 bd a4 b0 e1 3c 58 d2 73 3d
       0.013453126 -0.0528073 0.02755005 0.05952677
0002f0 a2 bb 18 bd d4 5f b9 bc 32 b3 4b 3d 7c ac e0 3c
       -0.037288316 -0.022628702 0.04973144 0.027425997
000300 3e c8 28 bd e8 22 59 bc 18 94 6d bc 40 ea f6 3a
       -0.04120659 -0.013252951 -0.01450064 0.0018838122
000310 0a f0 3f 3d 80 c7 a0 3c c0 8a 93 3a f0 4f 35 3d
       0.04685978 0.019626379 0.0011256561 0.044265687
000320 24 a8 9f 3c 28 78 6d 3d b4 11 9d bc aa f0 4a bd
       0.019489355 0.057975918 -0.01917348 -0.04954592
000330 20 6b 3d bd 04 23 c4 3c 08 61 36 3d 2a 69 29 3d
       -0.04624474 0.023942478 0.04452613 0.041360058
000340 c2 73 33 3d f0 cd d7 bc e6 07 47 3d f8 b7 20 bc
       0.043811567 -0.026343316 0.048591517 -0.009809487
000350 20 b2 8b 3b ee ab 21 3d e0 63 5f 3c 68 6d 40 3d
       0.0042631775 0.039470606 0.013634652 0.046979338
000360 68 b4 78 3c 58 86 e5 3c 28 73 0c bc 68 d5 6c bd
       0.015179731 0.028018162 -0.008572377 -0.057820708
000370 8e a0 06 3d 14 0b 54 3d c0 72 a3 3a b0 64 02 3d
       0.03286796 0.051768377 0.0012470111 0.031834304
000380 e0 17 4f 3b c8 b0 c3 bc 3e d3 7a 3d e6 2b 28 bd
       0.0031599924 -0.023888007 0.061236612 -0.04105749
000390 04 a3 aa bc fc 86 54 3d 6c f3 87 bc 00 d1 8b bb
       -0.020829685 0.051886544 -0.016595565 -0.004266858
0003a0 ca 31 36 bd 26 6f 27 3d 80 15 b6 3b fa 30 09 3d
       -0.044481076 0.040877484 0.005556762 0.033493973
0003b0 30 c7 b3 3b 30 ee 03 bc 5c 78 d0 3c 90 b2 ec 3c
       0.0054863915 -0.008052394 0.025448017 0.028893739
0003c0 a0 b0 9e bc b8 4f d2 3c be c6 39 bd 48 88 c3 bc
       -0.01937133 0.025672778 -0.04535555 -0.023868695
0003d0 10 d4 8e 3c 54 7d e0 3c 6a 93 6a 3d 78 d0 c2 3c
       0.017435104 0.027403511 0.05726949 0.023781046
0003e0 c6 ef 71 bd 6e 3c 73 3d 08 79 d1 3c c0 56 49 bd
       -0.059066556 0.059383802 0.025570408 -0.049154997
0003f0 34 41 e8 3c e8 cf f5 bc 38 cc d1 bc a8 38 86 3c
       0.028351404 -0.030006364 -0.025610074 0.016384438

model.4.weight f4 [6, 256]
000000 c6 44 37 3d e4 ce db bc 98 ea 03 bc ca 07 24 3d
       0.04474332 -0.026832052 -0.008051537 0.04004649
000010 30 c9 1d bc 12 d7 4a bd 40 2a fb 3b 5e 8e 1e bd
       -0.009630486 -0.049521513 0.0076649487 -0.03870999
000020 d0 a3 57 3c 0c bf a2 3c d6 94 67 bd 40 66 4e 3c
       0.013161615 0.019866489 -0.056538425 0.0125976205
000030 68 f3 06 3d c8 06 a2 3c 00 d7 7b 3c a6 37 05 bd
       0.032946974 0.019778624 0.015371084 -0.032523774
000040 12 40 3c bd 60 86 73 bd 5a ed 12 bd b0 7a ca bb
       -0.04595954 -0.05945432 -0.035870887 -0.0061791763
000050 a4 35 6f bd a0 8d 7c bc 28 93 56 3c cc 41 6b bd
       -0.058400765 -0.015414625 0.013096608 -0.057435796
000060 34 6a 77 bd 8a 80 05 3d 14 74 4a bd 82 7b 4c bd
       -0.060404018 0.032593288 -0.049427107 -0.049922474
000070 7c 60 42 bd 5c 50 dc 3c cc 61 16 3d da bf 68 bd
       -0.047455296 0.026893787 0.03671436 -0.05682359
000080 60 22 a6 bb 60 85 a9 3b 90 54 34 bc 48 c8 48 3d
       -0.005070016 0.0051733702 -0.011006489 0.049019128
000090 1e 95 73 3d 00 3d a1 3a 88 a5 16 3d 78 38 1d 3d
       0.05946838 0.0012301505 0.036778957 0.03838393
0000a0 fc d7 e4 3c 40 09 97 3c f8 70 2b 3c 7e eb 57 bd
       0.02793502 0.018437028 0.010463946 -0.052714817
0000b0 0c d8 78 bd e8 75 0f 3d c8 f0 7e bd 3c 66 ee 3c
       -0.060752913 0.035024554 -0.062241346 0.029101484
0000c0 78 a9 d7 3c d0 05 01 bd 64 4c 35 bd 68 b2 31 bc
       0.026325926 -0.031499684 -0.044262305 -0.010845758
0000d0 4e fc 6c bd 90 51 85 bc 94 e7 80 3c ca 19 33 bd
       -0.057857804 -0.016274244 0.015735425 -0.043725766
0000e0 e0 4e d9 3c 4a 49 00 bd 98 ae 27 bd c8 19 ab bc
       0.026526868 -0.031319894 -0.04093799 -0.020886317
0000f0 20 f1 5f 3c dc 47 b1 bc 00 d9 9d 3b 92 c2 61 3d
       0.0136683285 -0.02164071 0.004817128 0.055117197
000100 40 3b fc 3b cc 0e d9 bc e8 6f eb 3c da 4a 2a bd
       0.007697493 -0.026496314 0.028739884 -0.04157529
000110 e2 35 0c 3d 38 9b 80 3c 0e 26 64 bd 40 ed 52 bb
       0.034231074 0.015699014 -0.055700354 -0.003218487
000120 c8 a3 28 3c b6 5f 1c bd 92 16 79 bd 80 9e 7c ba
       0.010292955 -0.038177215 -0.06081254 -0.00096366554
000130 e0 3b 49 3b 76 66 4e 3d 0a ff 7b 3d 00 47 65 3a
       0.0030705854 0.050390683 0.06152252 0.00087462366
000140 c8 65 30 3d 50 cb 46 bd 50 d8 5d bd f8 0f d4 bc
       0.043065816 -0.048533738 -0.05416137 -0.02588652
000150 ac 07 c0 3c a2 c3 06 3d 50 9a 9d 3c 4a a2 7c bd
       0.023441158 0.032901414 0.019238621 -0.06167821
000160 72 e1 53 3d d8 05 4d bd 70 36 8a bb 62 ed 53 bd
       0.051728673 -0.0500544 -0.0042179152 -0.051740058
000170 c0 05 6c 3c b0 a2 39 bc 84 3d df bc fa 36 10 3d
       0.014405668 -0.011330292 -0.027251013 0.03520868
000180 66 fb 7b 3d f0 82 d6 bc 78 ac 2b 3d 60 d4 6c 3b
       0.06151905 -0.026185483 0.041912526 0.0036137328
000190 d0 73 b9 3b 78 e3 6a 3c 00 55 76 ba bc 75 0f bd
       0.005659558 0.014336459 -0.0009396821 -0.03502439
0001a0 d0 df d6 bc 34 60 10 3d e8 80 82 bc 38 af 67 bc
       -0.026229769 0.035247996 -0.015930608 -0.0141408965
0001b0 c4 6f 6d 3d e8 dc 68 3c 30 9e 84 bb 14 e5 96 3c
       0.057967916 0.014212824 -0.0040471777 0.01841978
0001c0 8c a7 14 bd 62 0c 52 bd e6 7f 49 bd 86 ec 6b bd
       -0.036292598 -0.05128134 -0.04919424 -0.057598613
0001d0 74 b8 15 3d fa 20 6e bd b0 d7 82 3c 08 29 15 3c
       0.03655286 -0.058136918 0.015971988 0.009104021
0001e0 68 15 77 3d f2 3c 36 bd 64 c2 d7 bc 30 24 53 bc
       0.06032315 -0.044491716 -0.02633781 -0.012887046
0001f0 16 61 34 3d 96 7b 48 bd 70 10 6f bd 88 c8 7a bd
       0.0440379 -0.048945986 -0.058365285 -0.061226398
000200 34 d2 89 3c fc 17 61 3d 12 fd 28 3d 00 e9 0c 3d
       0.016823865 0.054954514 0.04125697 0.034401894
000210 9a 57 73 bd ec 5f 0b bd 78 3c 32 bc 70 31 0e 3d
       -0.059409715 -0.034027025 -0.010878675 0.034715116
000220 c8 e1 59 3d c4 f9 65 3d ba 60 44 3d b4 35 ad bc
       0.053193837 0.0561464 0.04794381 -0.021143772
000230 ee 3e 64 3d d6 96 0e 3d 40 e3 d8 3b 7e ca 61 3d
       0.055724077 0.034811817 0.006618887 0.055124752
000240 c0 04 4c 3c b0 dd 91 3c f8 e9 09 3d ce 6c 0e bd
       0.012452304 0.017805904 0.033670396 -0.034771733
000250 00 58 58 b9 42 a1 42 bd e4 13 cb bc 8c 4f 70 3d
       -0.00020632148 -0.04751707 -0.024789758 0.05866961
000260 e4 bb 2f 3d 04 a0 65 bd 10 5c 2b bc 66 e6 3a 3d
       0.042903796 -0.056060806 -0.010458961 0.04562988
000270 aa 63 27 bd a8 df d3 3c 0a a4 79 bd cc fa d1 3c
       -0.04086653 0.025863484 -0.060947455 0.025632285
000280 ba a5 2f bd 80 54 73 bb e8 21 c9 3c e4 ec bc 3c
       -0.04288266 -0.0037129223 0.0245523 0.023062177
000290 1e 87 7b bd c8 ed 21 3c 18 73 6f bd 18 e9 d7 bc
       -0.061408155 0.009883352 -0.05845937 -0.026356265
0002a0 1a 07 16 bd e0 a8 1d 3c 8a 68 0b 3d 44 26 f8 3c
       -0.036627866 0.0096227825 0.034035243 0.030291684
0002b0 7e d7 2a 3d 7e be 29 bd 14 11 bc bc b8 f6 f6 bc
       0.041709416 -0.041441433 -0.022957362 -0.030146942
0002c0 24 a3 4f bd b0 4d 9e bb 26 5c 79 3d c6 8c 67 bd
       -0.050692692 -0.0048310384 0.060878895 -0.056530736
0002d0 08 ce 9f 3c d2 ed 37 3d ea 3e 08 3d d0 05 df bb
       0.019507423 0.044904537 0.033263125 -0.006806113
0002e0 e0 46 3d 3c 20 61 90 3c f0 9f 29 3c 7c 55 d6 bc
       0.011552542 0.017624438 0.0103530735 -0.026163809
0002f0 4e f4 47 3d 68 c7 d1 bc 48 06 d2 3c 52 0f 46 bd
       0.04881697 -0.02560778 0.02563776 -0.048354454
000300 b8 c1 b9 3c 9e d0 5b bd 08 ec 6b 3d 40 04 fe 3c
       0.02267538 -0.05366575 0.057598144 0.031007886
000310 c0 ed 2b 3d da 0e 27 3d 5c f4 92 bc ae da 4d 3d
       0.041974783 0.040785648 -0.017938785 0.050257377
000320 f2 c4 55 bd ac 48 c3 bc ba 61 7b bd 28 84 67 3d
       -0.052189775 -0.023838364 -0.061372496 0.05652252
000330 a0 9a a1 bc 00 f8 f4 3b 4a a3 2f 3d b4 e4 23 bd
       -0.019727051 0.007475853 0.042880334 -0.04001303
000340 12 ca 18 bd 8c a7 37 bd 54 86 41 3d a0 2a 6a bc
       -0.037302084 -0.04483752 0.047247246 -0.014292389
000350 20 df 31 bc ac 9f 47 bd 60 9b 23 bd f0 bc 18 3d
       -0.01085642 -0.04873626 -0.0399431 0.03728956
000360 e0 e0 0c bc ec 7b 91 bc 92 ae 3d 3d 82 ed 2e 3d
       -0.008598536 -0.017759286 0.04630906 0.042706974
000370 98 e2 cc bc f0 e8 b8 3c f4 a1 cf bc e6 87 25 3d
       -0.025010392 0.02257201 -0.02534578 0.040412806
000380 40 bf 60 bb 00 e8 ac b9 50 a6 0d 3c 40 bd 46 3d
       -0.0034293681 -0.0003297925 0.008645609 0.048520327
000390 a0 58 11 bd 20 bb 0b bd 40 f5 3d 3c 92 4e 1d 3d
       -0.03548491 -0.034114003 0.011594117 0.03840501
0003a0 46 3d 5b 3d 8c 63 2e bd 4c b1 1c bd 38 d4 39 3d
       0.05352523 -0.042575404 -0.03825502 0.045368403
0003b0 80 15 45 bb b8 0a 72 3c c0 42 17 bb e8 aa 8c 3c
       -0.003007263 0.014773063 -0.0023080558 0.017171338
0003c0 98 4c 82 bc 86 d5 7c bd 36 7e 4f 3d a0 e6 f9 bb
       -0.015905663 -0.06172707 0.050657474 -0.0076263696
0003d0 b4 be dc bc 00 56 d2 39 6e 8d 43 3d bc 7d ef 3c
       -0.026946403 0.00040118396 0.0477423 0.02923476
0003e0 b6 a7 76 3d a4 1e 60 3d be b1 6c 3d 2c ba 8a bc
       0.060218535 0.05471672 0.057786696 -0.016934477
0003f0 20 e2 50 bd 36 cf 48 3d ec 50 b0 bc d8 56 e7 3c
       -0.0509969 0.049025737 -0.021522962 0.028239653

model.4.bias f4 [6]
000000 a8 90 7d bd 04 b0 ed 3c b4 e5 24 bd 5e 8c 75 3d
       -0.061905533 0.029014595 -0.040258124 0.059948318
000010 16 82 13 bd 50 e1 4a 3d
       -0.03601273 0.04953128

model.0.weight f4 [256, 8]
000000 2e 8f 18 3e c2 9e 11 be 50 06 0f bd 90 d5 27 be
       0.14898369 -0.14220718 -0.03491813 -0.16390061
000010 ee 8c 3e be 90 9b b9 bd 5e cd 5f 3e 4c 67 c3 bd
       -0.18608448 -0.09062874 0.21855685 -0.09541187
000020 31 e4 29 be 3a c8 9d be 61 e1 a7 3e 94 c9 1a be
       -0.16590954 -0.30816823 0.32789138 -0.15115958
000030 95 7d 5c be 80 2c 6f bd e2 3b 3e 3e 7a 5e 40 3e
       -0.2153228 -0.058392048 0.18577531 0.1878604
000040 13 a0 84 3e 39 49 85 be d5 f0 9d 3e ee 6c 6e 3e
       0.25903377 -0.26032427 0.30847803 0.23283741
000050 c9 51 8f 3e 00 ac ef bc 10 19 da 3d 07 cc 21 be
       0.27992085 -0.02925682 0.106493115 -0.15800487
000060 a0 0e 71 3d 02 1b 2c 3e a8 8b 43 3d 8c dc 94 bd
       0.058851838 0.16807178 0.04774061 -0.072686285
000070 18 92 a1 be 4f 58 93 3e 6b 8e 9b 3e 8f 27 9a 3e
       -0.31556773 0.28778312 0.30382094 0.30108306
000080 3e ec b0 be e4 80 b1 be a3 9b 62 be 5c b0 80 be
       -0.34555238 -0.34668648 -0.22129683 -0.25134552
000090 60 2c 5c be 10 0f db 3c 64 11 ec 3d 60 1c 6d bd
       -0.21501303 0.02674058 0.115267545 -0.05788839
0000a0 96 3e 81 be 76 90 32 3e d8 81 8c 3d 40 26 a3 bc
       -0.25243062 0.1743792 0.06860703 -0.0199157
0000b0 a0 5b a5 3d 30 8f df bc e6 cb 6d 3e 5a 6e 4b 3e
       0.08074117 -0.027289957 0.23222312 0.19866315
0000c0 00 4f 9f bd c7 6c a4 be 90 4d 79 3d 00 39 74 bc
       -0.0777874 -0.3211424 0.060864985 -0.014906168
0000d0 09 30 8f be a0 d8 c9 3c bf 75 7c be e3 52 00 be
       -0.27966335 0.024639428 -0.24654292 -0.12531619
0000e0 5c b5 14 be 8f f7 81 3e 99 67 9c 3e 20 c7 c1 bd
       -0.14522308 0.25384185 0.3054779 -0.09461808
0000f0 7f 33 59 be de 0a 7d 3e 9b 08 0f be 3b 77 83 3e
       -0.2121105 0.24711177 -0.13968126 0.25676903
000100 16 3d 2e 3e 24 bc b8 bd cb dc af be 67 1b b0 3e
       0.1701549 -0.0902026 -0.3434814 0.34395906
000110 c3 f9 ac 3e 6e 42 ef bd d2 ce 59 3e f2 13 97 be
       0.33784303 -0.11682592 0.21270302 -0.29507405
000120 ce f5 99 be 27 14 70 be f4 66 c5 bd 46 08 29 3e
       -0.30070347 -0.23445188 -0.096387774 0.16507062
000130 ad 7e 84 3e 00 8e e3 3c 2a d1 79 be a6 50 1f be
       0.25877896 0.027777672 -0.24396196 -0.15558109
000140 6d ae b3 3e 6b 60 a7 3e 08 ec 25 bd 6c d8 db 3d
       0.35094014 0.3269075 -0.0405083 0.107346386
000150 77 da 65 be 0a ca 50 3e c0 e0 df 3b a4 59 9c 3d
       -0.22446619 0.20389572 0.006832212 0.07634285
000160 7a b2 6d 3e 4c e4 ea bd ec 73 b5 bd f8 79 96 3d
       0.23212615 -0.114693254 -0.08860001 0.073474824
000170 12 30 74 be 0d 42 a2 3e 50 17 0a 3d 3f b9 8a 3e
       -0.23846462 0.31691018 0.03371364 0.27094457
000180 08 c3 0b 3e c0 ab 11 3d e3 11 aa 3e c2 0e 26 3e
       0.13648617 0.035564184 0.3321677 0.16216567
000190 50 03 65 3d 52 85 7a 3e a4 b1 ba 3d f8 cc 3e be
       0.055911362 0.2446492 0.091159135 -0.18632877
0001a0 a3 cf 8b 3e 3a 22 1a be 01 e2 75 be d2 71 37 3e
       0.27306852 -0.15052119 -0.24011995 0.17914513
0001b0 18 2e ac 3d a0 7b 6e 3c 25 46 9b be 68 d4 44 be
       0.08407229 0.014555842 -0.30326954 -0.19221652
0001c0 54 38 7e be 92 55 f6 bd 40 17 ea 3b ce 11 71 be
       -0.24826175 -0.1202804 0.007143885 -0.23541948
0001d0 1b 28 83 3e 89 e5 8d 3e bc 43 ab 3d 20 54 78 be
       0.25616536 0.27714184 0.08362529 -0.24250841
0001e0 22 2e 51 3e 52 a4 ff bd 89 af b4 3e 51 be 87 3e
       0.20427755 -0.124825135 0.35290173 0.26512387
0001f0 d1 1f a1 3e f2 6a 66 3e eb 9c 29 be 50 bf 94 be
       0.31469586 0.22501734 -0.16563766 -0.2905221
000200 f0 bf a9 bd b7 c3 ad 3e 9a 85 f0 bd 46 cf 9f be
       -0.08288562 0.3393838 -0.117442325 -0.31212825
000210 2c eb 8f 3d bb 03 86 3e 3f 4e 86 3e 8d 96 69 be
       0.07027277 0.2617472 0.26231572 -0.22811337
000220 9f 36 8e 3e 94 0a 87 3d 68 5f dc 3d 0d 7e 4a be
       0.27776048 0.065938145 0.10760385 -0.19774647
000230 ca f9 7f 3e da b3 06 3e 88 2a 4d bd 60 02 91 3c
       0.2499763 0.13154545 -0.05008939 0.017701328
000240 b4 7e 55 be 9d a2 17 be 8e c0 33 3e 18 9b 07 3d
       -0.20849115 -0.14808126 0.17553923 0.033106893
000250 b0 c1 59 bd e8 14 e6 3d 69 83 8d be 5e 87 38 3e
       -0.05316323 0.11234456 -0.2763932 0.18020388
000260 62 f4 82 be 90 8c 94 bd 69 05 57 be 90 31 29 bd
       -0.25577074 -0.07253373 -0.20998158 -0.041307032
000270 c0 a7 89 bd a0 2d 26 bd 30 ea 04 bd f0 1d a4 bd
       -0.06721449 -0.040570855 -0.0324499 -0.080135226
000280 44 f1 ee bd 08 cf aa be aa 85 45 3e 0d 01 a0 3e
       -0.116671115 -0.33361077 0.1928927 0.31250802
000290 23 56 ab 3e 1a 30 87 be ae 14 dc bd a3 ee 5f be
       0.33464155 -0.26403886 -0.10746132 -0.21868376
0002a0 ac 83 e4 3d 2d 71 a7 be 15 f1 a6 3e 50 de 3c bd
       0.11157927 -0.32703534 0.32605806 -0.04611045
0002b0 b8 b4 25 bd 4e 0f 6b be 80 fd 21 3d d7 13 84 be
       -0.04045555 -0.22955057 0.039548397 -0.25796387
0002c0 42 43 66 3e ad 18 a3 3e 74 b8 e1 3d ec d1 13 3e
       0.22486594 0.31854764 0.1102151 0.14435548
0002d0 25 c7 a7 be 15 eb a7 3e eb 99 9f be a8 d5 39 be
       -0.32769123 0.3279654 -0.31172118 -0.1814791
0002e0 80 8d 36 3b 6c 9d 8f bd 74 45 84 be c5 6c 99 3e
       0.0027855337 -0.07012448 -0.2583424 0.29965797
0002f0 70 a4 86 bc 00 84 15 bc 08 ed 01 3e 86 6d 35 be
       -0.016435832 -0.0091257095 0.12688076 -0.17717561
000300 18 65 1c 3d ae b1 79 3e 1d 5b 14 be 38 22 c2 bd
       0.038182348 0.24384186 -0.14487882 -0.09479183
000310 37 51 b3 be 29 1d 98 3e 9c 50 f4 bd d8 c9 68 be
       -0.350229 0.29709747 -0.119294375 -0.22733247
000320 c0 5d dd 3b ca 05 50 be 87 64 9c 3e 5c aa d9 3d
       0.0067555606 -0.20314708 0.30545446 0.106281966
000330 63 9d aa be 8f 50 43 be 38 8c fa bd b2 d0 23 3e
       -0.33323202 -0.190737 -0.12233776 0.1599758
000340 bf 18 93 3e 24 64 db 3d e2 7f 25 be 5f 11 aa be
       0.28729817 0.1071246 -0.16162065 -0.33216378
000350 30 dd e5 bc 7a 07 66 be a0 1a 03 be 40 07 ab 3d
       -0.028059572 -0.2246379 -0.12803125 0.08350992
000360 ac 74 98 bd be 75 58 3e 40 7d 67 be db 23 ae be
       -0.074441284 0.21138665 -0.22606373 -0.3401173
000370 88 20 52 3d b4 a5 dc 3d 50 aa ae 3c 90 e4 08 3d
       0.051300555 0.10773793 0.021321446 0.0334211
000380 58 e9 12 3d 4d f3 67 be 20 8f df 3d 04 86 88 3d
       0.035867065 -0.22651406 0.10915971 0.066661865
000390 20 aa a7 be f2 40 a3 be ce 86 65 3e da f3 5c 3e
       -0.32746983 -0.31885487 0.22414705 0.21577397
0003a0 6b 18 94 3e e2 bd 2c be 92 40 4c 3e 1e 54 46 3e
       0.2892488 -0.1686931 0.19946507 0.19368026
0003b0 a3 f8 91 3e 11 5a 86 3e a5 5f aa 3e 10 63 da bd
       0.28510007 0.2624059 0.33276096 -0.10663426
0003c0 ae c2 37 3e 9d b7 16 be d0 a7 90 3c 52 a4 4a 3e
       0.17945358 -0.1471848 0.017658144 0.19789246
0003d0 41 f1 a9 3e 20 38 48 be 8a 96 60 3e c8 36 ad 3d
       0.33191875 -0.1955266 0.21932426 0.08457714
0003e0 a2 57 3b 3e 4b 19 b0 be 8a 3b 8c be 9c 36 d6 3d
       0.18295148 -0.34394297 -0.27389175 0.10459635
0003f0 ff 8f 96 3e 5a 82 4b 3e 00 7f f4 bb 40 97 07 3d
       0.29406735 0.19873944 -0.0074614286 0.033103228

model.0.bias f4 [256]
000000 69 cf 03 be e0 87 f5 3c b8 c5 61 bd 50 2c f2 3c
       -0.1287209 0.029972017 -0.0551202 0.029562145
000010 84 b7 93 be e4 7e 80 3d c1 3c 14 be 9c b0 e5 3d
       -0.2885095 0.062742025 -0.14476301 0.11215326
000020 98 de 88 bd b3 04 91 3e f0 7e 87 bc 3c 31 a8 3d
       -0.066830814 0.28323898 -0.01654002 0.08212516
000030 68 ec 53 3d 22 9c a2 be d5 08 41 be d1 eb 87 3e
       0.051739126 -0.31759745 -0.18851025 0.265471
000040 40 62 fe bc 34 fd 8c 3d 18 16 12 be 48 de 6b bd
       -0.031052709 0.06884232 -0.1426624 -0.05758503
000050 94 db 5b be 84 5e a3 be ba dc 1d 3e 30 46 1d bd
       -0.21470481 -0.31908047 0.15416232 -0.038397014
000060 20 71 31 bc 41 0d ac 3e c0 8a 04 3c b5 01 96 3e
       -0.010830194 0.33603862 0.008089721 0.29298177
000070 78 90 f8 3d 1f a5 89 3e 98 f3 3d 3d 51 9b 80 3e
       0.1213693 0.2688379 0.046374887 0.25118497
000080 44 39 ee 3d 79 4f 35 be 98 07 a0 be 67 0f a1 be
       0.11632016 -0.17706098 -0.31255794 -0.31457064
000090 4f 25 59 be 71 7d 92 3e 86 b1 73 3e cf ed 83 3e
       -0.21205638 0.2861133 0.23798189 0.2576737
0000a0 bb a9 1b be 54 b8 93 3d 52 7a 2f 3e d8 d4 1d bd
       -0.15201466 0.07212892 0.17136505 -0.03853306
0000b0 8e 57 a3 be 44 b9 96 bd 9b 79 b1 be 36 ea 02 be
       -0.31902736 -0.07359555 -0.3466309 -0.12784657
0000c0 e4 5d 9f bd 46 3b 2c 3e 58 7c b4 be 52 3e da bd
       -0.0778158 0.16819486 -0.35251117 -0.10656418
0000d0 9a ec 28 3e a7 5b 9e 3e 00 4e 5c 3b 99 e0 85 be
       0.16496506 0.309293 0.0033615828 -0.26147917
0000e0 90 f0 98 be 07 a7 9f 3e 2d a5 28 be 24 b8 d9 3d
       -0.29871035 0.3118212 -0.1646926 0.10630825
0000f0 f4 08 15 3e e0 aa c2 bd c4 60 b8 3d 89 05 9c 3e
       0.14554197 -0.09505248 0.090028316 0.30472973
000100 7d ac 9b 3e a0 e2 08 bd 4a 9f 58 3e 70 71 81 bd
       0.30405036 -0.03341925 0.21154514 -0.063204646
000110 a7 f3 8e 3e a9 d5 54 be 40 4a e7 bb 48 4d fb 3d
       0.27920267 -0.2078463 -0.007058412 0.122705996
000120 92 5e a0 be cb 8c 94 be 08 95 cd bd 0b d8 84 3e
       -0.3132215 -0.29013667 -0.10038191 0.25946078
000130 50 5d 86 bd 8d f9 aa 3e 36 29 67 3e 59 ca 83 3e
       -0.06560767 0.33393517 0.22574314 0.25740317
000140 18 82 9f be fa fc 07 be d4 54 e3 bd 3c 29 99 be
       -0.3115394 -0.13280097 -0.11100164 -0.29914272
000150 70 8c 74 be 31 9a 86 3e 6a 42 5f 3e e5 a6 9c 3e
       -0.23881698 0.26289514 0.21802679 0.3059608
000160 94 8e c4 3d 9b 4e 16 be 19 17 97 3e f8 e6 8a bd
       0.09597507 -0.14678423 0.2950981 -0.06782335
000170 88 5e cf 3d 51 91 ae 3e d4 1a b0 bd c8 a1 5d be
       0.10125452 0.34095243 -0.08598867 -0.21643746
000180 11 3e 93 3e 3e 1d 57 be cb e2 2f be fa da 05 3e
       0.2875829 -0.21007249 -0.17176358 0.13071814
000190 68 d6 d7 bd d1 74 93 be a1 00 a1 be 3f 7c 47 be
       -0.105389416 -0.2880006 -0.31445792 -0.1948099
0001a0 f8 4f 7f bd 80 8c a4 bd 90 d1 c4 bd 79 c3 82 be
       -0.062332124 -0.08034611 -0.096102834 -0.2553976
0001b0 60 3c 4d bc e9 24 a8 3e c8 32 5f bd 50 83 9a bd
       -0.012526602 0.3284066 -0.05449179 -0.07544577
0001c0 73 35 99 be 4f b8 ab 3e 00 09 f4 bc 54 18 94 bd
       -0.2992359 0.33539054 -0.029789448 -0.07231203
0001d0 a4 ee be 3d 29 ba 8a 3e 48 2a 07 3d 08 44 d3 bd
       0.09322861 0.27095154 0.032999307 -0.1031571
0001e0 d0 6f 8b be 15 74 a9 3e 2e 87 32 3e dc 41 4e be
       -0.27233744 0.33096376 0.1743438 -0.20142311
0001f0 4c 6e 0d be 1d 5d b2 3e 0e c3 63 3e 70 67 49 3d
       -0.13811606 0.34836665 0.22242376 0.04917091
000200 bf 6e 38 be b0 94 3c bd f0 73 52 bd 4a af 51 3e
       -0.18010996 -0.046040237 -0.051380098 0.20477024
000210 c4 a2 ec 3d 92 9d 99 be 18 17 19 3d b8 33 a7 bd
       0.115544826 -0.3000303 0.03737554 -0.081641614
000220 4f 89 ac be 50 21 bf 3d a8 d8 e1 3d 94 8d 45 be
       -0.33698508 0.09332526 0.11027652 -0.19292289
000230 80 0d 25 3c 9d 81 47 be f2 8f 12 3e 78 66 27 3d
       0.010074019 -0.19483037 0.14312723 0.040869206
000240 a4 5d a4 be 60 33 12 bd 34 43 bf 3d 68 d7 ab be
       -0.32102692 -0.035693526 0.0933899 -0.3356278
000250 6c 65 b7 bd f8 8c 94 bd 53 14 a2 3e 5f 32 8b 3e
       -0.089548916 -0.0725345 0.3165613 0.27186868
000260 ea 43 77 3e ed b7 b2 3e 20 69 bf bd 95 d4 84 3e
       0.24147001 0.3490595 -0.09346223 0.25943437
000270 ab bf 9c be 77 cc b4 be 72 76 42 3e 21 27 73 be
       -0.3061498 -0.35312244 0.18990496 -0.23745395
000280 41 53 9a be 71 43 89 3e 6c 58 a9 bd d5 8f 94 be
       -0.30141643 0.26809266 -0.08268818 -0.29015985
000290 78 f4 2d 3d e5 fc a0 be f4 7c f4 3d 65 fd 7d be
       0.04246947 -0.31442943 0.119378954 -0.24803694
0002a0 e2 7d 96 be 7a 37 46 3e ac 67 ab 3d 50 e9 f6 3c
       -0.29392916 0.193571 0.08369383 0.030140549
0002b0 c1 f4 b4 3e c0 75 59 bc 98 08 8b 3d 7c e7 a8 be
       0.35342982 -0.013272703 0.067887485 -0.3298911
0002c0 61 fb a0 3e 5a 6f 52 3e 28 d4 3b 3d 64 49 80 be
       0.31441787 0.2055029 0.045856625 -0.25055993
0002d0 a5 49 92 3e ab 8a 3e be 60 f3 d7 3c c4 f6 b7 bd
       0.2857181 -0.18607585 0.026361167 -0.08982614
0002e0 36 0e 90 be dd 04 95 3e 41 bd 5e be 75 03 9f be
       -0.28135842 0.29105273 -0.21751882 -0.31057325
0002f0 3d f0 05 be dc 8c 7e be 5e 64 61 be 17 d1 92 be
       -0.13079925 -0.24858421 -0.22010943 -0.28675148
000300 46 a7 64 3e fa ec ee bd 80 23 4c be 3c b9 e8 3d
       0.22329435 -0.116662934 -0.19935417 0.11363456
000310 75 f5 87 3e 1d 07 44 be c8 7d 85 3d f6 1a 1e 3e
       0.26554456 -0.19143339 0.065181315 0.15439972
000320 4e 09 3c 3e 44 92 14 3e c9 64 b0 3e 10 a8 84 3c
       0.18362924 0.14508921 0.34451893 0.01619342
000330 2a bd 77 3e f2 76 4d 3e 80 b5 79 bd 0d df ad be
       0.24193254 0.20064905 -0.060964108 -0.33959237
000340 ab f6 a2 3e 67 0f 93 3e 00 b4 40 bd 9e 54 3f 3e
       0.31828818 0.2872269 -0.04704666 0.18684623
000350 62 b0 2f 3e ca 64 11 3e f2 0c f0 bd d9 f5 9f 3e
       0.17157128 0.14198604 -0.11721219 0.31242254
000360 63 d9 a3 be 85 13 82 be 58 e9 6e bd 60 28 50 3d
       -0.3200179 -0.25405517 -0.058328003 0.050819755
000370 59 77 95 3e ab 62 43 be 8a 30 61 3e f0 a3 87 bd
       0.29192618 -0.19080608 0.21991172 -0.066230655
000380 f3 2d 68 be 5f 52 8c be f6 f6 74 3e dd 19 a4 3e
       -0.22673778 -0.27406594 0.23922333 0.32050982
000390 a1 7d 2b be f4 3c b4 bd 63 12 9c 3e 0e 17 14 be
       -0.16747142 -0.088006884 0.30482778 -0.1446192
0003a0 2a 44 50 3e 3e 8a 32 be 31 af 45 be 9a 1f 93 be
       0.20338503 -0.17435548 -0.19305111 -0.28735048
0003b0 04 c9 9b be 6a 51 97 be 7e 97 71 be b0 41 02 bd
       -0.304268 -0.29554302 -0.23592946 -0.031800926
0003c0 ed 24 af 3e 1a 2d 38 3e 39 69 97 3e f4 09 83 be
       0.3420786 0.17985955 0.29572466 -0.2559353
0003d0 e3 34 8e 3e c9 68 b0 3e 90 49 e7 3c 3e 72 4b 3e
       0.27774724 0.34454945 0.02823332 0.19867799
0003e0 bc a7 10 3e 82 48 85 be a9 fa 8c 3e 98 4d 9b 3d
       0.14126486 -0.26031882 0.2753499 0.07583159
0003f0 fc 46 c0 bd 54 8f ae bd 98 c4 90 3d b2 a9 52 3e
       -0.09388539 -0.085234314 0.07068747 0.20572546
