Model/20251129_164539_session.pth (torch, 562911 bytes, 12 tensors)

model.0.weight f4 [256, 8]
0.18319407 -0.17636357 -0.20897414 0.10889447 0.15285286 -0.15051845 -0.2811357 -0.06808001
-0.23506781 -0.1510148 0.043222517 0.08357948 0.24501935 0.23298457 -0.014224023 -0.06428015
-0.23394978 -0.15235837 -0.24790376 -0.0017693341 -0.13792829 0.2046319 -0.2557487 0.06999397
0.2546285 -0.14947595 -0.09388888 -0.15495478 -0.3124933 -0.22545786 -0.22916868 -0.13361861
0.33765247 0.14800575 0.2683333 0.21948853 0.08802733 0.09779298 -0.019437253 -0.34872016
-0.033670515 -0.2177219 0.22395715 -0.16242725 -0.12410493 -0.32193968 -0.29945862 -0.08187181
0.121141136 -0.16913049 -0.33927175 -0.31195992 0.30411568 -0.27826804 0.27522954 -0.31174794
-0.31069475 0.25104162 -0.19286478 0.2122725 -0.033156335 -0.10938658 -0.14798866 -0.111582845
0.25095078 -0.06714541 -0.29983905 0.04006788 0.21480665 -0.30043837 0.25449744 -0.30854815
-0.24870732 0.094127834 0.29522297 0.0006443858 0.13478431 0.03615412 -0.17921709 0.07285568
0.019746602 0.09340188 0.06888932 -0.16729218 0.1726307 0.17307946 -0.12696034 -0.13644077
0.24415526 -0.24199396 0.2963052 -0.11427115 0.29341015 0.15129825 -0.16708338 -0.05326903
-0.25726843 -0.3043769 -0.01243943 0.31198797 -0.18690845 0.016993225 -0.030909657 -0.008472562
0.06703493 -0.2892795 0.35120544 0.182201 -0.030733645 -0.22667894 -0.1799895 0.14207259
-0.25808477 -0.16236167 -0.26816565 -0.25596893 0.025603712 0.22279838 -0.3399498 -0.082987696
-0.0068826675 0.20813939 -0.019631296 0.32828888 -0.09872773 0.19968078 0.30486634 0.009904295
-0.14735958 0.28967485 0.032355636 0.2153357 0.3083823 -0.2558457 0.2075046 -0.16201846
0.15809968 0.25604972 0.14663455 -0.15991037 -0.19854133 -0.04579532 -0.35190073 0.30425707
0.12858886 -0.10648708 0.35152087 0.053598285 0.32738134 -0.31416714 0.058507502 -0.2169847
0.21256343 0.35270557 0.3189505 -0.28857842 0.3298895 0.02745369 0.2850516 0.029597193
-0.24859944 0.045963705 0.19676986 -0.30648306 0.0019147396 0.3178418 -0.07796076 0.28107247
0.06580758 0.29654297 -0.28839964 -0.27641648 -0.014709741 0.0411838 0.014489114 -0.062483877
-0.055850595 0.2722837 0.09603855 0.019896358 0.029138982 -0.33349013 0.086729616 -0.051064372
0.25142488 0.010307193 -0.27040094 0.26540855 -0.15410952 -0.1564118 -0.22262307 0.079221696
0.19968751 -0.18389446 0.12977925 0.22148749 0.25266013 0.10677293 0.16950521 0.069152385
-0.24281254 -0.0395948 0.19024274 -0.2601573 0.014909446 0.30705515 0.23351547 -0.16776447
-0.16132532 -0.15147969 0.28715214 -0.27051067 -0.051858574 -0.29607928 0.20657483 -0.17749175
0.05490631 0.07039076 -0.13445932 0.19368258 -0.30653492 -0.17458029 -0.06525728 -0.23107696
-0.23054123 0.016866535 -0.32693827 0.34868392 0.21770784 -0.3017616 -0.118126705 -0.26777613
-0.19488719 -0.21449736 0.16414699 -0.1080842 0.09928167 -0.14185335 -0.2083625 -0.2723431
0.13283813 -0.03129989 0.18698856 0.35120198 0.04776022 -0.09564558 0.24491987 -0.04533866
-0.19257249 0.28200093 0.12596232 -0.05911833 0.23358282 0.12654194 -0.05547604 0.24964908
00000000: 3a97 3b3e a798 34be 51fd 55be 1004 df3d
00000010: 7685 1c3e 8221 1abe 05f1 8fbe 886d 8bbd
00000020: 9eb5 70be a0a3 1abe 180a 313d b82b ab3d
00000030: 5ae6 7a3e 8293 6e3e e00b 69bc 50a5 83bd
00000040: 8890 6fbe d503 1cbe 7cda 7dbe 00e9 e7ba
00000050: 133d 0dbe 068b 513e 7ef1 82be 0059 8f3d
00000060: ab5e 823e 3910 19be d048 c0bd 77ac 1ebe
00000070: 1fff 9fbe 6dde 66be 32ab 6abe 51d3 08be
00000080: c9e0 ac3e d28e 173e fb62 893e 9ac1 603e
00000090: ac47 b43d b047 c83d e03a 9fbc 738b b2be
000000a0: 18ea 09bd 7df2 5ebe 0655 653e 5453 26be
000000b0: ba2a febd 47d5 a4be a452 99be 68ac a7bd
000000c0: d818 f83d 8b30 2dbe 07b5 adbe 36b9 9fbe
000000d0: 0db5 9b3e 2679 8ebe e3ea 8c3e 6d9d 9fbe
000000e0: 6213 9fbe 8788 803e 587e 45be f65d 593e
000000f0: f0ce 07bd 1206 e0bd 578a 17be 8c85 e4bd
00000100: 9f7c 803e 8883 89bd 8184 99be 381e 243d
00000110: 46f6 5b3e 0fd3 99be 7d4d 823e 06fa 9dbe
00000120: 22ad 7ebe 18c6 c03d 7727 973e 00ec 283a
00000130: e604 0a3e 5816 143d af84 37be 5c35 953d
00000140: a0c3 a13c 7c49 bf3d d815 8d3d a44e 2bbe
00000150: 1ac6 303e be3b 313e e401 02be 21b7 0bbe
00000160: d603 7a3e 44cd 77be 51b5 973e fe06 eabd
00000170: db39 963e eeed 1a3e e817 2bbe a030 5abd
00000180: b0b8 83be 4ad7 9bbe c0ce 4bbc e3bc 9f3e
00000190: ee64 3fbe 6035 8b3c 4036 fdbc 80d0 0abc
000001a0: 9c49 893d 711c 94be 33d1 b33e e692 3a3e
000001b0: 20c5 fbbc 861e 68be 2b4f 38be 7a7b 113e
000001c0: b023 84be 2342 26be 024d 89be 5c0e 83be
000001d0: e0be d13c 4225 643e e60d aebe 74f5 a9bd
000001e0: 0088 e1bb 7e22 553e d0d1 a0bc 7b15 a83e
000001f0: c431 cabd 1e79 4c3e 7117 9c3e a045 223c
00000200: 6ee5 16be 4350 943e 5887 043d f680 5c3e
00000210: 49e4 9d3e 35fe 82be 167c 543e 2be8 25be
00000220: e2e4 213e f318 833e 5e27 163e 8bbf 23be
00000230: 6b4e 4bbe e093 3bbd 552c b4be 95c7 9b3e
00000240: ccac 033e e615 dabd 8bfa b33e e089 5b3d
00000250: 879e a73e 84da a0be 90a5 6f3d 3d31 5ebe
00000260: 3aaa 593e d395 b43e 7b4d a33e 8dc0 93be
00000270: 47e7 a83e 90e6 e03c 49f2 913e d075 f23c
00000280: da90 7ebe 7044 3c3d 0a7e 493e 59eb 9cbe
00000290: 00f8 fa3a 29bc a23e e4a9 9fbd bbe8 8f3e
000002a0: 20c6 863d 7bd4 973e 1ea9 93be 7686 8dbe
000002b0: 2001 71bc 58b0 283d c063 6d3c 18ef 7fbd
000002c0: 98c3 64bd c568 8b3e dcaf c43d b0fd a23c
000002d0: e0b4 ee3c 38bf aabe 4c9f b13d e028 51bd
000002e0: c3ba 803e 80df 283c fe71 8abe a1e3 873e
000002f0: e3ce 1dbe 6a2a 20be 4df7 63be fc3e a23d
00000300: e27a 4c3e d44e 3cbe dae4 043e 9ecd 623e
00000310: ab5c 813e c4ab da3d c692 2d3e c49f 8d3d
00000320: daa3 78be 282e 22bd fece 423e 5633 85be
00000330: c046 743c 5536 9d3e ae1e 6f3e 73ca 2bbe
00000340: 7732 25be 7e1d 1bbe 9b05 933e 6080 8abe
00000350: a869 54bd b497 97be 5a88 533e 66c0 35be
00000360: 70e5 603d 0829 903d b4af 09be ba54 463e
00000370: 25f2 9cbe 2dc5 32be 9ca5 85bd 709f 6cbe
00000380: 0013 6cbe b02b 8a3c 7464 a7be b386 b23e
00000390: ceee 5e3e 7f80 9abe 6aec f1bd f419 89be
000003a0: 8290 47be 32a5 5bbe 2616 283e 405b ddbd
000003b0: 3054 cb3d 0142 11be fb5c 55be 8e70 8bbe
000003c0: b806 083e 5034 00bd ee79 3f3e bfd0 b33e
000003d0: 38a0 433d d4e1 c3bd 46cc 7a3e 08b5 39bd
000003e0: b931 45be 6d62 903e 44fc 003e 1026 72bd
000003f0: 5630 6f3e 3694 013e d83a 63bd 02a4 7f3e

model.0.bias f4 [256]
-0.10901214 0.18989554 0.028196573 0.35310516 0.31495824 0.0006659329 -0.3337606 0.11103308
0.07081932 0.104176134 0.11103457 0.3256112 -0.33552557 0.24843833 0.025305718 -0.07537028
-0.2064047 0.057411343 0.04176867 -0.15354408 -0.24414101 -0.025041252 -0.24858645 0.1129581
-0.036434293 -0.2508958 0.23158905 0.23798612 -0.0779663 0.25042984 0.2538099 -0.14243434
0.25809744 -0.13476677 -0.01683876 -0.2603255 -0.27288827 -0.2034981 0.044787437 0.20660207
0.3462744 0.3259608 -0.34619454 -0.13221082 -0.2804386 -0.14715563 -0.1387669 0.12249026
-0.16565591 0.039780676 -0.25250506 0.19685838 -0.08510995 -0.3488144 0.11551228 0.16956809
0.24792042 0.008150697 -0.14409232 -0.16321595 -0.101444095 0.10864943 -0.15788163 -0.0404931
0.19691262 -0.032569617 0.279727 -0.2519319 -0.13437004 0.07595566 -0.021079332 0.15237865
0.3090088 0.2580553 0.21321687 -0.10317662 0.29808578 0.04806316 0.19004986 0.20823488
-0.23976359 -0.33942017 -0.020097733 0.10531527 0.083423585 -0.12699676 -0.058123082 -0.29015094
0.24175563 0.2792534 0.29194424 0.15190318 0.23712048 -0.051395833 0.15061566 -0.20321149
0.18850175 -0.18590009 0.011011571 -0.22776406 0.16155782 0.1853064 0.07139334 -0.030640423
-0.26766074 -0.28796092 0.012505442 -0.15380262 -0.330619 -0.07009295 0.013312727 0.28149578
-0.08054352 0.2963775 0.26645628 0.3150138 0.025237292 -0.1967414 0.11436179 0.03837821
-0.097592115 0.22786102 -0.11548224 0.1448519 0.21487084 0.10479212 0.20158574 -0.3392568
-0.0625951 0.1293574 0.31747213 -0.11752075 0.26756516 0.1887159 0.1943402 0.0021810532
-0.09967232 -0.042737693 0.058688253 -0.15845968 -0.13185485 -0.06808019 0.06775153 -0.18658705
-0.08738893 -0.075734586 -0.007632464 0.17810008 0.11944568 0.15350434 0.21007165 -0.28469038
-0.12930818 0.08062914 0.120085776 0.3047156 0.022557974 -0.13851798 0.057777137 -0.17425601
-0.2600675 -0.15836395 -0.0048991144 0.23467758 -0.13268122 -0.058515728 -0.2702027 0.061128974
0.24981716 0.25946245 0.20120546 0.15142217 -0.04158473 0.16371349 0.3025492 0.0612019
0.278437 0.005461335 0.087192595 0.31085512 -0.21190913 -0.22716476 -0.3211188 0.06620973
0.095148414 -0.20051675 -0.27991337 0.29039893 -0.060388297 0.044683456 0.09768796 -0.32513398
-0.12102151 0.05524513 -0.04046735 0.2602907 0.109330356 -0.2933616 -0.101537585 0.3078284
0.13921806 -0.13260785 -0.024878442 -0.34591278 -0.2344979 -0.0017538667 0.043127745 -0.027915835
-0.20158184 0.18591449 0.12186015 0.17352983 0.26692078 -0.121466964 -0.012274295 0.1629
-0.056624174 0.07130787 0.11734006 0.23911718 -0.09803128 0.3146815 0.29441628 0.2133716
-0.25704035 -0.20389701 -0.20315088 -0.17398699 0.25729266 -0.171749 0.043424815 -0.07262847
-0.17865674 -0.15873413 -0.20115228 -0.21854636 0.19383582 0.16147694 0.17048958 0.21760091
-0.24110521 -0.34008864 0.28492972 0.10697195 0.22053751 0.059756696 -0.22692452 -0.15737613
0.018552959 0.3268899 0.07177803 -0.2725726 -0.25071 -0.22166018 0.2235597 0.16220781
00000000: c241 dfbd fa73 423e 80fc e63c 33ca b43e
00000010: 3542 a13e 0092 2e3a abe2 aabe 5065 e33d
00000020: b809 913d 4c5a d53d 1866 e33d 83b6 a63e
00000030: 02ca abbe 9e66 7e3e f04d cf3c bc5b 9abd
00000040: c15b 53be 2828 6b3d a015 2b3d a93a 1dbe
00000050: 1a00 7abe 5023 cdbc 728d 7ebe 9456 e73d
00000060: 203c 15bd 6a75 80be ae25 6d3e a2b2 733e
00000070: ccac 9fbd 5738 803e 5ff3 813e 4fda 11be
00000080: 5925 843e 4d00 0abe 70f1 89bc 6249 85be
00000090: 03b8 8bbe ce61 50be 0873 373d 7e8f 533e
000000a0: e14a b13e 55e4 a63e 6940 b1be 4662 07be
000000b0: a695 8fbe f7af 16be e918 0ebe 2cdc fa3d
000000c0: b4a1 29be 10f1 223d 5848 81be 3e95 493e
000000d0: 204e aebd cd97 b2be b491 ec3d 42a3 2d3e
000000e0: dade 7d3e 808a 053c f08c 13be 1522 27be
000000f0: ecc1 cfbd 9883 de3d b9ab 21be 18dc 25bd
00000100: 76a3 493e b867 05bd 6138 8f3e 38fd 80be
00000110: 4d98 09be a48e 9b3d 90ae acbc 2609 1c3e
00000120: 6736 9e3e d31f 843e 8655 5a3e 444e d3bd
00000130: b39e 983e e0dd 443d 6e9c 423e 863b 553e
00000140: 9684 75be 7bc8 adbe 00a4 a4bc 88af d73d
00000150: fcd9 aa3d 700b 02be 7812 6ebd aa8e 94be
00000160: ca8e 773e 4dfa 8e3e b779 953e 828c 1b3e
00000170: b6cf 723e 7084 52bd fe3a 1a3e ac16 50be
00000180: 9a06 413e 985c 3ebe e069 343c fb3a 69be
00000190: 6a6f 253e f6c0 3d3e ac36 923d a001 fbbc
000001a0: d40a 89be 9d6f 93be a0e3 4c3c 6f7e 1dbe
000001b0: e546 a9be e48c 8fbd a01d 5a3c 3720 903e
000001c0: 00f4 a4bd cbbe 973e f56c 883e 7d49 a13e
000001d0: 70be ce3c 9476 49be 8436 ea3d 7832 1d3d
000001e0: 60de c7bd 6654 693e f481 ecbd 0e54 143e
000001f0: 1a07 5c3e 409d d63d 7e6c 4e3e 11b3 adbe
00000200: dc31 80bd 4476 043e b58b a23e b8ae f0bd
00000210: 4dfe 883e be3e 413e 1e01 473e 00f0 0e3b
00000220: 0021 ccbd b80d 2fbd 1863 703d 4143 22be
00000230: f504 07be a06d 8bbd 50c1 8a3d ad10 3fbe
00000240: f8f8 b2bd bc1a 9bbd c019 fabb de5f 363e
00000250: f09f f43d 3e30 1d3e 061d 573e f0c2 91be
00000260: 5d69 04be e420 a53d 88ef f53d af03 9c3e
00000270: 80cb b83c a8d7 0dbe b8a7 6c3d 2b70 32be
00000280: 9127 85be 292a 22be c088 a0bb 524f 703e
00000290: 96dd 07be 30ae 6fbd 0258 8abe 6062 7a3d
000002a0: 12d0 7f3e 43d8 843e ce08 4e3e 6a0e 1b3e
000002b0: c054 2abd 82a4 273e bbe7 9a3e d8ae 7a3d
000002c0: 4b8f 8e3e 00f5 b23b 0892 b23d 6728 9f3e
000002d0: b5fe 58be e19d 68be af69 a4be f898 873d
000002e0: 2cdd c23d 4354 4dbe ce50 8fbe 2baf 943e
000002f0: b859 77bd 0006 373d a010 c83d f677 a6be
00000300: 20da f7bd b848 623d 18c1 25bd d344 853e
00000310: 98e8 df3d 7e33 96be f0f2 cfbd af9b 9d3e
00000320: 2e8f 0e3e 5aca 07be e0cd cbbc 7b1b b1be
00000330: 3820 70be 00e2 e5ba b8a6 303d c0af e4bc
00000340: 786b 4ebe 5e60 3e3e d091 f93d ceb1 313e
00000350: d7a9 883e acc3 f8bd 201a 49bc 42cf 263e
00000360: c0ee 67bd dc09 923d fc4f f03d 22db 743e
00000370: a0c4 c8bd ef1d a13e bbbd 963e 167e 5a3e
00000380: cb9a 83be 61ca 50be c906 50be a529 32be
00000390: ddbb 833e f8de 2fbe 38de 313d 3cbe 94bd
000003a0: cbf1 36be 338b 22be ddfa 4dbe 9eca 5fbe
000003b0: e67c 463e 365a 253e d294 2e3e c6d2 5e3e
000003c0: 49e4 76be 1920 aebe 4fe2 913e 1c14 db3d
000003d0: 96d4 613e 70c3 743d e75e 68be 3527 21be
000003e0: 60fc 973c 1d5e a73e 5c00 933d a38e 8bbe
000003f0: 105d 80be e3fa 62be d6ec 643e ce19 263e

model.2.weight f4 [256, 256]
-0.05733405 -0.06181758 -0.046899572 0.041246444 -0.00464423 0.05984278 0.057305455 0.025645517
0.031631663 -0.04354012 0.0075126216 0.05952829 -0.016119346 -0.00654947 0.058078736 0.015846707
0.05119109 0.0415345 -0.029470846 -0.02449783 0.004636243 0.04763384 0.009670064 -0.03345357
0.046837926 0.025763996 0.0058109015 -0.060321562 -0.02196186 0.057941444 -0.009419307 0.010863736
0.02838502 0.01834926 -0.057799295 -0.035569653 0.006269768 0.0033136383 -0.019888379 0.0032246858
0.02781795 -0.043960914 -0.0033514723 -0.054272823 0.05258514 0.03918028 0.050777808 -0.062075384
-0.060250215 -0.06012556 0.0615936 -0.042181507 0.013382137 -0.031172559 0.033456385 -0.047039464
0.0077142417 0.016982473 -0.025356293 -0.032032833 -0.017144695 0.007300943 0.0009734854 -0.0066200346
0.000251472 -0.035696693 0.007516898 -0.008933775 0.05984872 -0.028903604 -0.036331497 0.05644779
0.0542069 0.018939756 0.010332629 0.038655534 0.01395344 0.03759885 0.055195734 0.028013967
-0.025356762 -0.010591283 0.028824858 -0.0075157434 0.02211085 0.04799363 -0.039490573 0.059984088
0.060129598 -0.014781572 -0.060902156 0.04773564 0.048472434 0.031568468 -0.042625055 -0.029306106
0.011823617 -0.008148506 -0.0069441423 0.0012513399 0.036915764 -0.0033093318 0.029270478 -0.03316606
0.04361271 0.04367075 0.056394204 -0.0007729605 -0.026741028 0.038551867 -0.019605957 0.03447009
-0.020542786 0.039035708 0.008440509 0.034603216 -0.030352727 -0.006572731 0.016029589 0.0619893
-0.004906051 -0.0086732805 0.022485495 0.01524061 0.023106575 0.051238537 0.018291786 0.02311641
0.03024286 -0.007810034 -0.028993629 -0.0024089217 0.057016574 0.06218069 0.04799208 0.039241612
-0.03031665 0.05373939 -0.005579032 -0.0030312017 -0.035226725 0.0589661 -0.023392953 -0.031629838
0.0022740737 -0.03525979 -0.029534407 -0.004847862 -0.040653713 0.019860059 0.051804923 0.045829587
0.02009508 0.00017543137 0.04930465 0.053813785 0.056649983 -0.020990677 0.025376447 -0.020170666
-0.01857867 0.05476302 -0.04039324 0.043069854 -0.01193063 0.058264695 -0.010107949 -0.01701358
-0.0100815 -0.022822626 0.03710343 -0.027122132 -0.050204612 -0.00917843 -0.051870786 -0.0036082193
0.008685127 0.035418868 0.008958638 -0.027718343 -0.015132785 -0.060900502 0.023474745 -0.013648331
0.012547448 0.022438563 -0.04157769 0.058234267 -0.027788013 -0.024945557 0.04535596 0.015352108
0.051537864 0.05168148 -0.057808258 0.0149989575 0.04843139 0.01650896 0.04612936 -0.047284514
0.002591312 0.060883775 0.04383967 0.023190916 -0.03058438 -0.029250078 0.024353348 0.05645614
-0.018056482 0.05031784 -0.020113572 0.009567946 -0.05127722 0.054577693 -0.042371094 0.030446693
0.048287593 -0.05966281 0.031208359 0.04544109 0.039585896 -0.042138025 0.0007828772 -0.054896444
-0.046893716 -0.03326229 0.031938717 -0.031112172 -0.01726389 -0.059807256 -0.061506256 -0.023116998
0.013011828 -0.037538715 -0.019263722 0.036460645 -0.029131636 0.033423252 -0.004802875 -0.058272615
-0.016465269 -0.050385736 0.06028884 0.046533726 -0.026614621 -0.03470909 -0.061887145 -0.037516117
0.018042512 -0.021330468 0.002590999 0.057356857 -0.061617292 0.03892822 0.057722777 -0.045832247
00000000: 1cd7 6abd 6e34 7dbd c419 40bd 08f2 283d
00000010: a02e 98bb b41d 753d 20b9 6a3d 8c16 d23c
00000020: 3490 013d 2057 32bd 702c f63b f0d3 733d
00000030: b80c 84bc f09c d6bb f8e3 6d3d f4d0 813c
00000040: c0ad 513d 1420 2a3d d86c f1bc acaf c8bc
00000050: a0eb 973b b41b 433d 306f 1e3c 9c06 09bd
00000060: 20d9 3f3d 040f d33c 6069 be3b be13 77bd
00000070: 5ce9 b3bc 0254 6d3d 7053 1abc d0fd 313c
00000080: b487 e83c 3051 963c f4be 6cbd 7cb1 11bd
00000090: a072 cd3b a029 593b f4ec a2bc 4055 533b
000000a0: 78e2 e33c 5c10 34bd 60a4 5bbb 2e4d 5ebd
000000b0: 8463 573d 807b 203d 64fc 4f3d c242 7ebd
000000c0: eec8 76bd 3846 76bd 9249 7c3d 84c6 2cbd
000000d0: c040 5b3c 985d ffbc 9009 093d 74ac 40bd
000000e0: c0c7 fc3b d41e 8b3c 00b8 cfbc dc34 03bd
000000f0: 0873 8cbc c03c ef3b 8031 7f3a e0ec d8bb
00000100: 00d8 8339 b236 12bd 5050 f63b f85e 12bc
00000110: ee23 753d 40c7 ecbc 56d0 14bd cc35 673d
00000120: 0e08 5e3d 8c27 9b3c 304a 293c 4455 1e3d
00000130: f89c 643c 4001 1a3d ec14 623d 8c7d e53c
00000140: fcb8 cfbc 1087 2dbc 1c22 ec3c a046 f6bb
00000150: d021 b53c f894 443d dec0 21bd e0b1 753d
00000160: 744a 763d 682e 72bc 8a74 79bd 7286 433d
00000170: 088b 463d f04d 013d 9c97 2ebd 5c13 f0bc
00000180: d8b7 413c 5081 05bc b08b e3bb 0004 a43a
00000190: fc34 173d 60e1 58bb a4c8 ef3c 22d9 07bd
000001a0: 3ea3 323d 1ae0 323d 9cfd 663d 80a0 4aba
000001b0: 0010 dbbc 90e8 1d3d ac9c a0bc 8230 0d3d
000001c0: 5849 a8bc e8e3 1f3d 104a 0a3c 1abc 0d3d
000001d0: 48a6 f8bc 1060 d7bb 7c50 833c 7ee8 7d3d
000001e0: f0c2 a0bb 601a 0ebc 8033 b83c c0b3 793c
000001f0: 004a bd3c 80df 513d a8d8 953c a05e bd3c
00000200: e0bf f73c 50eb ffbb 0c84 edbc 00df 1dbb
00000210: 368a 693d 2eb1 7e3d 5893 443d d0bb 203d
00000220: a05a f8bc d61d 5c3d 50d0 b6bb 20a7 46bb
00000230: e649 10bd 7086 713d 94a2 bfbc 4a8e 01bd
00000240: a008 153b 926c 10bd 24f2 f1bc d0da 9ebb
00000250: 8284 26bd 90b1 a23c 6631 543d ceb7 3b3d
00000260: 709e a43c 00f4 3739 acf3 493d d86b 5c3d
00000270: d009 683d a4f4 abbc 44e2 cf3c f43c a5bc
00000280: 4c32 98bc 304f 603d 6273 25bd 046a 303d
00000290: b078 43bc f6a6 6e3d d09b 25bc 1060 8bbc
000002a0: e02c 25bc 84f6 babc c4f9 173d 3c2f debc
000002b0: 5aa3 4dbd 2061 16bc 7676 54bd e077 6cbb
000002c0: 104c 0e3c 6013 113d 40c7 123c 9411 e3bc
000002d0: 80ef 77bc ce72 79bd 1c4e c03c 409d 5fbc
000002e0: d093 4d3c 14d1 b73c 5e4d 2abd 0e87 6e3d
000002f0: b0a3 e3bc a05a ccbc 2cc7 393d 6887 7b3c
00000300: 5e19 533d f6af 533d 5ac8 6cbd 30be 753c
00000310: fe5f 463d cc3d 873c 24f2 3c3d 68ad 41bd
00000320: 00d3 293b 4461 793d 3a91 333d e0fa bd3c
00000330: 188c fabc dc9d efbc ac80 c73c 8e3e 673d
00000340: 30eb 93bc 141a 4e3d 38c5 a4bc e0c2 1c3c
00000350: 1008 52bd dc8c 5f3d 508d 2dbd 586b f93c
00000360: 36c9 453d fe60 74bd aca8 ff3c 7020 3a3d
00000370: d224 223d ec98 2cbd 003a 4d3a 18db 60bd
00000380: a013 40bd 0a3e 08bd 2cd2 023d f4de febc
00000390: 006d 8dbc 74f8 74bd fced 7bbd dc5f bdbc
000003a0: 902f 553c 32c2 19bd f4ce 9dbc c257 153d
000003b0: 78a5 eebc d2e6 083d 7061 9dbb 44af 6ebd
000003c0: 2ce2 86bc 4661 4ebd 6ef1 763d 269a 3e3d
000003d0: e806 dabc 1e2b 0ebd 607d 7dbd 80aa 19bd
000003e0: e4cd 933c 3cbd aebc c0cd 293b 06ef 6a3d
000003f0: 6a62 7cbd 3273 1f3d b86e 6c3d 98ba 3bbd

model.2.bias f4 [256]
0.0040961355 0.0062509477 0.045929052 -0.05901537 -0.017102867 0.015290879 -0.00032193214 -0.017142124
-0.05091116 0.058351927 0.038347043 0.045901857 0.009319127 -0.053760283 -0.017637208 0.053037822
-0.0036532208 -0.007948019 -0.012729354 -0.05583112 -0.061309606 0.03348369 0.058632754 -0.033987515
-0.03369368 -0.004001245 -0.040072322 0.06225477 -0.010377124 0.020000793 -0.0026444793 -0.007253997
-0.020207562 -0.019953355 -0.056341007 -0.051192023 0.023337297 0.041259848 0.030207999 0.009403244
-0.015101999 0.0036747456 0.05852677 -0.049092263 -0.029844426 -0.030018166 -0.00068291277 -0.049779236
-0.048800804 0.0064287484 0.027817711 0.0017427802 -0.047251828 0.01630073 -0.0011562034 -0.008121021
-0.016655803 -0.017377794 0.033466823 0.005663492 -0.05311338 -0.02561161 0.015817575 -0.028024651
-0.036183 -0.043621905 -0.05525495 -0.02566278 -0.005756773 -0.029574081 -0.0186176 0.047415145
-0.020732082 0.02010744 0.014976323 0.042645194 -0.031241432 -0.023549601 0.013463974 -0.0031953007
-0.050422005 0.015392266 -0.0077455267 0.009295665 0.015102744 -0.058402635 -0.032643564 -0.05343084
0.013945952 -0.032834902 -0.017971955 0.045486495 0.0078067333 -0.05450502 0.021050371 -0.052323498
0.028047316 0.019868128 -0.006519899 -0.04796861 -0.04280802 -0.032879554 0.03238307 0.039964907
-0.019904293 0.060500123 -0.00048340112 -0.008350924 -0.03893274 0.035408325 -0.041063204 -0.02688042
0.009075947 0.050009996 0.028686434 0.026236929 -0.037632823 -0.04590977 0.04755567 0.037312172
-0.05940538 0.044976883 -0.03321159 -0.061032847 -0.0030143932 -0.054681823 -0.0047342405 -0.021967866
0.0074368566 -0.030022353 0.048210837 -0.03915923 -0.061990917 -0.05560109 0.04662262 0.033176243
-0.015061744 0.029941596 0.057129957 -0.055120274 0.006770082 -0.0077127814 -0.059182167 0.021479033
-0.047384366 -0.031095356 0.0094509125 0.054648437 0.05139097 0.02596309 0.005037941 -0.028181523
-0.02967234 0.030856207 -0.0070289746 -0.037518814 -0.00990995 0.05218386 0.031104773 0.04248155
0.044795416 -0.052543834 0.06228239 0.04133352 0.0077432543 0.00886555 0.059711806 -0.03703229
-0.04972606 -0.05743079 -0.032578513 0.02391319 -0.0075281337 -0.01921776 0.05440311 -0.016150706
0.015423752 -0.047828086 -0.003894791 0.039679855 0.019358747 0.030982174 0.06085749 0.014436699
0.015511081 0.035943285 0.01714465 -0.011641264 0.041786373 -0.033547312 0.0520546 -0.006384
0.0104525015 0.016316436 0.043598697 0.02633971 -0.02836474 0.016133316 0.018926226 -0.034772992
-0.023539163 -0.022222564 0.02409961 -0.0538671 -0.008132957 0.004164681 0.010504648 0.042751506
0.044211306 -0.026548311 -0.06057416 -0.0086771175 0.034878224 0.0063421056 0.047339417 0.0009266585
0.05573543 0.040137105 0.014248602 -0.024371713 0.011661597 -0.060236894 0.01905442 -0.028899476
-0.037112914 -0.062290236 0.058201097 -0.021768868 -0.02101282 -0.0034152865 -0.048805386 0.0418446
0.014343232 0.04622963 0.044071436 -0.040039174 -0.055963397 -0.046985522 -0.045256816 0.051432326
0.025474727 -0.012766898 -0.05939451 0.01700271 0.0077698603 -0.05907333 -0.056082793 0.05813071
-0.03206721 0.015085682 -0.01874365 -0.03415215 0.061557055 -0.028704926 0.012620144 0.030921802
00000000: e038 863b c0d4 cc3b 1a20 3c3d 1aba 71bd
00000010: 501b 8cbc 9886 7a3c 00c9 a8b9 a46d 8cbc
00000020: 3888 50bd 6e02 6f3d ca11 1d3d 9603 3c3d
00000030: 40af 183c be33 5cbd e87b 90bc 303e 593d
00000040: e06a 6fbb 6838 02bc c88e 50bc 2caf 64bd
00000050: c81f 7bbd 3226 093d e628 703d 7e36 0bbd
00000060: 6202 0abd e01c 83bb e022 24bd dcfe 7e3d
00000070: d004 2abc b4d8 a33c 004f 2dbb f0b2 edbb
00000080: 548a a5bc 3875 a3bc d4c5 66bd baae 51bd
00000090: dc2d bf3c 1600 293d c476 f73c 1010 1a3c
000000a0: 606e 77bc 00d4 703b c4b9 6f3d f814 49bd
000000b0: 4c7c f4bc a8e8 f5bc 8005 33ba 50e5 4bbd
000000c0: 5ae3 47bd 40a8 d23b f8e1 e33c 006e e43a
000000d0: 228b 41bd 1c89 853c c08b 97ba 080e 05bc
000000e0: c071 88bc e05b 8ebc 8214 093d d094 b93b
000000f0: 6a8d 59bd 70cf d1bc dc93 813c f493 e5bc
00000100: a034 14bd e2ac 32bd 0453 62bd c03a d2bc
00000110: 50a3 bcbb 5845 f2bc f083 98bc 6236 423d
00000120: 54d6 a9bc 5cb8 a43c 405f 753c baac 2e3d
00000130: 08ee ffbc 18eb c0bc 0098 5c3c 4068 51bb
00000140: 4e87 4ebd d82f 7c3c 30ce fdbb d84c 183c
00000150: 8071 773c 9a37 6fbd 42b5 05bd 4cda 5abd
00000160: 907d 643c e47d 06bd ec39 93bc 0c50 3a3d
00000170: a0cf ff3b a840 5fbd d471 ac3c 2a51 56bd
00000180: 7cc3 e53c 7cc2 a23c e0a4 d5bb bc7a 44bd
00000190: 7657 2fbd b6ac 06bd 1ca4 043d 3eb2 233d
000001a0: 540e a3bc face 773d 0071 fdb9 50d2 08bc
000001b0: f077 1fbd 5208 113d e431 28bd 5434 dcbc
000001c0: 48b3 143c 48d7 4c3d d0ff ea3c d4ee d63c
000001d0: e024 1abd e20b 3cbd bcc9 423d a6d4 183d
000001e0: 0e53 73bd ae39 383d e008 08bd 94fd 79bd
000001f0: 208d 45bb 0cfa 5fbd b021 9bbb f4f5 b3bc
00000200: e0b0 f33b 70f1 f5bc ba78 453d 6e65 20bd
00000210: 30ea 7dbd f8bd 63bd 5cf7 3e3d d0e3 073d
00000220: 88c5 76bc 1448 f53c 1a01 6a3d ccc5 61bd
00000230: 90d7 dd3b 80bb fcbb 0069 72bd ccf4 af3c
00000240: 1c16 42bd b0bb febc 00d8 1a3c 0ad7 5f3d
00000250: 567f 523d 8cb0 d43c 5015 a53b f0dc e6bc
00000260: 6813 f3bc 28c6 fc3c 5053 e6bb 54ad 19bd
00000270: 585d 22bc bebe 553d 70cf fe3c 2201 2e3d
00000280: 667b 373d 3438 57bd d21b 7f3d 564d 293d
00000290: 20bb fd3b d040 113c 5e94 743d 2caf 17bd
000002a0: 8ead 4bbd 8c3c 6bbd 0c71 05bd 98e5 c33c
000002b0: 90ae f6bb 906e 9dbc ccd5 5e3d 7c4e 84bc
000002c0: e8b3 7c3c 62e7 43bd c03f 7fbb 5887 223d
000002d0: 3c96 9e3c 54ce fd3c b445 793d e887 6c3c
000002e0: 3022 7e3c 4439 133d f072 8c3c 00bb 3ebc
000002f0: 3028 2b3d e868 09bd 3437 553d e030 d1bb
00000300: f840 2b3c 0caa 853c 8c94 323d 60c6 d73c
00000310: 2c5d e8bc 042a 843c 2c0b 9b3c 206e 0ebd
00000320: 34d5 c0bc 180c b6bc 8c6c c53c c0a3 5cbd
00000330: 1840 05bc e077 883b b01b 2c3c 341c 2f3d
00000340: ea16 353d d87b d9bc 9c1c 78bd 782a 0ebc
00000350: 78dc 0e3d 70d1 cf3b fae6 413d 00eb 723a
00000360: d64a 643d ce66 243d f872 693c 30a7 c7bc
00000370: 4810 3f3c f6ba 76bd 0418 9c3c 98be ecbc
00000380: b603 18bd 0c24 7fbd 4664 6e3d a054 b2bc
00000390: 1423 acbc 00d3 5fbb 28e8 47bd 3e65 2b3d
000003a0: e0ff 6a3c 485b 3d3d 4084 343d 1e00 24bd
000003b0: e039 65bd e473 40bd 365f 39bd b4aa 523d
000003c0: 60b0 d03c 402c 51bc a847 73bd 4449 8b3c
000003d0: 509a fe3b e0f6 71bd 12b7 65bd 781a 6e3d
000003e0: e858 03bd f029 773c 488c 99bc 20e3 0bbd
000003f0: 4023 7c3d 9826 ebbc b8c4 4e3c b84f fd3c

model.4.weight f4 [6, 256]
-0.016989492 -0.050868228 0.04047136 -0.012059443 -0.04593399 -0.0022067726 0.047171906 0.0027056932
0.057207286 -0.009482168 -0.046930023 -0.030465163 -0.01569707 0.004280694 0.034293115 -0.023890078
0.01388786 0.06126187 0.015316725 0.048845373 -0.026264824 -0.018489659 -0.059443973 -0.006133102
-0.018258154 -0.048234984 -0.030972384 0.010253057 -0.037536584 -0.045564324 0.007368639 0.049638562
-0.044393823 -0.028418623 -0.023800023 -0.046255127 -0.0029606074 -0.033643343 0.02621968 0.030920811
0.0030092224 -0.030484602 -0.014924772 0.018540733 0.05342304 -0.040168457 0.050659813 0.05970636
0.025045656 -0.03373211 0.039005592 0.027465552 -0.039846458 -0.04257348 -0.03344977 0.04842653
-0.016819715 0.029564142 -0.018821865 0.04971511 -0.0039183795 0.005772248 -0.053535394 -0.011663586
0.047778815 0.058412552 0.060458988 0.023192883 0.05366306 -0.0036673993 -0.02170407 -0.04076557
-0.02913683 -0.014538661 0.050278895 -0.027570285 -0.03172025 -0.050110526 -0.03310307 0.03797804
0.011200637 -0.016975015 0.022884905 -0.0022068396 0.044379115 0.049395412 -0.05544609 0.048128873
-0.0038901865 -0.055048108 -0.060475342 0.032277398 0.04497558 -0.044291377 0.019522876 -0.04140205
0.00022102147 0.01168707 0.055634856 -0.02396825 0.0249421 -0.020457044 -0.032068975 -0.02754911
0.0462026 -0.013639413 -0.015356481 0.045681 -0.042983085 0.030575156 0.012312055 -0.020447858
-0.06174113 -0.058860272 0.041127846 -0.013761573 -0.02066829 0.03154383 0.037094608 0.05995941
0.014128409 -0.03190329 -0.040869206 -0.04334016 -0.06147851 0.049855016 0.041397467 0.032806836
-0.04329753 0.028541133 -0.010977536 0.0241424 -0.01088158 -0.052045576 -0.020130724 -0.05173149
-0.023401 0.03686502 -0.0039186254 -0.021330468 0.020080663 -0.011520192 -0.046994813 -0.035519063
-0.021263316 0.010153778 -0.047787197 0.030829951 0.012468882 -0.027358562 -0.011774875 -0.047723375
0.05300848 0.024001382 0.019076563 -0.05111538 0.0009434968 0.056621097 -0.05600006 0.06068986
-0.05969464 0.043995544 -0.007530324 -0.036281265 -0.041364983 0.02708906 -0.0072265267 0.029070035
-0.030077666 -0.010873213 -0.015520267 0.056806482 0.02679725 0.046408616 -0.05410596 -0.061915524
0.005932711 -0.025553592 -0.02809912 -0.012754761 0.059650965 -0.012344301 0.019763656 0.037261933
0.05732868 -0.011710085 0.030289955 0.014826469 -0.04857803 0.021878116 -0.030956194 0.04954575
0.0039297193 0.020934157 -0.041190304 0.03802815 -0.024426728 0.027897336 0.012236863 0.0027759522
-0.0540116 0.0010218844 -0.007869557 0.029974371 -0.010943085 0.01034613 0.022617377 0.04262434
0.04455296 0.014131628 0.040196754 0.02570562 0.0056764632 -0.0332134 0.03642051 0.049110033
-0.051646426 0.047492668 0.011423714 0.022093467 0.035153255 0.015020952 0.030728303 -0.05102689
-0.057950824 -0.04761111 0.061148547 -0.036068693 0.0446715 -0.059942372 -0.060414083 -0.0021658912
-0.033886537 -0.058713004 0.017721511 0.045389675 -0.015578955 -0.02789265 -0.0009390414 0.05272027
0.052072056 -0.0015419126 0.061756633 -0.01837182 -0.008249916 0.014257304 -0.03251022 0.018666893
-0.032831587 -0.031740934 0.035473898 0.05642519 -0.059163183 0.058284298 -0.010867506 0.03365294
00000000: 8c2d 8bbc 345b 50bd 4cc5 253d f894 45bc
00000010: 4825 3cbd 809f 10bb 5437 413d 0052 313b
00000020: 3052 6a3d 185b 1bbc b239 40bd 1492 f9bc
00000030: 2497 80bc 1045 8c3b f076 0c3d 20b5 c3bc
00000040: e889 633c baed 7a3d 00f3 7a3c 1612 483d
00000050: 5429 d7bc a077 97bc 867b 73bd 30f8 c8bb
00000060: 2092 95bc 0c92 45bd ccb9 fdbc 70fc 273c
00000070: f6bf 19bd a8a1 3abd a074 f13b ce51 4b3d
00000080: 4cd6 35bd 2cce e8bc 44f8 c2bc 0476 3dbd
00000090: c006 42bb 9acd 09bd a8ca d63c a44d fd3c
000000a0: 6036 453b d8ba f9bc 0887 74bc bce2 973c
000000b0: 1ed2 5a3d ae87 24bd aa80 4f3d a88e 743d
000000c0: 8c2c cd3c ae2a 0abd 54c4 1f3d 70ff e03c
000000d0: 0a36 23bd 8861 2ebd a002 09bd e65a 463d
000000e0: 80c9 89bc 8030 f23c 5030 9abc 12a2 4b3d
000000f0: c065 80bb 2025 bd3b ee47 5bbd a018 3fbc
00000100: b8b3 433d 0042 6f3d d8a3 773d 00ff bd3c
00000110: cccd 5b3d c058 70bb bccc b1bc ccf9 26bd
00000120: 5cb0 eebc 9033 6ebc 3ef1 4d3d 14db e1bc
00000130: 18ed 01bd b240 4dbd 1697 07bd dc8e 1b3d
00000140: e082 373c 300f 8bbc 2079 bb3c a0a0 10bb
00000150: e0c6 353d d852 4a3d 701b 63bd c822 453d
00000160: 80f2 7ebb 207a 61bd feb4 77bd 4e35 043d
00000170: 5038 383d e06a 35bd 70ee 9f3c 3295 29bd
00000180: 00c2 6739 207b 3f3c 60e1 633d 1059 c4bc
00000190: 6053 cc3c 8895 a7bc c25a 03bd acae e1bc
000001a0: f03e 3d3d d877 5fbc c099 7bbc 001c 3b3d
000001b0: 080f 30bd c078 fa3c 80b8 493c 4482 a7bc
000001c0: 44e4 7cbd 7817 71bd ac75 283d 3878 61bc
000001d0: 8c50 a9bc 1a34 013d 84f0 173d 0098 753d
000001e0: d87a 673c 06ad 02bd 7866 27bd 7485 31bd
000001f0: e4d0 7bbd c634 4c3d 6490 293d 7660 063d
00000200: c058 31bd 18cf e93c 20db 33bc 48c6 c53c
00000210: a848 32bc be2d 55bd 30e9 a4bc 66e4 53bd
00000220: 74b3 bfbc c6ff 163d d067 80bb 3cbd aebc
00000230: 3480 a43c 30bf 3cbc a27d 40bd 707c 11bd
00000240: 6830 aebc 085c 263c 82bc 43bd 188f fc3c
00000250: 484a 4c3c 101f e0bc 68eb 40bc 9679 43bd
00000260: 6c1f 593d 8c9e c43c 7446 9c3c 5c5e 51bd
00000270: 0055 773a 86eb 673d 5260 65bd ee95 783d
00000280: 5e82 74bd ac34 343d f0c0 f6bb aa9b 14bd
00000290: 546e 29bd e0e9 dd3c 80cc ecbb 4824 ee3c
000002a0: 7065 f6bc 9025 32bc b848 7ebc eaad 683d
000002b0: e885 db3c f616 3e3d 369e 5dbd 229b 7dbd
000002c0: 3067 c23b c455 d1bc 2030 e6bc 58f9 50bc
000002d0: 9254 743d c03f 4abc 64e7 a13c f89f 183d
000002e0: 7ad1 6a3d a8db 3fbc a422 f83c b8ea 723c
000002f0: c2f9 46bd bc39 b33c d897 fdbc 7cf0 4a3d
00000300: e0c4 803b 1c7e ab3c 2ab7 28bd 68c3 1b3d
00000310: 901a c8bc f488 e43c 207d 483c c0ec 353b
00000320: 443b 5dbd c0f0 853a 50ef 00bc d08c f53c
00000330: a04a 33bc d082 293c 1448 b93c dc96 2e3d
00000340: 2a7d 363d 5888 673c 5aa5 243d 9894 d23c
00000350: a001 ba3b c60a 08bd ac2d 153d 9a27 493d
00000360: 348b 53bd ac87 423d 882a 3b3c 5cfd b43c
00000370: dcfc 0f3d 701a 763c ecb9 fb3c 9201 51bd
00000380: d85d 6dbd de03 43bd e676 7a3d c4bc 13bd
00000390: 76f9 363d 2286 75bd c274 77bd a0f1 0dbb
000003a0: 9ccc 0abd 0c7d 70bd b42c 913c 86ea 393d
000003b0: e03e 7fbc 207f e4bc 002a 76ba 36f1 573d
000003c0: 8249 553d 001a caba 86f4 7c3d 8080 96bc
000003d0: a82a 07bc 7897 693c 7029 05bd 50eb 983c
000003e0: 6a7a 06bd c802 02bd 144d 113d 1a1e 673d
000003f0: 1855 72bd 84bb 6e3d a00d 32bc aad7 093d

model.4.bias f4 [6]
-0.02703289 0.03126496 -0.052170105 -0.053270318 -0.013160907 -0.044609785
00000000: 1474 ddbc b00f 003d 52b0 55bd fa31 5abd
00000010: d8a0 57bc c0b8 36bd

model.0.weight f4 [256, 8]
0.18319407 -0.17636357 -0.20897414 0.10889447 0.15285286 -0.15051845 -0.2811357 -0.06808001
-0.23506781 -0.1510148 0.043222517 0.08357948 0.24501935 0.23298457 -0.014224023 -0.06428015
-0.23394978 -0.15235837 -0.24790376 -0.0017693341 -0.13792829 0.2046319 -0.2557487 0.06999397
0.2546285 -0.14947595 -0.09388888 -0.15495478 -0.3124933 -0.22545786 -0.22916868 -0.13361861
0.33765247 0.14800575 0.2683333 0.21948853 0.08802733 0.09779298 -0.019437253 -0.34872016
-0.033670515 -0.2177219 0.22395715 -0.16242725 -0.12410493 -0.32193968 -0.29945862 -0.08187181
0.121141136 -0.16913049 -0.33927175 -0.31195992 0.30411568 -0.27826804 0.27522954 -0.31174794
-0.31069475 0.25104162 -0.19286478 0.2122725 -0.033156335 -0.10938658 -0.14798866 -0.111582845
0.25095078 -0.06714541 -0.29983905 0.04006788 0.21480665 -0.30043837 0.25449744 -0.30854815
-0.24870732 0.094127834 0.29522297 0.0006443858 0.13478431 0.03615412 -0.17921709 0.07285568
0.019746602 0.09340188 0.06888932 -0.16729218 0.1726307 0.17307946 -0.12696034 -0.13644077
0.24415526 -0.24199396 0.2963052 -0.11427115 0.29341015 0.15129825 -0.16708338 -0.05326903
-0.25726843 -0.3043769 -0.01243943 0.31198797 -0.18690845 0.016993225 -0.030909657 -0.008472562
0.06703493 -0.2892795 0.35120544 0.182201 -0.030733645 -0.22667894 -0.1799895 0.14207259
-0.25808477 -0.16236167 -0.26816565 -0.25596893 0.025603712 0.22279838 -0.3399498 -0.082987696
-0.0068826675 0.20813939 -0.019631296 0.32828888 -0.09872773 0.19968078 0.30486634 0.009904295
-0.14735958 0.28967485 0.032355636 0.2153357 0.3083823 -0.2558457 0.2075046 -0.16201846
0.15809968 0.25604972 0.14663455 -0.15991037 -0.19854133 -0.04579532 -0.35190073 0.30425707
0.12858886 -0.10648708 0.35152087 0.053598285 0.32738134 -0.31416714 0.058507502 -0.2169847
0.21256343 0.35270557 0.3189505 -0.28857842 0.3298895 0.02745369 0.2850516 0.029597193
-0.24859944 0.045963705 0.19676986 -0.30648306 0.0019147396 0.3178418 -0.07796076 0.28107247
0.06580758 0.29654297 -0.28839964 -0.27641648 -0.014709741 0.0411838 0.014489114 -0.062483877
-0.055850595 0.2722837 0.09603855 0.019896358 0.029138982 -0.33349013 0.086729616 -0.051064372
0.25142488 0.010307193 -0.27040094 0.26540855 -0.15410952 -0.1564118 -0.22262307 0.079221696
0.19968751 -0.18389446 0.12977925 0.22148749 0.25266013 0.10677293 0.16950521 0.069152385
-0.24281254 -0.0395948 0.19024274 -0.2601573 0.014909446 0.30705515 0.23351547 -0.16776447
-0.16132532 -0.15147969 0.28715214 -0.27051067 -0.051858574 -0.29607928 0.20657483 -0.17749175
0.05490631 0.07039076 -0.13445932 0.19368258 -0.30653492 -0.17458029 -0.06525728 -0.23107696
-0.23054123 0.016866535 -0.32693827 0.34868392 0.21770784 -0.3017616 -0.118126705 -0.26777613
-0.19488719 -0.21449736 0.16414699 -0.1080842 0.09928167 -0.14185335 -0.2083625 -0.2723431
0.13283813 -0.03129989 0.18698856 0.35120198 0.04776022 -0.09564558 0.24491987 -0.04533866
-0.19257249 0.28200093 0.12596232 -0.05911833 0.23358282 0.12654194 -0.05547604 0.24964908
00000000: 3a97 3b3e a798 34be 51fd 55be 1004 df3d
00000010: 7685 1c3e 8221 1abe 05f1 8fbe 886d 8bbd
00000020: 9eb5 70be a0a3 1abe 180a 313d b82b ab3d
00000030: 5ae6 7a3e 8293 6e3e e00b 69bc 50a5 83bd
00000040: 8890 6fbe d503 1cbe 7cda 7dbe 00e9 e7ba
00000050: 133d 0dbe 068b 513e 7ef1 82be 0059 8f3d
00000060: ab5e 823e 3910 19be d048 c0bd 77ac 1ebe
00000070: 1fff 9fbe 6dde 66be 32ab 6abe 51d3 08be
00000080: c9e0 ac3e d28e 173e fb62 893e 9ac1 603e
00000090: ac47 b43d b047 c83d e03a 9fbc 738b b2be
000000a0: 18ea 09bd 7df2 5ebe 0655 653e 5453 26be
000000b0: ba2a febd 47d5 a4be a452 99be 68ac a7bd
000000c0: d818 f83d 8b30 2dbe 07b5 adbe 36b9 9fbe
000000d0: 0db5 9b3e 2679 8ebe e3ea 8c3e 6d9d 9fbe
000000e0: 6213 9fbe 8788 803e 587e 45be f65d 593e
000000f0: f0ce 07bd 1206 e0bd 578a 17be 8c85 e4bd
00000100: 9f7c 803e 8883 89bd 8184 99be 381e 243d
00000110: 46f6 5b3e 0fd3 99be 7d4d 823e 06fa 9dbe
00000120: 22ad 7ebe 18c6 c03d 7727 973e 00ec 283a
00000130: e604 0a3e 5816 143d af84 37be 5c35 953d
00000140: a0c3 a13c 7c49 bf3d d815 8d3d a44e 2bbe
00000150: 1ac6 303e be3b 313e e401 02be 21b7 0bbe
00000160: d603 7a3e 44cd 77be 51b5 973e fe06 eabd
00000170: db39 963e eeed 1a3e e817 2bbe a030 5abd
00000180: b0b8 83be 4ad7 9bbe c0ce 4bbc e3bc 9f3e
00000190: ee64 3fbe 6035 8b3c 4036 fdbc 80d0 0abc
000001a0: 9c49 893d 711c 94be 33d1 b33e e692 3a3e
000001b0: 20c5 fbbc 861e 68be 2b4f 38be 7a7b 113e
000001c0: b023 84be 2342 26be 024d 89be 5c0e 83be
000001d0: e0be d13c 4225 643e e60d aebe 74f5 a9bd
000001e0: 0088 e1bb 7e22 553e d0d1 a0bc 7b15 a83e
000001f0: c431 cabd 1e79 4c3e 7117 9c3e a045 223c
00000200: 6ee5 16be 4350 943e 5887 043d f680 5c3e
00000210: 49e4 9d3e 35fe 82be 167c 543e 2be8 25be
00000220: e2e4 213e f318 833e 5e27 163e 8bbf 23be
00000230: 6b4e 4bbe e093 3bbd 552c b4be 95c7 9b3e
00000240: ccac 033e e615 dabd 8bfa b33e e089 5b3d
00000250: 879e a73e 84da a0be 90a5 6f3d 3d31 5ebe
00000260: 3aaa 593e d395 b43e 7b4d a33e 8dc0 93be
00000270: 47e7 a83e 90e6 e03c 49f2 913e d075 f23c
00000280: da90 7ebe 7044 3c3d 0a7e 493e 59eb 9cbe
00000290: 00f8 fa3a 29bc a23e e4a9 9fbd bbe8 8f3e
000002a0: 20c6 863d 7bd4 973e 1ea9 93be 7686 8dbe
000002b0: 2001 71bc 58b0 283d c063 6d3c 18ef 7fbd
000002c0: 98c3 64bd c568 8b3e dcaf c43d b0fd a23c
000002d0: e0b4 ee3c 38bf aabe 4c9f b13d e028 51bd
000002e0: c3ba 803e 80df 283c fe71 8abe a1e3 873e
000002f0: e3ce 1dbe 6a2a 20be 4df7 63be fc3e a23d
00000300: e27a 4c3e d44e 3cbe dae4 043e 9ecd 623e
00000310: ab5c 813e c4ab da3d c692 2d3e c49f 8d3d
00000320: daa3 78be 282e 22bd fece 423e 5633 85be
00000330: c046 743c 5536 9d3e ae1e 6f3e 73ca 2bbe
00000340: 7732 25be 7e1d 1bbe 9b05 933e 6080 8abe
00000350: a869 54bd b497 97be 5a88 533e 66c0 35be
00000360: 70e5 603d 0829 903d b4af 09be ba54 463e
00000370: 25f2 9cbe 2dc5 32be 9ca5 85bd 709f 6cbe
00000380: 0013 6cbe b02b 8a3c 7464 a7be b386 b23e
00000390: ceee 5e3e 7f80 9abe 6aec f1bd f419 89be
000003a0: 8290 47be 32a5 5bbe 2616 283e 405b ddbd
000003b0: 3054 cb3d 0142 11be fb5c 55be 8e70 8bbe
000003c0: b806 083e 5034 00bd ee79 3f3e bfd0 b33e
000003d0: 38a0 433d d4e1 c3bd 46cc 7a3e 08b5 39bd
000003e0: b931 45be 6d62 903e 44fc 003e 1026 72bd
000003f0: 5630 6f3e 3694 013e d83a 63bd 02a4 7f3e

model.0.bias f4 [256]
-0.10901214 0.18989554 0.028196573 0.35310516 0.31495824 0.0006659329 -0.3337606 0.11103308
0.07081932 0.104176134 0.11103457 0.3256112 -0.33552557 0.24843833 0.025305718 -0.07537028
-0.2064047 0.057411343 0.04176867 -0.15354408 -0.24414101 -0.025041252 -0.24858645 0.1129581
-0.036434293 -0.2508958 0.23158905 0.23798612 -0.0779663 0.25042984 0.2538099 -0.14243434
0.25809744 -0.13476677 -0.01683876 -0.2603255 -0.27288827 -0.2034981 0.044787437 0.20660207
0.3462744 0.3259608 -0.34619454 -0.13221082 -0.2804386 -0.14715563 -0.1387669 0.12249026
-0.16565591 0.039780676 -0.25250506 0.19685838 -0.08510995 -0.3488144 0.11551228 0.16956809
0.24792042 0.008150697 -0.14409232 -0.16321595 -0.101444095 0.10864943 -0.15788163 -0.0404931
0.19691262 -0.032569617 0.279727 -0.2519319 -0.13437004 0.07595566 -0.021079332 0.15237865
0.3090088 0.2580553 0.21321687 -0.10317662 0.29808578 0.04806316 0.19004986 0.20823488
-0.23976359 -0.33942017 -0.020097733 0.10531527 0.083423585 -0.12699676 -0.058123082 -0.29015094
0.24175563 0.2792534 0.29194424 0.15190318 0.23712048 -0.051395833 0.15061566 -0.20321149
0.18850175 -0.18590009 0.011011571 -0.22776406 0.16155782 0.1853064 0.07139334 -0.030640423
-0.26766074 -0.28796092 0.012505442 -0.15380262 -0.330619 -0.07009295 0.013312727 0.28149578
-0.08054352 0.2963775 0.26645628 0.3150138 0.025237292 -0.1967414 0.11436179 0.03837821
-0.097592115 0.22786102 -0.11548224 0.1448519 0.21487084 0.10479212 0.20158574 -0.3392568
-0.0625951 0.1293574 0.31747213 -0.11752075 0.26756516 0.1887159 0.1943402 0.0021810532
-0.09967232 -0.042737693 0.058688253 -0.15845968 -0.13185485 -0.06808019 0.06775153 -0.18658705
-0.08738893 -0.075734586 -0.007632464 0.17810008 0.11944568 0.15350434 0.21007165 -0.28469038
-0.12930818 0.08062914 0.120085776 0.3047156 0.022557974 -0.13851798 0.057777137 -0.17425601
-0.2600675 -0.15836395 -0.0048991144 0.23467758 -0.13268122 -0.058515728 -0.2702027 0.061128974
0.24981716 0.25946245 0.20120546 0.15142217 -0.04158473 0.16371349 0.3025492 0.0612019
0.278437 0.005461335 0.087192595 0.31085512 -0.21190913 -0.22716476 -0.3211188 0.06620973
0.095148414 -0.20051675 -0.27991337 0.29039893 -0.060388297 0.044683456 0.09768796 -0.32513398
-0.12102151 0.05524513 -0.04046735 0.2602907 0.109330356 -0.2933616 -0.101537585 0.3078284
0.13921806 -0.13260785 -0.024878442 -0.34591278 -0.2344979 -0.0017538667 0.043127745 -0.027915835
-0.20158184 0.18591449 0.12186015 0.17352983 0.26692078 -0.121466964 -0.012274295 0.1629
-0.056624174 0.07130787 0.11734006 0.23911718 -0.09803128 0.3146815 0.29441628 0.2133716
-0.25704035 -0.20389701 -0.20315088 -0.17398699 0.25729266 -0.171749 0.043424815 -0.07262847
-0.17865674 -0.15873413 -0.20115228 -0.21854636 0.19383582 0.16147694 0.17048958 0.21760091
-0.24110521 -0.34008864 0.28492972 0.10697195 0.22053751 0.059756696 -0.22692452 -0.15737613
0.018552959 0.3268899 0.07177803 -0.2725726 -0.25071 -0.22166018 0.2235597 0.16220781
00000000: c241 dfbd fa73 423e 80fc e63c 33ca b43e
00000010: 3542 a13e 0092 2e3a abe2 aabe 5065 e33d
00000020: b809 913d 4c5a d53d 1866 e33d 83b6 a63e
00000030: 02ca abbe 9e66 7e3e f04d cf3c bc5b 9abd
00000040: c15b 53be 2828 6b3d a015 2b3d a93a 1dbe
00000050: 1a00 7abe 5023 cdbc 728d 7ebe 9456 e73d
00000060: 203c 15bd 6a75 80be ae25 6d3e a2b2 733e
00000070: ccac 9fbd 5738 803e 5ff3 813e 4fda 11be
00000080: 5925 843e 4d00 0abe 70f1 89bc 6249 85be
00000090: 03b8 8bbe ce61 50be 0873 373d 7e8f 533e
000000a0: e14a b13e 55e4 a63e 6940 b1be 4662 07be
000000b0: a695 8fbe f7af 16be e918 0ebe 2cdc fa3d
000000c0: b4a1 29be 10f1 223d 5848 81be 3e95 493e
000000d0: 204e aebd cd97 b2be b491 ec3d 42a3 2d3e
000000e0: dade 7d3e 808a 053c f08c 13be 1522 27be
000000f0: ecc1 cfbd 9883 de3d b9ab 21be 18dc 25bd
00000100: 76a3 493e b867 05bd 6138 8f3e 38fd 80be
00000110: 4d98 09be a48e 9b3d 90ae acbc 2609 1c3e
00000120: 6736 9e3e d31f 843e 8655 5a3e 444e d3bd
00000130: b39e 983e e0dd 443d 6e9c 423e 863b 553e
00000140: 9684 75be 7bc8 adbe 00a4 a4bc 88af d73d
00000150: fcd9 aa3d 700b 02be 7812 6ebd aa8e 94be
00000160: ca8e 773e 4dfa 8e3e b779 953e 828c 1b3e
00000170: b6cf 723e 7084 52bd fe3a 1a3e ac16 50be
00000180: 9a06 413e 985c 3ebe e069 343c fb3a 69be
00000190: 6a6f 253e f6c0 3d3e ac36 923d a001 fbbc
000001a0: d40a 89be 9d6f 93be a0e3 4c3c 6f7e 1dbe
000001b0: e546 a9be e48c 8fbd a01d 5a3c 3720 903e
000001c0: 00f4 a4bd cbbe 973e f56c 883e 7d49 a13e
000001d0: 70be ce3c 9476 49be 8436 ea3d 7832 1d3d
000001e0: 60de c7bd 6654 693e f481 ecbd 0e54 143e
000001f0: 1a07 5c3e 409d d63d 7e6c 4e3e 11b3 adbe
00000200: dc31 80bd 4476 043e b58b a23e b8ae f0bd
00000210: 4dfe 883e be3e 413e 1e01 473e 00f0 0e3b
00000220: 0021 ccbd b80d 2fbd 1863 703d 4143 22be
00000230: f504 07be a06d 8bbd 50c1 8a3d ad10 3fbe
00000240: f8f8 b2bd bc1a 9bbd c019 fabb de5f 363e
00000250: f09f f43d 3e30 1d3e 061d 573e f0c2 91be
00000260: 5d69 04be e420 a53d 88ef f53d af03 9c3e
00000270: 80cb b83c a8d7 0dbe b8a7 6c3d 2b70 32be
00000280: 9127 85be 292a 22be c088 a0bb 524f 703e
00000290: 96dd 07be 30ae 6fbd 0258 8abe 6062 7a3d
000002a0: 12d0 7f3e 43d8 843e ce08 4e3e 6a0e 1b3e
000002b0: c054 2abd 82a4 273e bbe7 9a3e d8ae 7a3d
000002c0: 4b8f 8e3e 00f5 b23b 0892 b23d 6728 9f3e
000002d0: b5fe 58be e19d 68be af69 a4be f898 873d
000002e0: 2cdd c23d 4354 4dbe ce50 8fbe 2baf 943e
000002f0: b859 77bd 0006 373d a010 c83d f677 a6be
00000300: 20da f7bd b848 623d 18c1 25bd d344 853e
00000310: 98e8 df3d 7e33 96be f0f2 cfbd af9b 9d3e
00000320: 2e8f 0e3e 5aca 07be e0cd cbbc 7b1b b1be
00000330: 3820 70be 00e2 e5ba b8a6 303d c0af e4bc
00000340: 786b 4ebe 5e60 3e3e d091 f93d ceb1 313e
00000350: d7a9 883e acc3 f8bd 201a 49bc 42cf 263e
00000360: c0ee 67bd dc09 923d fc4f f03d 22db 743e
00000370: a0c4 c8bd ef1d a13e bbbd 963e 167e 5a3e
00000380: cb9a 83be 61ca 50be c906 50be a529 32be
00000390: ddbb 833e f8de 2fbe 38de 313d 3cbe 94bd
000003a0: cbf1 36be 338b 22be ddfa 4dbe 9eca 5fbe
000003b0: e67c 463e 365a 253e d294 2e3e c6d2 5e3e
000003c0: 49e4 76be 1920 aebe 4fe2 913e 1c14 db3d
000003d0: 96d4 613e 70c3 743d e75e 68be 3527 21be
000003e0: 60fc 973c 1d5e a73e 5c00 933d a38e 8bbe
000003f0: 105d 80be e3fa 62be d6ec 643e ce19 263e
