final_model.pth (torch, 300953 bytes, 24 tensors)

model.0.weight f4 [128, 8]
000000 e2 d7 12 c0 b2 f5 aa bc 92 09 b5 3d 00 fc 14 bf
       -2.2944264 -0.02086911 0.08839716 -0.5819702
000010 b9 9e e2 3c b3 e0 02 bf c9 13 65 3e ef 44 12 40
       0.027663575 -0.51124114 0.22370829 2.2854574
000020 68 ba ac 3d 38 c7 37 3e 55 00 a0 bf 9a cc 39 3f
       0.08433992 0.1794709 -1.2500101 0.7257782
000030 59 91 4f 3d 22 98 c4 3f 01 43 93 3e ba 31 07 bf
       0.050675724 1.5358927 0.28762057 -0.5281025
000040 95 b4 73 bf 96 0c 45 3d aa 28 a5 3f bf 56 05 bf
       -0.9519742 0.048107706 1.2903035 -0.5208549
000050 40 09 7c 3c e8 a0 05 3f 9d 66 f9 3e 9a a2 92 be
       0.015383065 0.5219865 0.487111 -0.2863968
000060 48 21 ef 3e 9d 10 86 be 81 07 16 3d d6 5e 32 3e
       0.4670508 -0.2618455 0.03662825 0.1741899
000070 0a 43 14 3f 18 c4 00 3f 58 9d 40 be e7 0b 8b 3e
       0.57914793 0.50299215 -0.18810022 0.27157518
000080 59 d3 b6 3e d9 c1 0e 3f 8c e4 63 3e b2 66 5a be
       0.3570812 0.5576454 0.22255152 -0.21328238
000090 f7 10 22 be 9b 7c 74 3c 9c 9a ff 3e 30 58 7c 3e
       -0.15826784 0.014922286 0.49922645 0.24643016
0000a0 2c 6b 94 3e 23 13 25 3d 5b 71 fd bd 80 35 af be
       0.28988016 0.040301453 -0.123751365 -0.34220505
0000b0 f0 3c c6 3e 41 97 33 3e 7d f8 c2 3e d9 56 7e 3f
       0.38718367 0.17538168 0.38080207 0.9935127
0000c0 e9 03 48 3e 26 06 4e bd e9 b4 54 be 97 5d 03 3f
       0.19532742 -0.050298832 -0.20772137 0.5131468
0000d0 eb 22 08 3f bd 86 a4 3e 5a f0 b9 be c8 15 2d 3f
       0.5317828 0.32134047 -0.36316186 0.6761136
0000e0 0f 84 1a be 44 a2 0a 3f 89 9a 22 3f 27 68 9c 3d
       -0.15089439 0.5415385 0.6351705 0.07637053
0000f0 db 60 4d be 1d 87 db 3e df 7d fc bd 21 27 82 3e
       -0.20056479 0.4287652 -0.123286955 0.25420478
000100 fe 0b d9 bd d6 6f 51 bd 93 1a 41 3e 10 57 2b 3f
       -0.105979905 -0.051132046 0.18857794 0.6692972
000110 08 7a e8 3b 77 be f5 3e 67 8c 83 be 0f 0d fd bf
       0.0070946254 0.47996876 -0.25693056 -1.976961
000120 a7 65 33 3f c6 e9 17 3f 75 28 18 3e 28 01 3a 3e
       0.70076984 0.59341085 0.14859183 0.18164504
000130 b6 9a 6a be 04 18 6e 3f 88 9c ed be dd a2 22 3f
       -0.2291058 0.93005395 -0.46408486 0.6352976
000140 7d c5 a5 be 6d 43 e3 3e 68 d3 a5 3d 51 e8 86 3e
       -0.32377234 0.4438738 0.08096963 0.26349118
000150 80 8e ba 3e 93 03 70 bd 1f 91 55 bf cd a3 82 3f
       0.36436844 -0.05859716 -0.8342456 1.0206238
000160 3c fb 42 3e 55 1f 9c 3e 22 b2 97 bd d6 b8 f4 bd
       0.19041151 0.30492654 -0.07407023 -0.11949317
000170 e6 63 ec 3e 17 a2 5e 3f 7b 40 17 3e b1 04 b9 3e
       0.46169966 0.8696608 0.14770691 0.36136392
000180 8e 4a 03 3f 3b f5 45 3e 44 d0 c6 bd 59 fe 14 3f
       0.51285636 0.19331829 -0.09707692 0.58200604
000190 08 56 03 3e 84 81 5b 3f a6 56 05 bf 38 92 b7 be
       0.12825787 0.857445 -0.5208534 -0.35853744
0001a0 da 5f 5b be b9 0a 06 c0 fd 5f e1 be b8 9f 6d 3e
       -0.21423283 -2.0944045 -0.44018546 0.23205459
0001b0 79 41 c9 3e 14 26 2d 3f e1 21 68 3f ae a0 61 bf
       0.39307764 0.6763623 0.90676695 -0.881358
0001c0 10 ef 24 3e 6b 5e 0d bf 81 87 12 be e6 cc 04 bf
       0.1610682 -0.55222195 -0.14309503 -0.5187515
0001d0 fe 9c a9 3d 82 47 14 be 84 01 35 3e 20 ee 58 c0
       0.08281897 -0.14480403 0.1767636 -3.389534
0001e0 60 a0 81 bf 8e ae 6b be 8c 59 08 3e 9f a8 47 be
       -1.0127068 -0.23015806 0.1331541 -0.19497918
0001f0 28 12 34 bf 12 a3 88 3e f5 86 f9 3e 9c a2 52 3f
       -0.70340204 0.26686913 0.48735777 0.8227937
000200 11 02 aa be 70 25 8a 3d 78 e3 74 bd 62 db e7 bd
       -0.33204702 0.06745422 -0.059787244 -0.11321141
000210 af e3 66 be 2c 62 a9 3d 36 6a 31 3e 8c 17 d1 bd
       -0.22547792 0.08270678 0.17325673 -0.10209569
000220 ea 0e 42 3e 88 ac 43 3e 5f a8 ed 3e dd a5 43 be
       0.18951002 0.19108784 0.4641752 -0.1910624
000230 86 64 47 3e 27 60 c6 be 32 65 ec 3e 3a 35 64 3f
       0.1947194 -0.38745233 0.46170956 0.8914372
000240 ef 8d fb 3e ab ef 96 bb 80 f5 ec 3e ed b4 58 bd
       0.49131724 -0.0046062074 0.46281052 -0.05290692
000250 bd ba ec 3e ee ce b2 3e 62 a2 9e be 4b 3f 37 3f
       0.4623622 0.349235 -0.30983263 0.7158095
000260 69 e5 87 3e b3 56 a0 3e 65 00 f7 be 25 0f f6 3e
       0.26542214 0.31316146 -0.48242489 0.4805843
000270 7e fd 94 3e 6f bd 46 3f 52 d3 b6 3d de d6 96 be
       0.2909965 0.776328 0.08927025 -0.29460806
000280 12 16 a7 3e 41 88 28 3d 9a 13 5f be b9 9d 5a 3d
       0.32634026 0.041145567 -0.21784821 0.053373072
000290 fa 84 15 3f cd 68 2a 3e fc fb b6 be 3a 0b 87 3f
       0.5840603 0.16641541 -0.35739124 1.0550301
0002a0 87 4e 43 3f 65 19 62 bd e4 b0 36 be ec 6a 2e bf
       0.762917 -0.0552 -0.17840916 -0.681319
0002b0 fa 4f 8f be 69 85 63 3e 65 ea f7 bd d6 45 0a bf
       -0.27990705 0.2221886 -0.12105254 -0.5401281
0002c0 f2 bf 00 3e 1b 32 a5 be 6d 6a ed 3e ed cd 8b 3e
       0.12573221 -0.3226479 0.4637026 0.27305546
0002d0 ed ff 11 3f fe 5d 0c 3f ff 01 5b be 71 71 8a 3e
       0.57031137 0.5483092 -0.2138748 0.27039674
0002e0 d4 bf 4f 3d 7c bd 5c 3e e6 ce 9c 3e fd 2a 85 be
       0.05072005 0.21556658 0.306266 -0.2600936
0002f0 dc 4e 09 3f 13 a7 31 be d7 72 8a 3e 08 32 86 3f
       0.53635955 -0.1734889 0.2704074 1.0484018
000300 9b 88 14 3c 97 59 02 3f 77 ae f5 bd 61 91 02 3f
       0.009065772 0.50917953 -0.11996167 0.5100308
000310 9c b8 05 bf 46 8f 8e be e4 83 34 3e 08 d1 a6 bf
       -0.52234817 -0.27843684 0.17628437 -1.3032541
000320 12 29 de 3b 11 43 89 be 10 ef d6 3e 58 4a 88 be
       0.0067797983 -0.2680898 0.41979265 -0.2661922
000330 85 66 d0 3e 62 3c b3 3e 52 c1 de be 9e bf 85 3e
       0.40703216 0.35007006 -0.43506867 0.26122755
000340 3b 4b 21 3e 3e 6a d2 3e 6f cd 1d be f7 62 a3 3e
       0.15751354 0.4109668 -0.15410398 0.31911442
000350 3f 2f e9 be d8 c7 9c 3e 6c b0 06 3e 26 e9 6e bf
       -0.45543858 0.3062122 0.13153237 -0.93324506
000360 e1 7f 9f 3e c1 a5 ff 3e 2d 66 a0 3e 9e ca d1 be
       0.3115225 0.49931148 0.31327954 -0.40974897
000370 ac a9 e3 3d 3a 0d 7a be 49 27 26 3e 08 ea 5d 3f
       0.11116347 -0.24419108 0.16225924 0.8668523
000380 86 19 5d be 92 cb e7 be c6 0c dc 3d fd 16 ff 3e
       -0.21591768 -0.452725 0.10744624 0.49822226
000390 60 eb f4 bf 7c 0e 25 be 25 e9 cc 3f 84 57 07 c0
       -1.9134331 -0.16118807 1.600865 -2.1147165
0003a0 d2 48 6d 3e 4e 66 f1 bf bb d3 78 be 9c b8 10 3f
       0.2317231 -1.8859346 -0.24299519 0.5653169
0003b0 8b da 60 bf 84 7e f9 3e f8 49 04 3f 6d c4 c2 bf
       -0.8783347 0.48729336 0.5167537 -1.5216194
0003c0 af e3 fa bd 91 b9 1f 3e e3 79 aa be bc fd 65 be
       -0.122504584 0.15598132 -0.33296117 -0.22460073
0003d0 db 7c 33 be f1 9d 32 be 6b b0 00 be 32 36 53 3e
       -0.17528097 -0.17443062 -0.12567298 0.20626143
0003e0 4f 75 72 be 20 da 10 3f f2 d0 27 be d4 81 bc bd
       -0.23677562 0.5658283 -0.163883 -0.0920445
0003f0 71 50 01 3f 6d 82 35 be 19 70 db 3e 90 19 90 3f
       0.5051337 -0.17725535 0.4285896 1.1257801

model.0.bias f4 [128]
000000 54 dd af 3f 07 5b ee bd 8e a9 be 3e 89 22 02 bf
       1.3739419 -0.11638456 0.37238735 -0.50833946
000010 59 ea a6 be 6a f0 04 bf 0d 67 67 be aa 38 30 be
       -0.32600668 -0.5192934 -0.22597905 -0.17209116
000020 18 30 c9 3e 32 ee 36 3f 08 f1 d7 3d 47 57 db bb
       0.39294505 0.7145721 0.1054402 -0.006693754
000030 45 7f 05 bf cf 2b b5 3f 11 9f 03 3f 2b 33 c0 3f
       -0.5214732 1.4153994 0.5141459 1.5015615
000040 58 c2 15 be 8a 68 15 3e db 1f 59 be e8 57 9d be
       -0.14624918 0.1459066 -0.21203558 -0.3073113
000050 8b 23 4e bd 64 ef 97 be dc c9 f0 be 56 f3 90 be
       -0.050326865 -0.29674828 -0.47029006 -0.2831065
000060 c5 ed 41 be 81 12 87 be 76 9b 81 be bf 99 15 bd
       -0.18938358 -0.26381305 -0.2531392 -0.036523577
000070 6f f0 77 3f a9 26 eb 3e be 5e 9b be ef b9 20 be
       0.9685125 0.45927933 -0.3034572 -0.15695928
000080 21 70 d5 be cd 36 4f bd 48 da 36 be 64 82 32 bf
       -0.4168711 -0.05058937 -0.17856705 -0.6973021
000090 f4 95 0e 3f dc 93 c5 be ea 01 96 3e 58 1b 37 be
       0.5569756 -0.3858937 0.29298335 -0.17881525
0000a0 52 45 53 be 1a 35 ef be c2 37 4e be 9b 5c 99 bd
       -0.20631912 -0.467202 -0.20138457 -0.07488366
0000b0 3f c3 8a bf d5 ed 3c 3f 09 1b 21 3f 01 dc b0 bd
       -1.0840834 0.738004 0.6293188 -0.086357124
0000c0 bd bd 36 bf 7a 59 61 3e ea ea 89 bc 9b 2e 20 3f
       -0.7138327 0.22006789 -0.016835649 0.62571114
0000d0 48 3e 18 bf 06 89 ea 3e 49 3e 82 3e f3 bb 2f 3f
       -0.59470034 0.45807666 0.25438145 0.6864616
0000e0 30 f8 82 be eb 6c 61 be 5b a7 af be ed b7 c1 3f
       -0.25579977 -0.22014205 -0.3430737 1.5134255
0000f0 46 fa 38 bf 8e 8d dd 3f 81 91 65 be 79 05 51 be
       -0.72256887 1.7308824 -0.22418787 -0.20412244
000100 0c 35 12 3f 99 bc 24 3e 53 ba 14 3f 22 9d 1e bf
       0.57112193 0.1608757 0.5809681 -0.61958516
000110 4b 74 29 be 4b 49 91 be 33 07 8f be 87 22 2e 3f
       -0.16548268 -0.2837623 -0.2793518 0.68021435
000120 99 1e e4 be 2d 42 69 3d 60 a0 d8 3f 78 3c 04 bd
       -0.44554594 0.056947876 1.6923943 -0.03228423
000130 16 ef c4 bd 75 20 5a be 1c 8a b3 3d e7 bf a7 bd
       -0.096159145 -0.21301444 0.08766577 -0.08190899
000140 38 bf 0e 3f cc 50 4a bd 7a 07 86 be 13 0f 75 3f
       0.55760527 -0.04939346 -0.2617758 0.95726126
000150 8a af 90 3f ab ef 5d 3f 18 1d 1d bd 76 8b 77 be
       1.130357 0.8669383 -0.038357824 -0.24174294
000160 e0 58 87 bd 29 28 5c 3f 54 a8 cc 3e be 73 07 3f
       -0.066087484 0.8599878 0.39972174 0.52910984
000170 94 68 b8 3d 3f bf 8f 3e 7e 3a e3 be 0f ad 1f bf
       0.09004322 0.28075597 -0.44380563 -0.6237344
000180 33 5a 95 be 07 41 f2 3e 87 5d a4 be f4 53 69 3f
       -0.2917038 0.47315237 -0.32102606 0.9114373
000190 aa 6b b9 3d 57 d4 93 3f 65 fa bb bc 0f 37 18 3f
       0.090537384 1.1549176 -0.022946546 0.5945901
0001a0 71 b3 82 3f cc 44 86 be 43 15 00 bf 5f c5 9d bd
       1.0211011 -0.26224363 -0.5003244 -0.07703661
0001b0 15 bb c5 bf dc b1 77 3c b4 43 f4 bd 7a 71 2a 3d
       -1.5447718 0.015118089 -0.11926976 0.041612126
0001c0 50 df cd bd a8 cd 99 3e 68 c9 af be 26 3c 10 bf
       -0.10052359 0.30039716 -0.34333348 -0.5634178
0001d0 7d 97 18 3e 1a f9 a8 3e f9 ad 92 3f e4 1e 38 3f
       0.14901538 0.3300255 1.1459342 0.71922135
0001e0 2c ce 64 be 91 f0 43 bf 94 d2 9b 3e e2 fb 0d bc
       -0.22344273 -0.7653895 0.30434096 -0.008666011
0001f0 37 f9 b5 3e 26 9b 93 be 12 c9 c8 3e 59 58 33 3f
       0.35541698 -0.28829306 0.39215904 0.7005668

model.2.weight f4 [128, 128]
000000 49 18 34 40 53 07 f8 be 25 18 e6 3f e4 73 81 bf
       2.8139822 -0.48443088 1.7976118 -1.0113492
000010 dd c1 39 3f a9 4d 8d be 61 c9 b0 be 4c 5b 1f 3e
       0.72561437 -0.27598312 -0.3452864 0.1556217
000020 91 1d 9c 3e fb 58 05 3e 79 8d 08 3f fc 27 96 be
       0.30491307 0.13022225 0.5334087 -0.2932738
000030 cc cd d3 be 86 ca 88 3f 7b 65 62 bf 56 54 9a 3f
       -0.41367948 1.0686805 -0.88436097 1.2056987
000040 08 e7 51 bc 80 18 c5 3e c9 57 9e be 22 39 aa be
       -0.01281143 0.38495255 -0.3092635 -0.33246714
000050 cf 76 10 be 5b 34 04 c0 d0 19 42 bf 38 db e1 3d
       -0.14107822 -2.0656955 -0.75820637 0.11028141
000060 fc 49 5e 3e 7f 04 5e be 53 7b 10 bf 3c 48 08 3f
       0.2170791 -0.21681403 -0.5643818 0.5323522
000070 78 37 8d 3f 40 8e 31 3f 8f 8b 80 3d 36 89 8c 3e
       1.1032553 0.6935768 0.06276619 0.27448434
000080 5a 41 27 be a5 e6 85 3e 37 3c e0 3e 0c 92 5e bf
       -0.16333523 0.2615253 0.4379594 -0.869416
000090 a6 af b0 3e b3 61 e6 3e 38 23 7d bb b2 c2 98 be
       0.3450901 0.44996414 -0.0038625728 -0.2983604
0000a0 36 1b 10 be 5d 6c 1e bf e2 e6 63 be 69 48 67 bd
       -0.1407288 -0.618841 -0.22256044 -0.05646554
0000b0 b5 23 05 c0 0a 92 3e 40 5f 1d 88 3e 72 08 df bc
       -2.0803044 2.9776635 0.26584908 -0.027225707
0000c0 c3 b7 18 be c0 c2 53 bf 3a 43 d1 be c1 8c 0a 3f
       -0.1491385 -0.8271904 -0.40871602 0.54121023
0000d0 b9 96 f2 bd d5 64 6e 3e 00 5f cb 3e e3 bf 48 40
       -0.11845154 0.23280652 0.39720917 3.1367118
0000e0 1d 69 dd bb 2a 63 23 be f0 cd a9 bb 20 9c 79 3f
       -0.0067569152 -0.15955797 -0.0051820204 0.9750385
0000f0 b0 47 39 be fa 9d e8 3f 27 d8 2f c0 ea 62 36 bf
       -0.18093753 1.8173211 -2.747568 -0.7124468
000100 80 71 1f be 76 0d a6 bd 69 dc b3 3f 6f a2 24 bf
       -0.1557064 -0.08108036 1.4051639 -0.64310354
000110 ee 9d 31 3e 22 c6 d1 be 9e bf 18 bd 88 98 89 3f
       0.17345402 -0.40971476 -0.037292115 1.0749674
000120 8e 3f 17 3e 14 1b 48 bd ea ec 17 40 9c 39 48 3f
       0.14770338 -0.04885395 2.373835 0.78212905
000130 99 c6 46 3e 93 d0 b5 be 68 c7 9f be 70 2f 5c 3b
       0.19411696 -0.35510692 -0.31206822 0.003359761
000140 29 05 e1 3d 9c d7 5e 3d 00 26 bc be 03 63 31 3f
       0.10987312 0.05440484 -0.36747742 0.69291705
000150 ee b0 88 3f 88 f4 54 3f e0 28 67 be 8a 17 6d 3e
       1.0678995 0.83185625 -0.22574186 0.2315351
000160 fd 7e 9b bd b5 61 a0 3e ba fa ff 3f 5e 3b 0f 3e
       -0.075925805 0.31324545 1.9998391 0.1398749
000170 c4 26 5c 3e b8 0a 40 3e 7b c6 09 bf e6 2e 5d bf
       0.21499163 0.18754089 -0.5381848 -0.86399686
000180 f7 58 d9 be b0 b9 0a 40 fc 23 35 bd 28 85 ec bb
       -0.42450687 2.1675835 -0.04422377 -0.007218022
000190 99 74 87 3f 18 4a b9 3d 5f 0c 0f bc bc 78 3a 3f
       1.0582458 0.090473354 -0.008730977 0.72840476
0001a0 b4 26 cf 3f 2e cd ac be 06 28 cb bb b9 2b 1c 3e
       1.6183686 -0.3375029 -0.0061998395 0.15251054
0001b0 c7 de e7 be 5b 13 4c 3f 78 64 39 bd 49 4d 9f 3e
       -0.45287153 0.79717034 -0.04526183 0.3111365
0001c0 58 12 f2 3c 05 66 51 3f ec c9 e5 bd a1 e2 3e bf
       0.029549763 0.81796294 -0.11220154 -0.7456456
0001d0 d3 0d 41 bf 4b 76 44 3f 36 36 6e 3f ed 74 24 3f
       -0.7541172 0.76743 0.9305147 0.64240915
0001e0 fe 61 f8 bd 87 f1 44 be 2a 19 cd bd f5 a4 ab bc
       -0.121280655 -0.1923276 -0.10014565 -0.020952681
0001f0 c2 0f 06 be 4e 49 b9 bf a0 26 ec 3f 6b e0 4f 3f
       -0.13091949 -1.4475496 1.8449287 0.8120181
000200 09 ad e5 bf e1 5a ac 3e 69 03 04 bf 27 95 85 3e
       -1.7943431 0.33663085 -0.51567703 0.26090357
000210 2c 96 c8 bd 29 01 f0 3e dc bb 14 3f f8 11 48 bd
       -0.09794268 0.46875885 0.5809915 -0.04884526
000220 85 d7 40 bf 06 00 1d 3f d2 6a c5 3e 64 5d 62 3e
       -0.75328857 0.6132816 0.3855806 0.22105938
000230 22 79 08 3e 4a 40 f8 3d d3 02 fe bf a9 7c 52 bf
       0.13327459 0.12121637 -1.9844612 -0.82221466
000240 f9 a6 b3 3d cc ab 52 3e 04 28 a3 3e 63 09 8c 3d
       0.08772082 0.20573348 0.31866467 0.06837728
000250 14 6d c6 3e 19 b0 54 bf cf 12 a6 3e fd 91 f7 3e
       0.38755095 -0.83081204 0.32436225 0.48353568
000260 2c 33 09 bf f1 d6 84 3e 00 a3 01 bf fe e2 bf 3e
       -0.5359371 0.25945237 -0.50639343 0.3747787
000270 ca 92 ad bf ac 9d 33 3f 7e 32 6e 3d 93 bd c2 3e
       -1.3560421 0.70162463 0.05815362 0.3803526
000280 51 d4 ae 3e 8d 17 5b bf f8 8c ac 3e 37 01 5a 3f
       0.3414636 -0.8558281 0.337013 0.85158104
000290 b4 0a c9 3e f3 d4 40 bf 40 79 94 3e 4d 55 18 3e
       0.39265978 -0.75324935 0.28998756 0.1487629
0002a0 ae b9 c7 3e 21 ee 1d 3e 37 58 9d 3e 7d 0d f1 3d
       0.3900885 0.1542287 0.30731365 0.11770151
0002b0 47 bd d7 3f cc 97 0e 40 55 f0 8e 3e 23 10 96 3e
       1.6854638 2.228015 0.27917734 0.29309186
0002c0 8d 35 aa 3e 50 a7 37 bf 82 d9 92 3e b8 5b 3d be
       0.3324398 -0.71739674 0.2868157 -0.18492019
0002d0 a1 db d8 3e 38 01 d6 bf 0f 6f c7 3e 70 6b 78 40
       0.42355064 -1.6719122 0.38951918 3.8815575
0002e0 e6 d6 c3 bf 16 6a de be fc fc f4 ba 9d d6 cb bf
       -1.5299957 -0.43440312 -0.0018691118 -1.592487
0002f0 88 85 c3 be 45 18 6d c0 3f 3c 0a c0 0d 02 7c 3e
       -0.38187814 -3.7046063 -2.1599271 0.24610157
000300 f2 af 15 3f 2c 2f 99 3e 0f ca 65 3f 5a 2a e1 be
       0.58471596 0.29918802 0.8976144 -0.43977624
000310 93 8e 85 bf 8f d2 b0 bf a6 2c c4 3e 88 4a 0e c0
       -1.0434135 -1.3814257 0.38315314 -2.223299
000320 2b c6 fe be 09 36 3f bf 2d fc 4e c0 c6 d0 83 3e
       -0.49760565 -0.74691826 -3.2341416 0.2574522
000330 5d 67 fd bd 47 67 39 bf 63 18 01 bf 67 7f 21 3d
       -0.123732306 -0.72423214 -0.50427836 0.03942814
000340 91 28 3f bf be a3 60 3e 6e 72 6a 3e 4d 09 09 bf
       -0.74671274 0.21937463 0.22895214 -0.53529817
000350 6b 36 df 3f cc 33 54 3f 9a 9b 7c 3e 15 57 d7 be
       1.7438482 0.82891536 0.24668732 -0.42058626
000360 93 22 a4 3e 95 55 13 3f 3f 20 05 40 26 6e c6 be
       0.32057628 0.5755246 2.0800931 -0.38755912
000370 9d dd c6 3e 8c d5 6e 3e 4a c5 95 3e 24 d0 72 3e
       0.38840953 0.23323649 0.29252082 0.23712212
000380 fa 33 0f 3e a6 60 d0 3e 87 3c e6 3e 1a 5a a2 be
       0.13984671 0.40698737 0.44968054 -0.31709367
000390 fb 34 0a 3f a0 a3 e6 bf 6e 15 16 bf ee 9b 39 bf
       0.5398709 -1.8018684 -0.5862645 -0.72503555
0003a0 a7 b1 6f 3f 37 5e b4 3e 85 a0 29 3f 5d b4 81 3e
       0.9363045 0.3522813 0.6626056 0.2533292
0003b0 2f de c5 3f 8a 30 48 3f 63 6c dd be 84 c0 7d 3e
       1.545843 0.78199065 -0.43246755 0.2478047
0003c0 e8 77 73 be 75 a6 32 3c 5f 02 db 3e 75 1f 43 3e
       -0.2377621 0.010903944 0.42775247 0.19054969
0003d0 3d 99 53 be e6 a9 6b bd 6b dd f9 3e 2e 87 97 bf
       -0.20663925 -0.057535075 0.4880174 -1.1838129
0003e0 b6 cc a6 3e dc 59 5a bf 55 a8 9d 3e e3 60 7b bd
       0.32578057 -0.85293365 0.3079249 -0.061371695
0003f0 75 24 95 3e cf 03 44 3e cb 30 8f 3f a0 8b f6 3d
       0.29129377 0.19142078 1.1186765 0.1203835

model.2.bias f4 [128]
000000 53 12 e8 3f 78 71 c0 3e 24 01 ea 3e 5d ab 17 bf
       1.8130592 0.3758657 0.45703995 -0.59245855
000010 9a 13 bc bd f6 98 06 3b 8f f1 2e be 18 20 97 bd
       -0.09183426 0.002053795 -0.17084335 -0.07379168
000020 89 f5 95 bc 67 44 8a bd 9d 3f 49 bd 26 de c3 3d
       -0.018305557 -0.06751328 -0.049132932 0.09563856
000030 c3 16 63 3d 64 85 ac bd df e8 bd bd 32 c5 ae 3e
       0.05544163 -0.0842388 -0.09272932 0.34134823
000040 9c 65 be 3b 5f da db 3f 71 e6 38 bd c1 d4 8d be
       0.0058104526 1.7176017 -0.04514164 -0.2770138
000050 31 e3 dc bd de a4 7c be bf 71 2a 3f 31 1d df 3e
       -0.10785521 -0.24672267 0.6657981 0.4357696
000060 5e cd 75 bc d2 74 9a bc 20 93 86 3f b0 8e 91 be
       -0.015002577 -0.018854532 1.0513649 -0.28429174
000070 46 c5 66 3d a7 08 bb bd 29 28 03 bb e2 db f0 3d
       0.05634048 -0.0913251 -0.002001295 0.11760689
000080 93 b2 6d bd 7b 04 21 3e eb 7f 98 bc e3 33 9f 3f
       -0.05803163 0.15724365 -0.018615684 1.243771
000090 af 42 b9 3e d6 9f 0f 3e cd 69 6b bd d0 b0 22 3d
       0.36183688 0.14025816 -0.057473946 0.039719403
0000a0 bb d5 e0 3e 31 4f 16 3f cf 5c 83 3d 95 6c 4d bd
       0.43913063 0.58714586 0.06414186 -0.05015238
0000b0 c1 07 6b be 78 3d 5d be 0b 5d 9b 3c c1 46 81 be
       -0.22952177 -0.2160548 0.018965265 -0.25249293
0000c0 1f 52 78 be bd 0a bc 3d f3 84 f7 bb 43 2b 46 3c
       -0.24250077 0.09181736 -0.0075536906 0.012095275
0000d0 6e fa 5c 3c 2c 15 0b 3c 7e 9d de 3f ae 6f 42 3e
       0.013487441 0.0084889345 1.7391813 0.18987915
0000e0 09 6d b7 bd 35 0d 9e bd 6f cf 53 bd 19 a3 1d 3e
       -0.08956344 -0.07717363 -0.051711496 0.15394248
0000f0 0b e3 ca 3e ef 8d 34 3d 90 36 a9 3e 89 32 48 be
       0.39626345 0.04408067 0.3304944 -0.19550528
000100 ef da 8d bd 11 fa 16 3e 90 04 8e 37 de 99 ad bd
       -0.06926524 0.1474383 1.6929844e-05 -0.084766135
000110 82 33 88 bd 83 e6 06 3f e7 3d c7 bd a1 28 8c 3f
       -0.06650449 0.5269548 -0.09728604 1.0949899
000120 9a f2 79 3f 10 8c 06 be a7 33 d5 3d e5 8b 38 bd
       0.97635806 -0.13139367 0.104102425 -0.04505529
000130 c4 fe 15 3d 05 2e d7 bd 60 21 8d bd 15 e5 ad 3e
       0.036619917 -0.105068244 -0.068911314 0.33963838
000140 c3 c2 17 3f 33 17 5b be b8 6e 49 3e e7 e6 8d be
       0.5928156 -0.21395569 0.19671142 -0.27715227
000150 ee 82 88 be 09 23 f3 bc b8 f6 1b be 9e ff 4c bd
       -0.2666239 -0.029679792 -0.15230834 -0.050048463
000160 c0 fb ea bd f0 51 a1 bd d0 ab 08 3f 51 1d 2f bd
       -0.11473799 -0.078769565 0.53387165 -0.042752568
000170 39 08 77 bd d6 37 86 3d 87 86 77 bd 5d cb 45 be
       -0.060310576 0.065536186 -0.06043103 -0.19315858
000180 4f da dc bd b8 5b bf 3d 61 6b f4 bd 5a e3 a0 bd
       -0.107838266 0.09343666 -0.119345434 -0.07855864
000190 88 0c 19 3e 83 0e bc 3d b3 bd 10 bd 31 05 42 bd
       0.14946187 0.091824554 -0.03533716 -0.047368232
0001a0 84 45 cb 3e d2 2b a1 bd 52 05 07 bf e2 60 20 3e
       0.39701474 -0.07869686 -0.52742493 0.15661958
0001b0 0a a5 46 bd 2b e6 f8 bc 77 83 07 be 8f 7d 20 3e
       -0.048497237 -0.03038319 -0.13233744 0.15672897
0001c0 85 53 fa 3d 6b f4 c9 3f c8 90 7c be 29 f8 c0 be
       0.12222961 1.5777715 -0.24664605 -0.3768933
0001d0 70 15 82 bd 54 68 6a bf 96 d0 19 3d 07 fd aa 3c
       -0.06351745 -0.9156544 0.03755244 0.020872606
0001e0 7d f0 49 3e ea af 86 be e0 10 34 bd 3a 1c 5e bd
       0.19720645 -0.26306087 -0.043961406 -0.054226138
0001f0 ff 13 2e bd 7d 3d be bb 7c a3 48 bc 45 97 91 3f
       -0.04249954 -0.00580567 -0.012246009 1.1374289

model.4.weight f4 [4, 128]
000000 9e ab e4 3f 9f d8 0d 3f 37 a5 02 3f da d6 9b bf
       1.7864873 0.5540866 0.5103335 -1.2174942
000010 09 e3 38 3f 11 db 24 3f c3 75 b3 bf ad 15 91 3d
       0.7222143 0.6439677 -1.4020313 0.070842125
000020 8a 85 1e 3f e8 36 97 bd c0 68 c5 bd 73 18 b4 bf
       0.61922514 -0.073835194 -0.0963912 -1.4069961
000030 6e 05 b1 bd 89 bc 0d 3c 2d 4a d8 3c d8 de 12 3f
       -0.08643614 0.008650907 0.026402557 0.5737128
000040 71 0e be bf 64 bd ca 3f 66 86 14 bc 4a 7d 71 3f
       -1.4848157 1.5839047 -0.009065246 0.943318
000050 12 cf ba bf 09 86 47 3f ec 3c 1b 3f e5 ba 01 3f
       -1.4594443 0.77938896 0.60639834 0.50675803
000060 f3 04 46 3f 01 5a ad bd 79 84 f9 3f ba fb 70 3f
       0.773513 -0.084644325 1.9493552 0.94134104
000070 1b 19 aa 3d 71 c9 8c bf 1f 3f 2f 3f d4 e9 8e bf
       0.0830557 -1.0998975 0.6845569 -1.1165109
000080 e0 79 29 3c 01 71 de bf a4 09 95 bd 85 af 45 40
       0.010343999 -1.7378236 -0.072772294 3.0888379
000090 74 b2 f3 3e 14 25 4b 3f 92 59 34 3f 80 98 34 3f
       0.47597086 0.7935345 0.70449173 0.70545197
0000a0 64 a8 19 3f 5a 6e 00 3f 0c f8 9e bc f7 37 a8 3d
       0.6002257 0.50168383 -0.019405387 0.082137994
0000b0 b2 44 4a bf 4e 12 57 3f ac 51 f9 3c 0a b6 62 3f
       -0.7901107 0.84012306 0.030434452 0.8855902
0000c0 6f cb 1e 3f 8a 36 3b 3f 9e 20 cf bc 24 96 2d 3f
       0.62029165 0.73130095 -0.025284108 0.6780722
0000d0 1f 51 41 3f 4f 9d a1 bd 20 bf 04 40 b1 b0 97 3f
       0.75514406 -0.07891332 2.0741653 1.1850797
0000e0 9b 32 8c 3c 5d 86 d7 bf 26 9e 0f 3f 28 65 79 bf
       0.017113974 -1.683788 0.5610069 -0.9741998
0000f0 c0 a6 0f 3f ac a5 90 bf e0 e2 6d 3d 9a ed ba bf
       0.56113815 -1.1300559 0.058077693 -1.460376
000100 38 a4 77 bd 4f b6 77 bf 0d bb 80 bf 76 77 30 3f
       -0.060459346 -0.96762556 -1.0057083 0.6893228
000110 53 5b 93 3d 3c e9 c4 3e 97 02 17 bd 3b af ed 3e
       0.07195153 0.38459194 -0.036867704 0.46422753
000120 c0 fc 3d 3e 8b 20 b3 3d a0 a8 41 3f 8a 48 b1 3a
       0.18553448 0.087464415 0.75647926 0.0013525647
000130 43 60 c3 bc 43 fa 3c 3d 15 f3 ba bf 55 80 03 3f
       -0.023849612 0.046137106 -1.4605433 0.51367694
000140 f7 8a 08 3f 74 19 49 3f df c3 a4 bf ea f5 41 3f
       0.53337044 0.78554463 -1.2872275 0.7576586
000150 ad 00 16 bf 08 ff 20 bd 22 28 48 3f d7 89 35 3f
       -0.5859478 -0.039305717 0.7818624 0.7091345
000160 71 3e bd bf eb 63 48 3d 72 13 0d 3f ce ba 46 3d
       -1.4784681 0.048923414 0.55107796 0.048517995
000170 5d bf 70 3c 52 68 bd bf d0 a6 0d bc 43 aa d9 bf
       0.014694062 -1.4797461 -0.008645728 -1.7005085
000180 07 4a cf bf 02 4d 26 3f 52 30 8a bc e8 a9 51 3c
       -1.6194466 0.64961255 -0.016868744 0.012796856
000190 ab f3 22 3f 53 33 1a 3f 27 06 01 c0 c7 b5 62 bd
       0.6365306 0.60234565 -2.0160005 -0.055349138
0001a0 88 c8 ae be 8f 39 21 3f d7 cb 01 c0 9e 71 86 bf
       -0.34137368 0.6297845 -2.0280664 -1.0503423
0001b0 18 d1 db 3c 14 a8 30 3f a3 3c 3c 3f ce ae 2c 3f
       0.026833102 0.69006467 0.73530024 0.6745423
0001c0 45 bf 00 be 40 77 05 40 1e ed 3f 3f f4 3d aa bf
       -0.12572964 2.0854034 0.7497119 -1.3300157
0001d0 ba 74 3e bd d4 79 05 c0 e9 24 7a be a4 6a 27 3f
       -0.046498038 -2.0855608 -0.24428143 0.65397096
0001e0 8e 0f 09 3f b5 76 58 3f b2 17 47 3d f6 31 1f 3d
       0.5353936 0.8455613 0.048606582 0.038866006
0001f0 e0 b6 71 3b b4 ac be bc a0 bd 31 3b 45 d9 ed 3f
       0.0036882684 -0.02327571 0.0027121082 1.858193
000200 5a 1c c6 3f bd 10 0e 3f c5 7c 22 3f 1a d9 72 bf
       1.5477402 0.5549429 0.63471633 -0.9486252
000210 07 bb 3e 3f 9a 4c 2d 3f 29 48 c8 bf 8c c6 bb bc
       0.7450413 0.6769501 -1.5647022 -0.022921823
000220 1c de 3b 3f 43 78 ff bb 6c b2 ba bf ed 2f c2 bf
       0.73385787 -0.0077963187 -1.45857 -1.5170876
000230 00 50 11 3d 39 b4 91 3c 8d 9f 61 3d 45 2b 24 3f
       0.035476685 0.017786132 0.0550838 0.64128524
000240 c0 f4 a9 bf 2b 0e b1 3f 89 72 19 3d cb 85 61 3f
       -1.3277817 1.3832449 0.037462745 0.88094777
000250 71 28 c3 bf 0e e7 44 3f f3 16 23 3f 13 0d 13 3f
       -1.5246717 0.7691506 0.6370689 0.57441825
000260 ab c2 32 3f f8 5c 91 bd 2c e6 cc 3e ad 9e 49 3f
       0.6982829 -0.070978105 0.40019357 0.78757745
000270 46 1c 6e 3d 48 99 9c bf 61 ed 3b 3f cc 6d b9 bf
       0.058132432 -1.2234278 0.73409086 -1.4486632
000280 ce 08 ff 3c 1d 94 d0 bf c0 64 2f bd 5c b5 0d 40
       0.031132128 -1.62952 -0.042820692 2.2141943
000290 58 d9 fb 3e d8 60 4f 3f 87 23 2d 3f 78 ce 48 3f
       0.49189258 0.81007147 0.67632335 0.78440046
0002a0 6d e4 fb 3e ee fe 05 3f 58 05 55 bc 30 63 46 3b
       0.49197713 0.52342117 -0.013001762 0.0030271523
0002b0 65 39 60 bf c2 d2 6f 3f c8 25 b3 3c 11 9d 5e 3f
       -0.8758758 0.93680966 0.021868601 0.86958414
0002c0 90 bf 11 3f 8a 97 44 3f b4 c7 f4 3c d7 4b 41 3f
       0.56932926 0.7679373 0.029880382 0.7550635
0002d0 52 04 25 3f 8a e1 3e 3d 28 81 02 40 21 69 a6 bf
       0.6445972 0.04660181 2.039133 -1.3000833
0002e0 8e 34 82 bd 41 e8 d3 bf 74 92 1e 3f 30 e3 be bf
       -0.0635768 -1.6555253 0.6194222 -1.4913082
0002f0 c1 61 0d 3f b0 08 65 bf c4 1f 88 bf 0d 71 af bf
       0.55227286 -0.8946638 -1.0634694 -1.3706375
000300 c9 55 85 bd 2c 29 cf bf 74 d3 29 bf cf 67 2d 3f
       -0.06510503 -1.618444 -0.66338277 0.67736524
000310 47 71 52 3b 11 27 f6 3e ba e0 89 bc 73 95 cb 3f
       0.0032110976 0.4807668 -0.01683079 1.5904983
000320 00 43 f8 bf 8a c7 60 3f c1 e8 22 3f d5 0f 85 bd
       -1.9395447 0.8780447 0.63636404 -0.0649716
000330 15 00 81 bd 59 b3 97 bd 5e 25 f5 bf a5 33 14 3f
       -0.06298844 -0.07407255 -1.9152029 0.57891303
000340 03 d4 1f 3f 8b d8 6a 3f 18 43 66 bf 56 ef 50 3f
       0.6243288 0.9173667 -0.89946127 0.816152
000350 d8 b6 83 bf e4 78 17 3d fe c8 21 3f aa 5d 1a 3f
       -1.0290174 0.036980525 0.63197315 0.6029917
000360 58 3d 9e bf 59 4a ba bd 18 45 d4 3e e8 cc 9e bd
       -1.2362471 -0.09096212 0.41458964 -0.077539265
000370 ac ea b7 bb cb 46 bc bf b5 c3 0f 3d 02 8e 8a bf
       -0.005612692 -1.4709104 0.03509875 -1.0824587
000380 db ea 93 bf c6 d8 2c 3f e2 9a 22 bc d0 02 27 bb
       -1.1556047 0.6751827 -0.009924622 -0.0025483854
000390 07 b8 06 3f cd 81 3d 3f 14 c1 d3 bf 42 ba 7f 3d
       0.52624553 0.74026185 -1.6543298 0.06243349
0003a0 79 6d 9a 3e 87 37 25 3f d3 cd ca bf 36 04 bd bf
       0.30161646 0.64537853 -1.5844063 -1.476691
0003b0 a7 02 66 3d 23 2e 38 3f 1f cf 24 3f 8e 24 ed 3e
       0.056154873 0.719454 0.6437854 0.46316952
0003c0 94 db 1d 3e 02 0e 41 40 b6 12 44 3f 4c ab b1 bf
       0.15415794 3.01648 0.7659105 -1.3880401
0003d0 08 6f c2 3c 39 09 9c bf 40 1c 01 c0 6c 79 48 3f
       0.023734584 -1.2190315 -2.0173492 0.78310275
0003e0 4b b6 2e 3f 50 ab 31 3f 44 54 85 bd 00 35 e7 ba
       0.68246907 0.6940203 -0.06510213 -0.0017639697
0003f0 21 84 2f bd 6a 6b a2 3b 36 91 00 3c 2a 6b 4f 3f
       -0.042850617 0.0049566524 0.007847121 0.81022894

model.4.bias f4 [4]
000000 73 6c 30 3d 45 fe ab 3e 8b c1 21 3f 4c 40 64 3f
       0.043072175 0.3359243 0.6318595 0.8916061

model.0.weight f4 [128, 8]
000000 5f ed 12 c0 a0 be bd bc bd f7 bb 3d 18 2f 16 bf
       -2.295738 -0.023162186 0.09178112 -0.5866561
000010 cb b4 d2 3c ec 33 04 bf 48 0c 68 3e e7 0e 12 40
       0.025720974 -0.51641726 0.22660935 2.2821596
000020 3c 44 a5 3d 2f cb 35 3e 97 1a a0 bf fa 16 39 3f
       0.08069655 0.1775329 -1.2508115 0.72300684
000030 41 15 4b 3d 33 e5 c3 3f 7d 21 94 3e 1b d1 07 bf
       0.049580816 1.5304321 0.289318 -0.53053445
000040 26 c7 72 bf 70 14 51 3d 46 b0 a5 3f 4d bb 04 bf
       -0.94835126 0.05104488 1.2944419 -0.518483
000050 12 8d 94 3c 3f 82 06 3f 4c 5d fa 3e 8e 95 91 be
       0.018133674 0.5254249 0.48899305 -0.28434414
000060 a6 af ed 3e 9f 7a 86 be 85 56 03 3d 73 db 30 3e
       0.46423072 -0.26265427 0.032064933 0.17271213
000070 da 3a 14 3f fc cd 00 3f 7a 83 3d be 37 4e 89 3e
       0.579023 0.5031431 -0.18507186 0.26817486
000080 e9 8a b7 3e 70 8a 0e 3f 56 3b 69 3e 34 cd 5c be
       0.35848168 0.5567999 0.22776541 -0.21562654
000090 02 25 21 be 43 53 8c 3c a0 35 fe 3e bc 32 7b 3e
       -0.15736774 0.017129546 0.49650288 0.24531072
0000a0 b6 6c 93 3e 51 0f 25 3d ea 36 02 be fc 77 af be
       0.28793877 0.04029781 -0.1271626 -0.34271228
0000b0 f6 34 c6 3e 61 28 33 3e fc 02 c4 3e 87 f6 7d 3f
       0.3871228 0.17495872 0.38283527 0.99204296
0000c0 65 9f 46 3e eb d5 4d bd a0 64 57 be 20 8f 03 3f
       0.19396742 -0.050252836 -0.21034479 0.51390266
0000d0 24 15 08 3f f2 4f a4 3e fb 6c b8 be ca 85 2c 3f
       0.5315726 0.32092243 -0.36020645 0.67391646
0000e0 a9 82 18 be 61 01 0b 3f d0 e2 23 3f 1e aa 98 3d
       -0.14893593 0.5429898 0.64017963 0.07454322
0000f0 60 c0 49 be ef e4 da 3e d3 ab e6 bd d2 6c 82 3e
       -0.19702291 0.42752787 -0.112632416 0.25473648
000100 06 37 d9 bd ee 07 4f bd 89 38 44 3e fa 05 2b 3f
       -0.10606198 -0.05054467 0.19162191 0.66805995
000110 ea b2 f3 3b 15 82 f5 3e 70 bb 85 be 84 cd fc bf
       0.0074370997 0.47950807 -0.26119566 -1.9750218
000120 86 39 33 3f 0b d9 17 3f 43 16 15 3e b4 36 3a 3e
       0.7000965 0.59315556 0.14559273 0.1818493
000130 ff 7a 69 be b2 1d 6e 3f dd b3 ed be e3 d5 22 3f
       -0.22800826 0.9301406 -0.46426287 0.63607615
000140 e2 ef a4 be ff d9 e3 3e c2 6c a7 3d 33 48 88 3e
       -0.32214266 0.44502255 0.08175041 0.26617584
000150 16 8e ba 3e c8 76 6a bd a5 f1 53 bf 7f 61 82 3f
       0.36436528 -0.057242185 -0.82790595 1.0186003
000160 2c 11 40 3e 68 c2 9b 3e f3 0d a0 bd 7e 3d f9 bd
       0.1875655 0.30421758 -0.078151606 -0.12169932
000170 ed 61 ec 3e ce 41 5e 3f 31 74 18 3e 05 d9 b7 3e
       0.4616846 0.8681916 0.14888074 0.3590776
000180 25 a9 02 3f 45 4d 46 3e 3b c2 cd bd 3a e7 14 3f
       0.51039344 0.19365413 -0.10046812 0.58165324
000190 70 8e 03 3e fd 25 5b 3f 2f 89 04 bf 7b db b7 be
       0.12847304 0.8560484 -0.51771826 -0.35909638
0001a0 cd 31 5e be 5b 0c 06 c0 f1 c7 e3 be 4e c0 6f 3e
       -0.21698685 -2.094504 -0.4448848 0.23413202
0001b0 2d 6c c9 3e e0 18 2c 3f 9c 96 66 3f ee c6 62 bf
       0.39340344 0.67225456 0.9007356 -0.8858479
0001c0 2a a3 29 3e 98 6c 0d bf 36 c1 12 be b2 9b 03 bf
       0.16566148 -0.55243826 -0.14331517 -0.5140945
0001d0 71 d8 a5 3d 9c e6 0c be 49 71 33 3e 30 93 58 c0
       0.080979235 -0.13759845 0.17523684 -3.3839836
0001e0 89 c1 81 bf 2f 46 6c be 76 13 0a 3e 85 b1 47 be
       -1.0137187 -0.23073648 0.13483986 -0.19501312
0001f0 1e 17 33 bf f7 c8 85 3e 73 e7 f5 3e 39 43 54 3f
       -0.6995715 0.26129887 0.48028144 0.82915074
000200 11 02 aa be 77 25 8a 3d 78 e3 74 bd 62 db e7 bd
       -0.33204702 0.06745427 -0.059787244 -0.11321141
000210 af e3 66 be 2c 62 a9 3d 36 6a 31 3e 98 17 d1 bd
       -0.22547792 0.08270678 0.17325673 -0.10209578
000220 0f 6c 41 3e 54 f6 43 3e 4b 86 ed 3e 0d ba 43 be
       0.18888877 0.19136935 0.4639152 -0.19113941
000230 8c a2 47 3e 44 1b c6 be ba f3 ee 3e 6e 46 63 3f
       0.194956 -0.38692677 0.46670324 0.8877934
000240 9b c2 fa 3e 98 44 94 bb b0 99 eb 3e 13 09 5a bd
       0.48976597 -0.0045247786 0.46015692 -0.05323131
000250 a6 b8 ec 3e 06 39 b3 3e ae f4 9b be 93 63 36 3f
       0.46234626 0.35004443 -0.30460113 0.7124569
000260 4a 9e 86 3e 8d 77 a0 3e d3 30 f7 be 74 01 f6 3e
       0.2629264 0.3134121 -0.48279437 0.48047984
000270 bb 12 95 3e 88 c7 46 3f 02 6d be 3d ac 30 97 be
       0.29115853 0.7764821 0.09298135 -0.2952932
000280 63 73 a6 3e 7d 18 29 3d 8e 93 60 be 48 62 5c 3d
       0.32509908 0.04128312 -0.21931288 0.053804666
000290 cc 7f 15 3f 2f f2 29 3e ec 6b b5 be fc c1 86 3f
       0.5839813 0.16596292 -0.354339 1.0527949
0002a0 2a 1c 44 3f 72 3b 58 bd ac 71 31 be f2 16 2c bf
       0.76605475 -0.052791066 -0.17328519 -0.6722251
0002b0 96 2e 8f be 2c 6f 68 3e c4 7d f3 bd 6b fe 09 bf
       -0.2796523 0.22698659 -0.11889222 -0.53903836
0002c0 5a bd fd 3d 65 59 a5 be 25 e2 eb 3e 52 c8 8b 3e
       0.123896316 -0.32294765 0.46070972 0.2730127
0002d0 f4 f7 11 3f 79 7e 0c 3f 4c 11 57 be ef bf 88 3e
       0.5701897 0.5488048 -0.21002692 0.26708934
0002e0 8a 58 4d 3d 24 6e 5d 3e ee 2d 9c 3e 0d e2 84 be
       0.050133266 0.21624047 0.30503792 -0.25953713
0002f0 b7 47 09 3f 53 08 32 be 8d 14 8c 3e 12 eb 85 3f
       0.53625053 -0.17385988 0.2735943 1.0462363
000300 f9 84 0f 3c 2f d4 01 3f 5a 5a fa bd cf a4 01 3f
       0.0087597305 0.5071439 -0.122242644 0.506421
000310 0d 93 05 bf 4b be 8e be 63 fb 31 3e f5 aa a5 bf
       -0.52177507 -0.27879557 0.17381053 -1.2942797
000320 5c 20 b3 3b 70 70 89 be f7 e8 d5 3e f6 4b 88 be
       0.005466504 -0.26843596 0.417793 -0.26620454
000330 77 5f d0 3e 70 ea b2 3e c5 c2 dc be 23 4d 84 3e
       0.40697834 0.34944487 -0.43117347 0.258401
000340 06 01 20 3e 04 90 d1 3e 24 d2 1f be cb c7 a0 3e
       0.1562539 0.40930188 -0.15607506 0.3140243
000350 8f 2e e7 be cd b9 9b 3e b7 60 04 3e b2 2e 6d bf
       -0.4515271 0.30415192 0.12927519 -0.92649376
000360 df 58 9f 3e 43 28 00 3f bc 3d a0 3e 38 99 d0 be
       0.3112249 0.50061435 0.312971 -0.40741897
000370 fa f1 e4 3d 04 8c 79 be 4e 68 2a 3e da 5c 5d 3f
       0.11178966 -0.24369818 0.16641352 0.86469805
000380 9a 3e 5b be 58 da e4 be 76 c0 e6 3d cd 0b 00 3f
       -0.214106 -0.44697833 0.11267178 0.50018007
000390 ca da f3 bf 31 65 27 be 16 f8 cb 3f c1 8f 06 c0
       -1.9051144 -0.16347195 1.5935085 -2.102524
0003a0 a2 3d 6d 3e 86 1e f1 bf eb 85 7c be 03 07 11 3f
       0.23168042 -1.883744 -0.2466046 0.56651324
0003b0 a0 46 5f bf 7a e4 f8 3e 3a 1f 03 3f 98 c0 c1 bf
       -0.8721714 0.48611814 0.5121952 -1.51369
0003c0 9a e3 fa bd af b9 1f 3e a5 79 aa be 99 fd 65 be
       -0.12250443 0.15598176 -0.33295932 -0.22460021
0003d0 ae 7c 33 be 05 9e 32 be 46 b0 00 be 8f 36 53 3e
       -0.1752803 -0.17443092 -0.12567243 0.20626281
0003e0 b2 aa 72 be 2d fd 10 3f 4d 50 28 be ce 95 ba bd
       -0.23697928 0.56636316 -0.16436882 -0.09110604
0003f0 56 44 01 3f 13 9a 35 be 5a a5 dc 3e e7 cf 8f 3f
       0.504949 -0.17734556 0.43094903 1.1235322

model.0.bias f4 [128]
000000 30 b8 af 3f d7 c4 f3 bd 7a 9b c0 3e d1 f9 01 bf
       1.3728085 -0.119027786 0.3761862 -0.50771815
000010 85 4c a5 be 23 09 05 bf 79 58 68 be 9d 17 2d be
       -0.32284942 -0.51967067 -0.2269 -0.16903539
000020 6c 40 c9 3e bf 05 36 3f da 88 d6 3d 3a 7e 0b bc
       0.39306962 0.7110252 0.10475321 -0.0085139815
000030 a4 49 05 bf 82 b4 b4 3f 5a 26 04 3f 5b d3 bf 3f
       -0.5206549 1.4117587 0.5162102 1.4986376
000040 58 c2 15 be a3 49 13 3e 15 f7 58 be 84 cd 9c be
       -0.14624918 0.14383559 -0.21188004 -0.30625546
000050 db 57 53 bd 06 3f 95 be bd 84 f0 be e3 a8 91 be
       -0.051597457 -0.29149646 -0.4697627 -0.28449163
000060 64 ff 40 be b3 78 87 be 60 a1 81 be 2f 00 19 bd
       -0.18847424 -0.26459274 -0.25318432 -0.03735369
000070 67 3f 77 3f ab 8c ea 3e 74 5e 9b be 87 f2 21 be
       0.9658112 0.45810446 -0.303455 -0.15815173
000080 fa d3 d5 be 14 de 55 bd 4f 69 38 be bb 49 32 bf
       -0.41763288 -0.052213743 -0.18008922 -0.69643754
000090 eb e0 0d 3f 3c 4a c6 be 01 f0 94 3e dc 50 37 be
       0.5542132 -0.3872851 0.29089358 -0.17901939
0000a0 d5 b7 53 be 5d 65 ef be b4 a6 4e be d0 d0 99 bd
       -0.20675595 -0.46757022 -0.2018078 -0.07510531
0000b0 fa 8b 8a bf 15 b4 3b 3f 09 45 20 3f 07 58 b2 bd
       -1.0823967 0.7332166 0.6260534 -0.08708196
0000c0 92 c4 36 bf 51 63 61 3e 36 2f 8f bc 58 3d 1f 3f
       -0.7139369 0.22010542 -0.017478567 0.6220298
0000d0 24 a0 18 bf c4 c2 e9 3e eb 3a 81 3e 69 61 2e 3f
       -0.59619355 0.45656407 0.25240263 0.68117386
0000e0 d5 55 83 be 35 f9 5e be 09 a7 af be d2 19 c2 3f
       -0.25651422 -0.21774752 -0.34307125 1.516413
0000f0 d1 e8 38 bf 74 4e dd 3f de e5 62 be 1a c7 4f be
       -0.7223025 1.7289567 -0.22158 -0.20290795
000100 78 90 11 3f db a8 24 3e 44 5a 14 3f 9c 01 1e bf
       0.56861067 0.16080038 0.57950234 -0.61721206
000110 96 1c 2b be 07 29 8e be b3 84 8f be 85 20 2e 3f
       -0.16710123 -0.27765676 -0.2803093 0.6801837
000120 af 73 e3 be 4d 37 5a 3d 92 c9 d8 3f 06 2b 0b bd
       -0.44424197 0.053275395 1.6936514 -0.033976577
000130 d6 02 ca bd f7 34 5a be 8b 72 b7 3d 99 bf a7 bd
       -0.09863822 -0.21309267 0.08957394 -0.08190841
000140 25 d8 0e 3f ab 6b 4d bd 41 32 86 be d2 07 75 3f
       0.5579856 -0.05015151 -0.26210216 0.9571506
000150 cd 43 90 3f e7 96 5c 3f b1 f8 21 bd 80 ee 74 be
       1.1270691 0.8616776 -0.03954381 -0.23919106
000160 a6 9b 88 bd da 32 5b 3f 89 8c c9 3e fa 5f 07 3f
       -0.066703126 0.8562447 0.39365032 0.52880824
000170 ce 3b b6 3d 83 b4 8e 3e 64 f4 e2 be 6f 9f 1f bf
       0.088981256 0.27872095 -0.4432708 -0.6235265
000180 8e 73 95 be a3 34 f2 3e 88 e8 a4 be 78 d8 69 3f
       -0.29189724 0.47305784 -0.32208657 0.9134593
000190 90 09 b7 3d e2 86 93 3f 63 0c 0b bd 99 2e 17 3f
       0.08937371 1.1525538 -0.03394736 0.5905548
0001a0 4b 39 82 3f 03 db 86 be f6 4c 00 bf 86 c8 a1 bd
       1.0173734 -0.26338968 -0.50117433 -0.07899575
0001b0 5c 56 c5 bf df 4f 6c 3c fc 41 f2 bd e1 fb 24 3d
       -1.541698 0.01442334 -0.11828992 0.040279273
0001c0 ca e1 c8 bd d8 e6 99 3e ed ad af be da f8 0f bf
       -0.09808691 0.30058932 -0.34312382 -0.5623909
0001d0 63 71 18 3e ef c8 a9 3e 2f 44 92 3f d5 40 38 3f
       0.14887004 0.33161113 1.1427058 0.71973926
0001e0 07 a4 65 be 84 c3 43 bf 8f c1 9a 3e e3 fb 0d bc
       -0.22425853 -0.7647021 0.30225798 -0.0086660115
0001f0 e2 10 b5 3e 63 b6 92 be 3a 04 c6 3e 7b 58 33 3f
       0.35364443 -0.28654775 0.386751 0.70056885

model.2.weight f4 [128, 128]
000000 d7 bc 33 40 86 6d f7 be 84 ea e5 3f e2 92 80 bf
       2.8084009 -0.48325747 1.7962193 -1.0044825
000010 59 33 3a 3f 1d 63 8b be af 35 ae be 35 e8 1f 3e
       0.727346 -0.27224055 -0.34025332 0.15615924
000020 cf 7c 9c 3e dd 9e 05 3e 84 33 08 3f de ca 94 be
       0.3056397 0.13048883 0.53203607 -0.29061025
000030 f9 fd d0 be 49 3e 88 3f a6 6b 63 bf f6 c8 98 3f
       -0.40818766 1.0644008 -0.88836133 1.1936328
000040 08 e7 51 bc db c6 c5 3e da ae 9c be 27 e1 a7 be
       -0.01281143 0.38628277 -0.3060215 -0.32788965
000050 2d 46 0e be 43 20 04 c0 9c db 40 bf ed 91 e5 3d
       -0.13893957 -2.064469 -0.753351 0.11209474
000060 67 8b 61 3e 94 01 5d be bf d3 0f bf a9 9e 08 3f
       0.22025834 -0.21582633 -0.56182474 0.53367096
000070 c9 88 8c 3f 76 96 30 3f 8f 8b 80 3d 23 ab 8c 3e
       1.0979244 0.68979585 0.06276619 0.27474317
000080 42 7f 24 be 10 16 84 3e 7b c4 e0 3e 65 88 5e bf
       -0.1606417 0.25798082 0.43899903 -0.8692687
000090 95 44 b1 3e a6 09 e5 3e ab aa 04 bb 78 dc 96 be
       0.34622636 0.44733924 -0.0020243328 -0.2946508
0000a0 62 66 0e be d1 d6 1c bf 27 36 60 be fb c2 5f bd
       -0.13906243 -0.61265284 -0.21895657 -0.054629307
0000b0 2b e0 04 c0 38 01 3e 40 53 cc 88 3e 80 f5 e0 bc
       -2.0761821 2.9688244 0.26718387 -0.027460814
0000c0 23 a7 17 be ad e0 52 bf e1 68 cf be 4a ee 09 3f
       -0.14809851 -0.8237408 -0.40509704 0.53879225
0000d0 b0 d5 ed bd 9f 65 6f 3e c3 46 cb 3e a9 ff 47 40
       -0.11613023 0.23378609 0.39702424 3.1249793
0000e0 f5 49 03 bc 75 6c 1f be f0 cd a9 bb be 4a 78 3f
       -0.008013238 -0.15568717 -0.0051820204 0.9698905
0000f0 3b 7d 32 be 2e 14 e8 3f b5 9c 2f c0 e9 68 35 bf
       -0.17430584 1.8131158 -2.7439396 -0.70863205
000100 88 46 1f be 93 76 a7 bd ec 24 b3 3f cc 1e 23 bf
       -0.1555425 -0.08176913 1.3995643 -0.6371887
000110 92 61 2c 3e 3f 5d d4 be 4a 69 0b bd 75 62 89 3f
       0.16834095 -0.4147739 -0.03403596 1.0733172
000120 d4 a5 19 3e 6e 6e 5f bd f7 b3 17 40 42 61 48 3f
       0.15004665 -0.054548673 2.3703592 0.78273404
000130 77 69 47 3e 0d 85 b3 be ea 99 9f be d3 2f 5c 3b
       0.19473825 -0.35062447 -0.31172115 0.0033597841
000140 1c 11 e4 3d a9 35 5c 3d 91 42 ba be 98 4b 31 3f
       0.11136076 0.05376211 -0.3637891 0.6925597
000150 66 60 88 3f 14 a0 54 3f 61 46 64 be a4 a0 6c 3e
       1.0654418 0.8305676 -0.22292472 0.23108155
000160 1d 0a 96 bd 02 14 a0 3e 64 4e ff 3f 20 ff 0f 3e
       -0.07326148 0.31265265 1.9945798 0.14062166
000170 96 ca 5b 3e 5a 1d 42 3e 1e 9d 08 bf 9c 91 5b bf
       0.21463999 0.18956509 -0.5336474 -0.8576906
000180 61 c5 d6 be 7a 20 0a 40 30 2a 29 bd a2 cd 3e bc
       -0.41947463 2.1582322 -0.0413 -0.011645706
000190 a0 b7 86 3f 98 54 c0 3d 43 56 09 bc aa 6d 39 3f
       1.0524788 0.09391135 -0.008382383 0.7243296
0001a0 9c 85 ce 3f 75 9b ab be 16 11 9d bb cd 16 1e 3e
       1.6134524 -0.33517042 -0.0047932966 0.15438385
0001b0 f9 ed e8 be 7c 06 4c 3f 4f 0b 2e bd 06 f4 9e 3e
       -0.4549406 0.79697394 -0.042491253 0.3104555
0001c0 3f e4 f1 3c 4d f1 50 3f d6 b9 e1 bd 0f 92 3d bf
       0.029527782 0.81618196 -0.110217735 -0.7405099
0001d0 a7 7d 40 bf 2d c9 43 3f eb c7 6c 3f cb ef 23 3f
       -0.7519173 0.76478845 0.9249255 0.6403777
0001e0 44 72 f6 bd 89 82 40 be 5c 2f ca bd 40 a5 ab bc
       -0.12033513 -0.18799795 -0.09872314 -0.02095282
0001f0 96 a9 03 be 40 c2 b8 bf eb 26 eb 3f de b4 4e 3f
       -0.1285766 -1.443428 1.8371252 0.8074473
000200 2f 99 e6 bf 10 8b ab 3e 72 c6 04 bf b3 85 85 3e
       -1.8015498 0.33504534 -0.51865304 0.26078567
000210 d5 bc c8 bd 6a e1 ef 3e f4 b1 14 3f 92 5d 47 bd
       -0.09801642 0.46851665 0.58084035 -0.04867322
000220 d8 1e 40 bf ad b4 1c 3f 48 23 c5 3e 63 26 62 3e
       -0.75047064 0.6121319 0.3850348 0.22084956
000230 8b ef 08 3e 98 59 f7 3d f5 a2 fc bf 6a 53 54 bf
       0.13372628 0.120776355 -1.973723 -0.8293978
000240 f9 a6 b3 3d cc 0d 52 3e 8c f6 a2 3e 1e ab 8c 3d
       0.08772082 0.20513076 0.31828725 0.068685755
000250 f0 39 c6 3e 59 bb 54 bf 9f 08 a6 3e 70 69 f7 3e
       0.38716078 -0.8309837 0.32428452 0.4832263
000260 c9 38 07 bf eb b0 84 3e b3 da ff be 3e 78 bf 3e
       -0.5282102 0.25916228 -0.49971542 0.37396425
000270 f8 9e ac bf 11 52 36 3f c4 32 6e 3d 8a 9e c2 3e
       -1.3486013 0.71218973 0.058153883 0.3801158
000280 9e b8 ae 3e 4d 06 58 bf a5 3b ac 3e ca 0e 5a 3f
       0.34125227 -0.84384614 0.33639255 0.85178816
000290 6e d8 c8 3e b9 cf 41 bf 85 41 94 3e 4f 38 18 3e
       0.39227623 -0.75707585 0.28956237 0.1486523
0002a0 ee af c7 3e f3 f9 1d 3e cf 69 9d 3e b2 c5 ef 3d
       0.3900141 0.1542738 0.30744788 0.11707629
0002b0 80 bc d7 3f 19 65 0e 40 db bc 8e 3e 9e 00 96 3e
       1.6854401 2.2249205 0.2787846 0.29297346
0002c0 ea 4b aa 3e 1e cb 37 bf a1 c9 92 3e 56 7c 36 be
       0.33261043 -0.7179431 0.28669456 -0.17820868
0002d0 1b cc d8 3e 03 19 d6 bf b9 33 c7 3e 43 eb 77 40
       0.4234322 -1.6726383 0.3890665 3.8737342
0002e0 d0 8d c2 bf d0 6d dd be aa fc f4 ba 50 29 cc bf
       -1.5199528 -0.43247843 -0.0018691022 -1.5950108
0002f0 2d 40 c0 be 0a 3d 6d c0 10 c7 09 c0 c4 a8 7b 3e
       -0.37548962 -3.7068505 -2.1527748 0.24576098
000300 e9 73 15 3f e8 03 99 3e 2d 0f 68 3f 19 61 de be
       0.5837999 0.29885793 0.90648156 -0.43433455
000310 85 7c 83 bf 6c 65 b0 bf 32 20 c4 3e 55 60 0e c0
       -1.0272375 -1.3780951 0.38305813 -2.2246296
000320 a1 8e fb be cd ca 3e bf 43 1c 4f c0 2a 25 83 3e
       -0.49132255 -0.745282 -3.2361 0.2561429
000330 5c 1c f4 bd 18 ec 38 bf 40 45 01 bf 35 7f 21 3d
       -0.119194716 -0.7223525 -0.5049629 0.039427955
000340 6b 9e 3e bf 25 46 60 3e c9 3f 6a 3e dd 45 09 bf
       -0.74460477 0.21901758 0.22875895 -0.5362223
000350 98 46 de 3f 3d 06 53 3f 5f 57 7c 3e 6f 12 d6 be
       1.7365294 0.82431394 0.24642704 -0.4181094
000360 0f 01 a4 3e 49 5d 13 3f 02 ed 04 40 d2 4b c6 be
       0.32032058 0.57564217 2.0769658 -0.3872972
000370 fb 78 c6 3e 99 71 6e 3e 80 a9 95 3e 07 f0 72 3e
       0.38764176 0.23285522 0.2923088 0.23724376
000380 da 15 0f 3e 89 db c8 3e d7 1e e6 3e 16 93 a7 be
       0.1397318 0.39229992 0.44945404 -0.32729405
000390 61 5a 0c 3f e7 79 e6 bf 47 e7 13 bf 5f dc 37 bf
       0.5482541 -1.8005952 -0.57774776 -0.71820635
0003a0 e7 fc 6e 3f 37 8c b4 3e aa 82 29 3f f4 9e 81 3e
       0.9335465 0.35263225 0.66215 0.25316584
0003b0 f3 e7 c5 3f 36 06 48 3f 6c d1 dc be b6 64 7d 3e
       1.546141 0.7813448 -0.43128526 0.2474545
0003c0 9c 00 74 be 40 3a 23 3c dc 05 db 3e a2 fd 42 3e
       -0.23828357 0.009962618 0.42777908 0.19042066
0003d0 d0 10 53 be 61 e0 6d bd 00 f2 f7 3e b0 04 98 bf
       -0.20611882 -0.058075313 0.4842682 -1.187643
0003e0 8d aa a6 3e fa 56 59 bf 8b 6a 9d 3e fd 60 7b bd
       0.32551995 -0.8489834 0.30745348 -0.061371792
0003f0 6c f6 94 3e 18 b8 43 3e 87 c5 8e 3f a3 55 f4 3d
       0.29094255 0.19113195 1.115403 0.119303964

model.2.bias f4 [128]
000000 be 63 e7 3f ee 4a bf 3e 49 c4 e8 3e 3a 5d 16 bf
       1.8077314 0.37361854 0.45462254 -0.58736
000010 e1 7e bf bd 54 b2 db 39 a8 47 2c be 20 20 97 bd
       -0.09350372 0.000419038 -0.1682421 -0.07379174
000020 7d 09 9d bc 53 44 8a bd 0e b3 3e bd cf b4 c5 3d
       -0.019169563 -0.06751313 -0.04655748 0.09653627
000030 04 17 63 3d 15 85 ac bd a6 e8 bd bd 35 b2 ad 3e
       0.05544187 -0.08423821 -0.0927289 0.33925024
000040 40 86 a1 3b 56 18 db 3f 3a e6 38 bd d1 2a 8e be
       0.004929334 1.7116802 -0.045141436 -0.2776704
000050 ec 21 dc bd 57 e7 7c be c5 9e 29 3f 2c e9 dd 3e
       -0.107486576 -0.24697624 0.6625789 0.4334196
000060 23 3b 85 bc 78 74 9a bc ad 83 85 3f f8 4e 91 be
       -0.01626355 -0.018854365 1.0430809 -0.2838056
000070 46 c5 66 3d df 72 b9 bd 01 8a 4e bb 3c 88 f6 3d
       0.05634048 -0.09055113 -0.0031515362 0.120377034
000080 41 b2 6d bd 2c cb 21 3e b0 7f 98 bc 7e db 9e 3f
       -0.058031324 0.1580016 -0.018615574 1.2410734
000090 9b 2b b8 3e 8a a8 0d 3e 42 c5 6f bd a5 ee 1b 3d
       0.35970768 0.13833824 -0.05853773 0.038069386
0000a0 a8 60 df 3e ae 75 15 3f 22 5d 83 3d 87 6c 4d bd
       0.4362843 0.5838269 0.06414248 -0.050152328
0000b0 9e 11 68 be 74 aa 5d be 47 5d 9b 3c cc aa 81 be
       -0.2266297 -0.21647054 0.018965377 -0.2532562
0000c0 f2 d8 78 be 2b 21 b9 3d b6 84 f7 bb d8 45 2f 3c
       -0.24301508 0.090395294 -0.007553662 0.010697804
0000d0 61 b6 49 3c 4e 15 0b 3c 67 da dd 3f 19 90 46 3e
       0.012311549 0.008488966 1.7332276 0.19390906
0000e0 e2 6c b7 bd 41 5c 9a bd 05 f0 59 bd 3c 39 1f 3e
       -0.089563146 -0.07537127 -0.053207416 0.15549177
0000f0 54 44 c9 3e 67 97 3a 3d 74 3c a8 3e 9f 64 45 be
       0.39309943 0.045554545 0.32858622 -0.19276665
000100 af da 8d bd a3 92 18 3e 07 3b 2d ba 02 95 b0 bd
       -0.06926476 0.14899687 -0.0006608222 -0.08622171
000110 6b 33 88 bd 2d 26 06 3f b7 3d c7 bd 1a d8 8b 3f
       -0.06650432 0.52402 -0.09728568 1.0925324
000120 95 8a 79 3f 29 a5 07 be 81 be d2 3d 9a 8b 38 bd
       0.97477084 -0.13246597 0.10290242 -0.04505501
000130 0f ff 15 3d cc 2d d7 bd 2f 3e 8a bd 41 a8 ac 3e
       0.036620196 -0.10506782 -0.06750142 0.33722118
000140 a1 de 16 3f 9d 62 5c be ed 59 4a 3e c8 4d 8e be
       0.58933455 -0.21521993 0.19760866 -0.27793717
000150 f2 06 86 be d6 22 f3 bc bb 10 1d be 17 6f 54 bd
       -0.26177174 -0.029679697 -0.15338413 -0.051863756
000160 a9 18 eb bd e5 51 a1 bd b5 e1 07 3f 25 1d 2f bd
       -0.11479313 -0.07876948 0.53078777 -0.042752404
000170 1a 08 77 bd f0 a5 87 3d 46 86 77 bd 40 37 42 be
       -0.06031046 0.06623447 -0.060430788 -0.18966389
000180 8f 9d dd bd 20 a8 bc 3d 5a 6b f4 bd 59 e3 a0 bd
       -0.108210675 0.09211755 -0.11934538 -0.07855863
000190 fb 8e 17 3e 47 5c b9 3d 59 fb 01 bd 31 05 42 bd
       0.14800636 0.09050804 -0.031733844 -0.047368232
0001a0 c7 db c9 3e 2f 58 a4 bd f5 ca 05 bf 2f 15 20 3e
       0.3942549 -0.08024632 -0.5226281 0.15633081
0001b0 fb a4 46 bd fe c8 01 bd 1f 75 08 be 46 0f 1f 3e
       -0.04849718 -0.03168582 -0.13325928 0.1553317
0001c0 90 55 f4 3d dc 8e c9 3f f6 2f 7d be 7e 7c c0 be
       0.11930382 1.5746722 -0.24725327 -0.3759498
0001d0 67 15 82 bd 90 33 69 bf d2 5b 27 3d 49 b2 9e 3c
       -0.063517384 -0.91094303 0.04085905 0.019372122
0001e0 60 b0 47 3e 1b 02 87 be e0 10 34 bd 04 1c 5e bd
       0.19500875 -0.26368794 -0.043961406 -0.054225937
0001f0 e9 13 2e bd 6a 3d be bb 87 a3 48 bc 0c e5 90 3f
       -0.042499457 -0.005805661 -0.012246019 1.13199
